models/BTC_USDT_15m_model.pth (torch, 215477 bytes, 9 tensors)

lstm.weight_ih_l0 f4 [256, 10]
0	0x3a724a02	0.00092425954
1	0xbdc5e7a2	-0.09663321
2	0x3dd688af	0.10475289
3	0x3d32f705	0.043692607
4	0xbda1f967	-0.07908898
5	0xbdd5d5d8	-0.10441178
6	0x3cbf7848	0.023372784
7	0x3d2d68b7	0.042336192
8	0x3d8ea954	0.069658905
9	0x3dc9a7dc	0.0984647
10	0x3d65451c	0.05597411
11	0xbd8a02f7	-0.06738847
12	0xbd8ffb22	-0.07030322
13	0xbd3768ec	-0.044777796
14	0x3d762f08	0.060103446
15	0x3c4f10c5	0.0126382755
16	0x3da248a1	0.07924009
17	0xbd8cb759	-0.06870908
18	0x3d63da61	0.055628184
19	0x3ceffe90	0.02929619
20	0x3c522da2	0.0128282625
21	0xbcac6ded	-0.02104851
22	0x3c867d05	0.016417036
23	0x3e0386b1	0.1284435
24	0x3dfdffe0	0.1240232
25	0xbc227979	-0.009916657
26	0x3d052cad	0.03251331
27	0xbd6ee1d8	-0.05832085
28	0x3d1bb778	0.038016766
29	0xbd39e0fd	-0.04538058
30	0x3dd5cf97	0.10439985
31	0xbda4e009	-0.08050544
32	0x3d0d8a99	0.034556005
33	0xbd58a334	-0.052890018
34	0x3d22d239	0.039751265
35	0x3d7cbd74	0.061704114
36	0xbd191d15	-0.03738125
37	0x3b359c67	0.0027711631
38	0x3df7f0f0	0.12106502
39	0xbc90100e	-0.01758578
40	0xbdbf4d01	-0.09340859
41	0x3d616fdb	0.055038314
42	0xbd849df9	-0.064754434
43	0xbd7be63e	-0.061498873
44	0x3cc27b56	0.023740452
45	0x3dd70393	0.104987286
46	0x3d1b7b61	0.03795946
47	0x3ddf5a37	0.10905879
48	0x3df83fa1	0.12121511
49	0x3dd94073	0.10607996
50	0x3df425a1	0.1192124
51	0xbc2330a7	-0.00996033
52	0xbd6517e7	-0.055931
53	0x3db93009	0.09042365
54	0x3b33f969	0.0027461892
55	0xbcda1ecf	-0.026626019
56	0x3d0915f6	0.03346821
57	0x3db550e3	0.088533185
58	0x3debdb9f	0.11516499
59	0xbaf85a0e	-0.0018947737
60	0xbd9b6b9e	-0.07588886
61	0x3de92ab3	0.11385097
62	0x3dab7955	0.083727516
63	0x3cb2fcc7	0.02184905
64	0xbd67c9ef	-0.056589063
65	0xbdb8246d	-0.08991323
66	0x3da4fa6f	0.08055579
67	0x3ce8bf03	0.028411394
68	0xbd8dc3b6	-0.069220945
69	0xbdde2140	-0.10846186
70	0xbca863aa	-0.020555336
71	0xbbe460c7	-0.0069695446
72	0x3d874128	0.066042244
73	0xbdb40caa	-0.08791478
74	0xbdd64cd5	-0.10463873
75	0xbde6eb84	-0.1127539
76	0x3d4b5973	0.049645852
77	0x3d905ff7	0.07049554
78	0x3d23289d	0.039833654
79	0xbdaa3cae	-0.08312355
80	0x3db0b5d1	0.08628429
81	0xbd830ecd	-0.063993074
82	0xbe024618	-0.12722051
83	0x39a35a4f	0.00031157068
84	0x3cb67ad7	0.022275371
85	0xbdb49159	-0.08816785
86	0xbc1182e8	-0.008881308
87	0xbdbbeb6e	-0.09175764
88	0xbcce0f98	-0.02515392
89	0xbdfaae69	-0.12240297
90	0xbd5185ec	-0.05115311
91	0x3d9de029	0.07708771
92	0xbd73ace0	-0.05949104
93	0x3de32629	0.11091263
94	0xbd372b2f	-0.044718917
95	0xbdd086d7	-0.10181969
96	0xbdeca24e	-0.11554395
97	0x3dcdf77a	0.10056968
98	0x3dc3bb6c	0.09557232
99	0x3c20c3c5	0.0098123
100	0x3af9a84f	0.0019047352
101	0x3d1a1c70	0.037624776
102	0xbd7f5352	-0.06233532
103	0xbc3055b0	-0.010762617
104	0xbde5c233	-0.11218681
105	0xbc86d918	-0.01646094
106	0x3db61cef	0.088922374
107	0xbcc4d698	-0.024028108
108	0xbd844300	-0.06458092
109	0x3c9f2ab8	0.01942955
110	0x3ddf25d4	0.10895887
111	0xbdcdcfe2	-0.10049416
112	0x3daf5c13	0.08562484
113	0x3d5e97b4	0.054343894
114	0x3cd087aa	0.025455315
115	0x3b6a4d97	0.0035751814
116	0xbd457662	-0.0482086
117	0x3decb094	0.11557117
118	0x3df2e570	0.11860168
119	0xbbb4e3a8	-0.005520303
120	0xbc1af84b	-0.009458612
121	0xbe05f740	-0.130826
122	0xbcd5c6d4	-0.026095785
123	0xbc48ceb3	-0.012256312
124	0xbd9d605d	-0.076843955
125	0x3c208231	0.009796665
126	0xbde60793	-0.112319134
127	0x3d8008b8	0.06251663
128	0xbdbde452	-0.09272064
129	0xbca618ac	-0.020275436
130	0xbd5f42b0	-0.054506958
131	0x3d9d093c	0.07667777
132	0x3e0daeb5	0.13836177
133	0x3d86a72a	0.06574853
134	0xbdbfc40a	-0.09363563
135	0xbd396673	-0.04526372
136	0x3d9f2a7a	0.07771774
137	0x3d9494f0	0.0725497
138	0x3ad207da	0.0016024068
139	0x3d65573e	0.055991404
140	0xbd8e462b	-0.06946977
141	0xbbb1c1a5	-0.0054246956
142	0x3dff27c5	0.12458757
143	0x3dbd998c	0.09257802
144	0x3d2f4466	0.04278984
145	0xbd1c80e3	-0.038208853
146	0x3d3d340c	0.046192214
147	0xbcb63680	-0.022242785
148	0x3d5f32e5	0.054491896
149	0xbd1c564a	-0.03816823
150	0xbdd94bf6	-0.106101915
151	0xbe07db66	-0.13267288
152	0xbe084f6d	-0.13311549
153	0xbdd5f3fb	-0.10446926
154	0x3c305577	0.010762564
155	0x3db4a490	0.0882045
156	0x3d0852ad	0.03328197
157	0x3c8599c3	0.01630867
158	0x3d3d08fa	0.04615114
159	0xbbad0919	-0.0052806255
160	0x3ddcb5ef	0.107768886
161	0xbd19311a	-0.037400343
162	0xbd28e1c3	-0.04123093
163	0x3ddb75ab	0.10715803
164	0xbd942402	-0.072334304
165	0xbd8c9b64	-0.06865576
166	0x3bb2a823	0.0054521724
167	0xbdad6e78	-0.08468336
168	0xbd850684	-0.064953834
169	0x3d49ee2f	0.049299415
170	0x3e020c0a	0.12699905
171	0x3d18addb	0.037275176
172	0xbd16f6b1	-0.036856357
173	0xbcd64c53	-0.026159441
174	0xbca8567e	-0.020549055
175	0xbd098134	-0.033570483
176	0x3c92c90c	0.017918132
177	0xbd8a1c54	-0.067436844
178	0x3dffbe9a	0.12487526
179	0xbdbb1c38	-0.09136242
180	0xbdd8e347	-0.10590225
181	0xbdb61ad4	-0.08891836
182	0xbd4b8637	-0.049688544
183	0xbdd8b5f4	-0.1058158
184	0x3d6db2de	0.05803191
185	0x3cfa0275	0.03051875
186	0x3d94ae52	0.072598115
187	0x3ccab8f6	0.0247464
188	0xbdb57258	-0.088597
189	0xbd165e28	-0.03671089
190	0x3dbc1eff	0.091855995
191	0x3d1edd64	0.038785353
192	0xbc1a7d61	-0.009429307
193	0x3c271d97	0.010199926
194	0x3e04f53e	0.12984177
195	0x3d555b2c	0.0520889
196	0x3d6088fa	0.05481813
197	0xbd01033b	-0.03149722
198	0xbdb7a863	-0.08967664
199	0xbdce5c17	-0.100761585
200	0x3dd9336e	0.106055126
201	0xbdc38b2d	-0.0954803
202	0x3d8708c7	0.06593471
203	0xbde4f9c8	-0.111804545
204	0xbdd10064	-0.10205153
205	0xbdea9d80	-0.11455822
206	0x3dd45b04	0.10368922
207	0x3b53cd28	0.0032318328
208	0xbad29166	-0.0016065061
209	0xbc166f9d	-0.009181884
210	0xbd7c2318	-0.061556906
211	0xbdd1e8c4	-0.10249475
212	0x3d37cc20	0.044872403
213	0xbdbdae3e	-0.0926175
214	0x3d186068	0.037201315
215	0x3923d1df	0.00015623074
216	0x3dcbba95	0.09947697
217	0xbd81d405	-0.06339268
218	0x3d962d90	0.07332909
219	0x3de4d74b	0.111738764
220	0x3e0a7788	0.1352216
221	0x3d82a933	0.063799284
222	0xbdc88a48	-0.09792
223	0x3caea0f8	0.02131699
224	0x3dc34e36	0.09536402
225	0xbd9627a9	-0.07331783
226	0xbd8c397e	-0.06846903
227	0xbdb5de6a	-0.08880313
228	0xbc9ce70d	-0.019153142
229	0xbc4303b1	-0.011902736
230	0x3dc1a06c	0.09454426
231	0x3d9f54ee	0.07779871
232	0x3deaae45	0.114590205
233	0xbd120b32	-0.035655208
234	0x3c43062c	0.011903327
235	0x3e04858d	0.1294157
236	0x3bd42c0a	0.0064749764
237	0x3d177aa8	0.03698221
238	0x3cdbc7b4	0.026828624
239	0xbcbc75cc	-0.023005389
240	0x3e0b83db	0.13624518
241	0x3cec127c	0.028817408
242	0x3d9530c6	0.072846934
243	0xbc55ede3	-0.013057205
244	0xbbef49c9	-0.007302497
245	0x3db9094f	0.090349786
246	0x3d304e69	0.043043528
247	0x3d5b8c27	0.053600457
248	0x3cceec76	0.025259238
249	0xbd102027	-0.035186913
250	0x3e057c47	0.1303569
251	0xbdb49d17	-0.08819025
252	0x3d10f8d1	0.03539354
253	0x3dceb945	0.10093931
254	0xbdc61193	-0.09671321
255	0x3e02263e	0.127099

lstm.weight_hh_l0 f4 [256, 64]
0	0x3d815a79	0.063160844
1	0xbd8b8928	-0.0681327
2	0xbd866bf1	-0.06563557
3	0xbdb407c7	-0.08790546
4	0x3da97c3f	0.08275651
5	0x3d48d5d6	0.049032055
6	0xbbd31fdf	-0.0064430083
7	0xbc9d9909	-0.019238012
8	0xbd8ff796	-0.07029645
9	0x3d6a7df0	0.05724901
10	0xbd92b9b8	-0.07164329
11	0xbe00481d	-0.12527509
12	0xbd8a6824	-0.067581445
13	0x3b839921	0.004016057
14	0xbde0d5ff	-0.109783165
15	0x3d0e1166	0.03468456
16	0xbd9f0481	-0.07764531
17	0xbca938ee	-0.020657029
18	0xbd3bf278	-0.045885533
19	0x3dff70e1	0.12472702
20	0xbdc438e9	-0.09581167
21	0x3dc3b141	0.09555293
22	0xbbe8a0be	-0.00709924
23	0xbda82836	-0.08210795
24	0xbca283f3	-0.019838309
25	0x3d909624	0.07059887
26	0xbd865554	-0.06559244
27	0x3d356460	0.04428518
28	0xbd93b16f	-0.07211577
29	0xbda819c1	-0.08208037
30	0x3dc28096	0.09497182
31	0xbd96f468	-0.073708355
32	0xbd4d8c7c	-0.050182804
33	0x3d7b50c7	0.061356332
34	0x3e06543f	0.13118075
35	0x3d1dabbb	0.038493853
36	0x3dcae76e	0.09907423
37	0x3ddc21ea	0.10748656
38	0x3d2b8be4	0.041881457
39	0x3d2b2747	0.041785505
40	0x3d8ef86b	0.06980976
41	0x3d9b4feb	0.075836025
42	0xbdb3debe	-0.08782719
43	0xbdae3571	-0.08506287
44	0xbd2f0e7f	-0.042738434
45	0x3ca25d53	0.019819891
46	0xbc4a2ce9	-0.012339809
47	0xbd648836	-0.055793963
48	0x3d1f5865	0.03890266
49	0xbd0146f0	-0.031561792
50	0x3cc171c7	0.023613824
51	0x3dacadb4	0.08431569
52	0xbd9ab47c	-0.07553956
53	0xbe050ec3	-0.12993912
54	0xbe06f84a	-0.13180652
55	0x3a061e33	0.00051161944
56	0x3dc8570b	0.09782227
57	0xbc97e022	-0.018539492
58	0xbcd091eb	-0.025460204
59	0x3df15df8	0.11785501
60	0xbd985433	-0.07437935
61	0x3d7992ad	0.060930897
62	0xbdf6844d	-0.12036953
63	0x3d305175	0.043046433
64	0xbdefe7a1	-0.117141016
65	0x3d8b003c	0.06787154
66	0xbc2c4d74	-0.010516513
67	0xbd972917	-0.07380884
68	0x3d8efd5e	0.0698192
69	0x3d750d21	0.059826974
70	0x3da33f98	0.07971114
71	0xbd1e0486	-0.038578533
72	0x3d08433f	0.033267256
73	0xbd6e0e4f	-0.058119114
74	0x3cb59b98	0.02216892
75	0x3d5777cb	0.052604478
76	0x3c94d42f	0.018167583
77	0xbccfa1cd	-0.025345707
78	0x3db34488	0.08753306
79	0x3d8d4dbd	0.06899593
80	0xbd772dbe	-0.060346358
81	0x3dbb0c9f	0.09133267
82	0x3bf8aa67	0.007588673
83	0x3d2f43a1	0.042789105
84	0xbdbfe238	-0.0936932
85	0xbd9d669d	-0.076855876
86	0xbdc5f293	-0.09665408
87	0x3c48ae20	0.012248546
88	0x3d4d0896	0.050057016
89	0xbdf864a4	-0.12128571
90	0x3e09572e	0.13412163
91	0xbd944a34	-0.072407156
92	0x3d7b976a	0.061423697
93	0xbdc1eee1	-0.09469391
94	0xbd92c747	-0.071669154
95	0xbde8487b	-0.113419496
96	0x3d98cf82	0.07461454
97	0x3c8c13b2	0.017099235
98	0xbc13e1e2	-0.009026023
99	0xbc3270c2	-0.010891141
100	0xbd849637	-0.06473964
101	0xbdd98cb5	-0.10622541
102	0xbda1d583	-0.07902052
103	0x3d71a0c6	0.058991216
104	0x3d0d29c2	0.03446365
105	0xbd5d974f	-0.054099377
106	0xbd3197cd	-0.04335766
107	0xbdeb89d6	-0.115008995
108	0x3dcb4306	0.09924893
109	0xbdb8e130	-0.09027326
110	0xbbcdf101	-0.0062848334
111	0xbce409d3	-0.027836716
112	0xbde830ce	-0.11337434
113	0xbd1371bb	-0.035997134
114	0x3d48f069	0.049057398
115	0xbb72a42c	-0.0037024124
116	0xbd713132	-0.058884807
117	0xbda25a2d	-0.07927356
118	0xbc0753b4	-0.0082597025
119	0x3d323990	0.043511927
120	0x3dca358b	0.09873494
121	0xbd4ff3ab	-0.05076949
122	0xbd88bb7a	-0.06676383
123	0xbda96d8c	-0.082728475
124	0xbdce0e24	-0.10061291
125	0xbcee0cb8	-0.0290588
126	0x3d47388a	0.048637904
127	0xbdf04a9f	-0.11732983
128	0x3d26a1b7	0.040681567
129	0xbd602267	-0.05472031
130	0x3dd3870b	0.10328492
131	0x3dca6e6b	0.09884342
132	0xbdf5098f	-0.11964714
133	0xbd4ed7ec	-0.050498888
134	0x3dd3112b	0.10306009
135	0xbd0db5b0	-0.0345971
136	0x3d0740a9	0.03302065
137	0x3b847e21	0.004043356
138	0x3d37fb08	0.044917136
139	0x3d077df8	0.033079118
140	0xbd04943a	-0.032367922
141	0x3c453821	0.012037308
142	0x3db23c0c	0.08702859
143	0xbbe2f6dd	-0.006926401
144	0x3ddc773f	0.10764932
145	0x3d9c1df2	0.07622899
146	0xbd2efc80	-0.04272127
147	0xbc4033d1	-0.011731104
148	0xbdc61bb5	-0.096732534
149	0x3d0b8914	0.034066275
150	0xbd18b466	-0.037281416
151	0x3dc307a8	0.09522945
152	0x3caf723a	0.021416772
153	0x3de14aef	0.110006206
154	0x3c8ee7ca	0.01744451
155	0xbc82948e	-0.015939977
156	0xbd12ed3a	-0.035870768
157	0x3de9d912	0.11418356
158	0x3daefbf8	0.08544153
159	0x3d61c10a	0.055115737
160	0x3d0f65e9	0.0350093
161	0x3c6be7ef	0.014398559
162	0x3d0f71d0	0.03502065
163	0xbb94a910	-0.0045367554
164	0xbd952df8	-0.072841585
165	0xbdc7eaef	-0.09761607
166	0xbc7630ce	-0.015026284
167	0x3dcda1ce	0.100406274
168	0x3d07e23d	0.033174742
169	0xbd098c83	-0.033581268
170	0xbdf1b885	-0.118027724
171	0x3c9012af	0.017587034
172	0x3c36b397	0.011151216
173	0x3d16c85c	0.03681217
174	0x3e068038	0.13134849
175	0x3dc5f285	0.096653976
176	0xbdebdd5b	-0.115168296
177	0xbd80ebec	-0.062949985
178	0xbd14c0c9	-0.036316667
179	0xbddc40cb	-0.10754546
180	0xbd6a1963	-0.057153117
181	0xbd3f5af1	-0.046717588
182	0x3d89a6a4	0.06721237
183	0xbdcc4172	-0.0997342
184	0x3ddc7192	0.10763849
185	0xbda05ff3	-0.07830801
186	0xbd3bb5f1	-0.04582781
187	0xbd59b00b	-0.053146403
188	0xbdd406d3	-0.10352864
189	0x3deec174	0.11657992
190	0x3dc813ea	0.09769423
191	0x3cc4c25a	0.024018455
192	0xbe077a49	-0.13230242
193	0xbd578e29	-0.05262581
194	0xbd8e9e0a	-0.06963737
195	0xbdf8b5cd	-0.12144051
196	0x3d3e8750	0.046515763
197	0xbd5005ea	-0.05078689
198	0x3d26e604	0.040746704
199	0xbd0783fe	-0.033084862
200	0x3c1f5fa8	0.009727396
201	0xbd687d6d	-0.05676024
202	0xbc650ff6	-0.013980856
203	0x3d22f4ec	0.039784357
204	0x3da35742	0.079756275
205	0x3d40f862	0.047111876
206	0x3d79a089	0.060944114
207	0xbdb4e4af	-0.088326804
208	0xbc93fb83	-0.018064266
209	0x3d825508	0.06363875
210	0x3e009c4f	0.12559627
211	0xbcb73380	-0.022363424
212	0x3a463934	0.00075616245
213	0xbd96762d	-0.07346759
214	0x3d3306d5	0.043707687
215	0x3bf45afa	0.0074571343
216	0x3df54467	0.11975937
217	0xbd96006d	-0.073243
218	0x3d64c111	0.055848185
219	0x3d976e17	0.07394045
220	0x3d816b1e	0.06319259
221	0x3c1807d9	0.009279215
222	0x3d627894	0.055290774
223	0x3ca3c0af	0.01998934
224	0xbd11ba3e	-0.035578005
225	0xbd8fcf11	-0.07021917
226	0xbd79ebae	-0.061015777
227	0xbd643e30	-0.05572337
228	0xbcd2d4c0	-0.025736213
229	0x3d7bddb5	0.061490733
230	0xbc0f787a	-0.008756751
231	0x3dc43845	0.09581045
232	0x3d95e2bf	0.07318639
233	0x3df9b58a	0.12192829
234	0x3d9aff6f	0.07568251
235	0xbd871711	-0.065961964
236	0x3df8b648	0.121441424
237	0xbddd5b80	-0.10808468
238	0xbdd6b5a8	-0.10483867
239	0x3c894fb6	0.016761642
240	0xbcce8570	-0.025210112
241	0xbd433ecd	-0.047667313
242	0xbd151c41	-0.0364039
243	0x3d01560f	0.031576212
244	0xbe048b1a	-0.12943688
245	0x3d46290c	0.04837899
246	0xbdbb26d3	-0.091382645
247	0x3db37c62	0.087639585
248	0x3d039298	0.032122225
249	0xbdfbd0d9	-0.12295694
250	0xbcc8156f	-0.024424283
251	0x3cb2fc43	0.021848803
252	0x3d1ce02b	0.03829972
253	0xbd8bb7c3	-0.06822159
254	0xbdb7c2be	-0.08972691
255	0x3cb5f006	0.022209179

lstm.bias_ih_l0 f4 [256]
0	0xbdb7607c	-0.0895395
1	0xbdce5125	-0.10074071
2	0x3b0fe914	0.0021958994
3	0xbc665557	-0.014058433
4	0x3dd59a72	0.10429849
5	0x3dad5c30	0.08464849
6	0xbe036572	-0.12831667
7	0x3d9f91ef	0.077915065
8	0xbd9b93d8	-0.07596558
9	0x3da7e457	0.08197849
10	0x3dc98549	0.09839875
11	0x3d60a14d	0.05484133
12	0xbc529e6e	-0.012855155
13	0xbdab485e	-0.08363412
14	0xbca955b0	-0.020670742
15	0xbcf47af8	-0.029843792
16	0xbdc7779f	-0.09739613
17	0xbcda6494	-0.026659288
18	0xbd863ee2	-0.06554963
19	0x3da35c4c	0.079765886
20	0x3d20a3c2	0.03921867
21	0xbd52f543	-0.05150343
22	0xbd4d91c1	-0.05018783
23	0x3df3ad3b	0.118982755
24	0xbc043782	-0.008069875
25	0x3de95e7f	0.11394977
26	0x3c17b500	0.009259462
27	0x3e069d42	0.13145927
28	0xbcd9f3e0	-0.026605546
29	0x3d4c1b93	0.049830984
30	0x3cd40089	0.025879161
31	0xbcc11f5b	-0.023574522
32	0x3bf78c4d	0.007554567
33	0xbd3b4ea4	-0.045729294
34	0x3dae3fcc	0.08508262
35	0x3de70aae	0.11281334
36	0xbb45e7e8	-0.0030198041
37	0xbc9bb866	-0.019008826
38	0x3d0e8e07	0.034803417
39	0xbd34f454	-0.044178322
40	0x3bbd2cfa	0.005773184
41	0xbdc00334	-0.09375611
42	0xbd38d379	-0.04512355
43	0x3db6f11c	0.08932707
44	0x3d98465f	0.07435297
45	0xbdcbf57a	-0.0995893
46	0xbdc4d687	-0.0961123
47	0x3dce3ab7	0.10069793
48	0x3e0ae0f2	0.13562372
49	0x3d8fec0e	0.07027446
50	0x3dd86d5f	0.10567736
51	0xbd87b81e	-0.066269144
52	0x3cdfb7da	0.027309347
53	0xbd9eb2cf	-0.07748949
54	0xbd140fc9	-0.036147866
55	0x3df68027	0.12036162
56	0x3ddcff78	0.10790914
57	0x3b96518b	0.0045873574
58	0x3d27389e	0.04082548
59	0xbd2ecfca	-0.04267863
60	0x3ccd1aec	0.025037251
61	0xbd67e5f7	-0.056615796
62	0xbd991aed	-0.07475839
63	0x3dca5a84	0.09880546
64	0x3d57043e	0.05249428
65	0x3d741624	0.059591427
66	0xbcdf5e59	-0.027266668
67	0x3d9e57e3	0.07731607
68	0xbdbfcf07	-0.09365659
69	0x3d924c0b	0.0714341
70	0x3dc2bcdf	0.095086806
71	0xbd311144	-0.043229356
72	0xbde6def2	-0.11272992
73	0xbd29c7de	-0.041450374
74	0x3c250b1e	0.010073451
75	0xbd99de80	-0.07513142
76	0x3dea497d	0.11439798
77	0xbdbd74fd	-0.09250829
78	0xbdcb2d00	-0.099206924
79	0xbd9f80f7	-0.0778827
80	0x3abcc76e	0.0014402696
81	0x3dc931e5	0.0982397
82	0x3d9f6077	0.07782071
83	0x3d1108e0	0.035408854
84	0xbdab180d	-0.08354197
85	0xbc3b13b4	-0.011418272
86	0x3ddc3326	0.10751943
87	0xbb6df4c5	-0.0036309224
88	0xbca5de6b	-0.020247659
89	0x3dfc5482	0.12320806
90	0xbdbb4982	-0.0914488
91	0xbdb8b50a	-0.090189055
92	0x3d860d41	0.06545497
93	0xbde0e60b	-0.10981377
94	0x3d956ae4	0.072957784
95	0xbcc8eace	-0.024526026
96	0xbdad8c67	-0.08474045
97	0x3d93fa60	0.072254896
98	0xbcbec1de	-0.023285802
99	0xbc4e98f9	-0.012609714
100	0xb99bbf20	-0.00029706303
101	0x3d246101	0.040131573
102	0x39760f22	0.00023466026
103	0x3d8ec958	0.06971997
104	0x3dbba037	0.09161418
105	0xbd3bed1c	-0.045880422
106	0x3d70ad40	0.058758974
107	0xbd26bb30	-0.04070586
108	0x3d46ce96	0.04853686
109	0x3dbd2064	0.09234694
110	0xbd386b65	-0.045024294
111	0xbcdaaea3	-0.026694601
112	0x3e01a66b	0.1266114
113	0xbdc3dbcf	-0.095634095
114	0xbdca7083	-0.09884741
115	0x3dcf6e31	0.10128439
116	0xbd9157d0	-0.07096827
117	0x3dfc01e3	0.12305047
118	0x3d7d0b5f	0.061778422
119	0x3deb7e4c	0.114986986
120	0x3d87efe5	0.06637553
121	0x3c737b5e	0.014860956
122	0xbdad6247	-0.084660105
123	0xbc72307e	-0.014782069
124	0xbd2eda74	-0.042688802
125	0xbd9f0116	-0.07763879
126	0xbcacc6ef	-0.021090953
127	0xbd7fb083	-0.062424194
128	0x3d495425	0.049152512
129	0xbdc54d95	-0.09633938
130	0x3cbdf018	0.023185775
131	0xbddb589a	-0.10710259
132	0xbdf2a8d2	-0.11848606
133	0xbc173a4e	-0.0092302095
134	0x3d42f360	0.04759538
135	0xbd6c9bca	-0.05776576
136	0xbcee4ddb	-0.029089859
137	0xbd1f6da6	-0.03892293
138	0x3d2e24c2	0.042515524
139	0x3d4b97a3	0.04970516
140	0x3c2350c2	0.009967985
141	0xbcc2f2eb	-0.023797473
142	0x3d506999	0.050881956
143	0xbda06a18	-0.07832736
144	0xbd3797eb	-0.044822615
145	0x3d87be35	0.06628076
146	0x3dd9de9a	0.10638161
147	0x3d81379f	0.06309437
148	0x3c42786e	0.011869533
149	0xbab42244	-0.0013743122
150	0x3ca7b303	0.020471102
151	0xbcd1f490	-0.025629312
152	0xbc708063	-0.014679047
153	0x3d9ffed2	0.07812275
154	0x3e06ce4e	0.13164636
155	0xbd9ba3af	-0.075995795
156	0x3d9629b2	0.073321715
157	0xbd04b5f6	-0.032400094
158	0x3c336083	0.010948303
159	0xbd77696f	-0.060403284
160	0x3d80ea19	0.062946506
161	0xbdd3f1b2	-0.10348834
162	0x3d879b33	0.06621399
163	0xbe018c1d	-0.12651105
164	0xbb70a286	-0.0036717965
165	0x3c5ee863	0.01360521
166	0xbd2d9060	-0.042374015
167	0x3c0a385a	0.008436287
168	0xbb1af3c0	-0.0023643821
169	0xbd5f9973	-0.0545897
170	0xbd92c86e	-0.07167135
171	0x3dd658d0	0.104661584
172	0x3db7c6d6	0.08973472
173	0x3d26b83f	0.040703055
174	0x3da24990	0.07924187
175	0x3ddd92e5	0.108190335
176	0xbe0a98fb	-0.1353492
177	0x3c359a7f	0.011084198
178	0xbc9b1051	-0.018928679
179	0xbd50c010	-0.050964415
180	0xbe0d3885	-0.13791092
181	0xbd36b18b	-0.044602912
182	0xbde7a30c	-0.113103956
183	0xbd204a7e	-0.03913354
184	0xbd6183a7	-0.055057194
185	0xbd9cfa77	-0.0766496
186	0xbdde4703	-0.10853388
187	0x3d8d7345	0.069067515
188	0x3da9ad9f	0.08285069
189	0x3d8b86bd	0.06812809
190	0xbd3423c7	-0.043979432
191	0xbd2100d4	-0.03930743
192	0x3d8a46d5	0.067517914
193	0xbde7a853	-0.11311402
194	0xbdae69a1	-0.08516241
195	0x3e037953	0.1283925
196	0x3b3b9b61	0.0028626549
197	0x3dcb3d89	0.09923846
198	0xb8fcc73c	-0.00012053407
199	0x3da0462b	0.078258835
200	0xbd5ab522	-0.053395398
201	0xbd94ecb0	-0.07271707
202	0x3cb258ff	0.021770952
203	0xbd03df11	-0.032195155
204	0x3d909cc4	0.07061151
205	0xbd201869	-0.03908578
206	0xbcf2a266	-0.029618453
207	0xbdb8ed5f	-0.0902965
208	0x3c5904d4	0.01324578
209	0x3d793a50	0.060846627
210	0x3baee6d0	0.0053375736
211	0x3d8bab91	0.06819833
212	0x3d9713dc	0.07376835
213	0x3e0b90a1	0.1362939
214	0x3d8d0853	0.06886353
215	0x3cc2d173	0.023781514
216	0xbcac558a	-0.021036882
217	0x3c8a853e	0.016909238
218	0x3dffd145	0.12491087
219	0x3d8472b2	0.06467189
220	0xbdba3359	-0.09091825
221	0xbdaeac03	-0.085289024
222	0x3d498c1f	0.049205896
223	0xbb9d278a	-0.004795973
224	0x3d826848	0.06367546
225	0xbda15b50	-0.078787446
226	0xba5054b8	-0.00079471944
227	0xbc581112	-0.013187664
228	0xbd7aa315	-0.061190683
229	0x3da8734b	0.082251154
230	0x3d48687e	0.048927777
231	0xbe045162	-0.1292167
232	0x3a130942	0.00056089845
233	0x3bc331aa	0.005956848
234	0x3c9d162f	0.019175617
235	0xbc253462	-0.01008329
236	0xbdff2394	-0.12457958
237	0x3d35df93	0.04440267
238	0xbd212d2c	-0.03934972
239	0x3dc1bf23	0.094602846
240	0x3d005673	0.031332444
241	0x3dab96d9	0.08378381
242	0x3dc627c2	0.09675552
243	0x3d9f6440	0.07782793
244	0x3df22b24	0.11824635
245	0xba05ef59	-0.0005109213
246	0xbd9da4bd	-0.07697437
247	0xbd8a70d6	-0.06759803
248	0x3dc75b30	0.097341895
249	0x3dbf9543	0.09354641
250	0x3dc07740	0.09397745
251	0xbd94e88e	-0.07270919
252	0xbd9dc682	-0.07703878
253	0xbd6f845a	-0.05847583
254	0xbdf5da7e	-0.12004565
255	0x3cf19585	0.029490242

lstm.bias_hh_l0 f4 [256]
0	0x3d8a5f20	0.06756425
1	0x3c8b9007	0.017036451
2	0x3d3755c2	0.04475952
3	0xbd9e0f2e	-0.07717739
4	0x3d29ef43	0.041487943
5	0x3d83ba3c	0.06432006
6	0x3cc4280c	0.023944877
7	0xbcef46a0	-0.029208481
8	0x3d405126	0.04695239
9	0xbd10db39	-0.035365317
10	0xbd4b91de	-0.049699657
11	0xbdae7397	-0.08518141
12	0xbda44d46	-0.08022551
13	0x3e0ae764	0.13564831
14	0xbd12b56a	-0.03581754
15	0x3d936d92	0.07198633
16	0x3d3ffe3c	0.046873316
17	0xbdcbc450	-0.09949553
18	0x3dfd35de	0.1236379
19	0xbd914908	-0.07094008
20	0x3db205e1	0.086925276
21	0x3d83b317	0.06430643
22	0xbcb06eb8	-0.02153717
23	0xbd6cf75c	-0.057853088
24	0xbd321a50	-0.043482125
25	0xbd8dfeaf	-0.06933343
26	0x3b40e73b	0.00294347
27	0x3cc05ee1	0.023482742
28	0x3db05ccb	0.08611449
29	0x3c9837f1	0.018581362
30	0xbc97235f	-0.018449483
31	0x3df34ca0	0.118798494
32	0xbdb0b375	-0.08627979
33	0xbd743ca4	-0.059628144
34	0x3dfb5618	0.122722805
35	0x3d881e0c	0.06646356
36	0xbd8fcc1d	-0.070213534
37	0xbc5d990b	-0.013525258
38	0x3dd69627	0.10477858
39	0x3db0c03a	0.08630414
40	0xbc9e98c3	-0.019359952
41	0x3dae7402	0.085182205
42	0x3cff853e	0.031191465
43	0x3db688fe	0.08912848
44	0xbdd991b9	-0.106234975
45	0xbcf3b2e7	-0.029748393
46	0x3d0246b5	0.031805713
47	0x3df87175	0.12131015
48	0x3d66b070	0.056320608
49	0xbd9e20d6	-0.07721107
50	0x3de4d117	0.11172693
51	0x3d1c77dd	0.038200248
52	0x3ce874fa	0.028376091
53	0x3dc76167	0.09735375
54	0x3c574636	0.013139298
55	0x3db60c29	0.08889038
56	0xb9e25e6d	-0.00043176432
57	0x3da451f0	0.08023441
58	0x3d9b1bec	0.07573685
59	0xbdd531d6	-0.10409896
60	0x3d58ee1f	0.052961465
61	0xbc80f223	-0.01574046
62	0xbd9cac03	-0.07649996
63	0xbdcc3300	-0.09970665
64	0x3d82c337	0.063848905
65	0x3de85ea7	0.113461785
66	0x3d49e5dc	0.049291477
67	0x3e07b2f5	0.1325186
68	0x3d5cb7b6	0.053886138
69	0x3d83ef64	0.064421445
70	0xbcf5c9d4	-0.030003466
71	0x3d530700	0.051520348
72	0xbda4faf4	-0.08055678
73	0x3d901fbb	0.07037302
74	0x3dbb9ef2	0.09161176
75	0xbd12fff3	-0.035888623
76	0x3d5d5ee8	0.054045588
77	0x3df4053b	0.1191506
78	0xbdaa0256	-0.08301227
79	0x3d256531	0.040379707
80	0x3e03094d	0.12796517
81	0x3d298950	0.041390717
82	0x3d8f38b9	0.06993241
83	0x3dfb5cc0	0.1227355
84	0x3bfae1b2	0.0076562995
85	0xbd3d1c26	-0.046169423
86	0xbcc3977e	-0.023875948
87	0x3c9ac497	0.01889257
88	0x3db71a94	0.08940616
89	0xbdb36844	-0.087601215
90	0xbd9fd922	-0.07805087
91	0xbdcc1260	-0.09964442
92	0x3dcde246	0.10052924
93	0x3db487ab	0.08814939
94	0x3dbbc21a	0.09167881
95	0xbdbd2f14	-0.09237495
96	0x3c8d22b8	0.01722847
97	0xbdb021ac	-0.086001724
98	0xbd92bd6a	-0.07165034
99	0xba58948a	-0.000826188
100	0xbcef98f2	-0.029247735
101	0xbdcaad01	-0.09896279
102	0xbe08eae6	-0.13370857
103	0xbc85eeda	-0.016349245
104	0x3bcba955	0.0062152543
105	0x3d9b33b3	0.0757822
106	0x3db2f4e3	0.08738115
107	0x3d1018f8	0.035180062
108	0x3dfdf158	0.12399548
109	0x3d477aa5	0.048700947
110	0x3d1e9447	0.038715627
111	0x3de24146	0.11047606
112	0xbd84ae07	-0.064785056
113	0x3da3de6f	0.0800141
114	0xbc05e858	-0.008173071
115	0x3cb82157	0.022476835
116	0x3baabf52	0.0052107954
117	0xbcdd2961	-0.02699727
118	0x3e05bddf	0.13060711
119	0x3de8f8b6	0.11375563
120	0xbd57e883	-0.052711975
121	0x3d072707	0.032996204
122	0xbcb5e83d	-0.022205466
123	0xbcfb85d6	-0.030703466
124	0x3cfcbca0	0.030851662
125	0xbdd2e1cc	-0.102969736
126	0xbe09645f	-0.13417195
127	0xbdceaa19	-0.10091037
128	0xbdf2434c	-0.11829242
129	0x3e028fd1	0.12750174
130	0x3dcc5822	0.099777475
131	0xbd3e5184	-0.046464458
132	0x3ac468f2	0.001498489
133	0xbdde9c02	-0.108696
134	0xbd0f4f11	-0.034987513
135	0xbd0d7463	-0.034534823
136	0xbdb15046	-0.08657889
137	0x3d32c24a	0.04364232
138	0xbdb42931	-0.08796919
139	0x3d62a685	0.055334587
140	0xbd98eebd	-0.07467411
141	0xbd64d32d	-0.055865455
142	0xbd710fca	-0.05885295
143	0x3a217130	0.0006158529
144	0x3d9a570a	0.07536133
145	0xbde4b3a7	-0.111670785
146	0xbd87a0ea	-0.06622489
147	0x3d3e3e83	0.046446335
148	0x3d85d1c6	0.06534152
149	0xbdb43ce4	-0.088006765
150	0x3d880f73	0.06643572
151	0xbbe1b941	-0.006888539
152	0xbb2ae90c	-0.0026078848
153	0xbde791cc	-0.113071054
154	0x3d53a506	0.05167105
155	0xbd824873	-0.06361475
156	0xbdd30878	-0.1030435
157	0x3c4a4af8	0.0123469755
158	0x3dd6d652	0.10490097
159	0xbdc65df4	-0.09685889
160	0x3d41cab8	0.04731247
161	0x3ddf89b8	0.1091494
162	0xbc6b149e	-0.014348177
163	0x3d90b1a0	0.07065129
164	0xbc5a0740	-0.013307393
165	0xbcef9f67	-0.029250814
166	0xbd7965a4	-0.060887948
167	0x3dcd7efd	0.10033987
168	0xbdae47ab	-0.08509763
169	0xbc0099fd	-0.007849214
170	0xbdca3957	-0.09874218
171	0x3d59ef70	0.05320686
172	0x3df75fe4	0.120788366
173	0x3dbba5ac	0.09162459
174	0x3d03bf68	0.03216496
175	0x3cd7ba2e	0.026333895
176	0xbd5302b0	-0.051516235
177	0xbbc44aa1	-0.005990342
178	0xbd9731e7	-0.07382565
179	0xbdb45b06	-0.08806424
180	0xbd66a27c	-0.0563073
181	0xbd390187	-0.045167472
182	0xbd1a1a09	-0.037622485
183	0xbe0c764a	-0.13716999
184	0x3c9f7667	0.019465638
185	0xbdaaa181	-0.08331586
186	0x3c4c7bbc	0.012480672
187	0x3d820da9	0.06350262
188	0x3a0bc6e9	0.0005332069
189	0xbd19660b	-0.03745083
190	0xbc441e91	-0.011970178
191	0xbdf35353	-0.11881127
192	0xbc50644a	-0.012719223
193	0x3bee1a99	0.0072663543
194	0xbce93251	-0.028466376
195	0xbdcef4f9	-0.101053186
196	0x3afa57bf	0.0019099637
197	0x3dddf9e3	0.10838678
198	0xbccdb6ae	-0.025111523
199	0xbd905acf	-0.0704857
200	0x3d924ad7	0.07143181
201	0xbdbc6738	-0.09199375
202	0xbc860092	-0.016357694
203	0xbcccfa23	-0.025021618
204	0x3d65f103	0.05613805
205	0xbd981253	-0.0742537
206	0x3c14ddd6	0.009086093
207	0xbdc2a0db	-0.09503337
208	0xbdc6be74	-0.09704295
209	0xbd46f56c	-0.048573896
210	0x3db697e4	0.089156896
211	0xbd907753	-0.07054009
212	0xbe029190	-0.1275084
213	0x3e06c5f6	0.13161454
214	0x3e0b2ab2	0.13590506
215	0x3e06a8c0	0.1315031
216	0xbdc94342	-0.098272815
217	0xbcdf3d12	-0.0272508
218	0x3e069531	0.1314285
219	0x3b619941	0.0034423622
220	0xbcdbf694	-0.026850976
221	0x3d95d835	0.07316629
222	0xbd08f475	-0.033436257
223	0x3e06c589	0.13161291
224	0xbd5136a1	-0.05107749
225	0x3da0f07e	0.0785837
226	0xbcfb1b3c	-0.030652635
227	0x3cfa269f	0.030535994
228	0xbdd0e30e	-0.10199557
229	0x3dafee4d	0.08590374
230	0xbdd34f52	-0.103178635
231	0x3c903912	0.017605338
232	0x3d7d3680	0.061819553
233	0x3b169518	0.002297705
234	0xbc83c8e0	-0.016086996
235	0xbd54c295	-0.05194338
236	0x3cb3d99e	0.021954354
237	0xbc35b192	-0.011089699
238	0xbde37f34	-0.111082464
239	0x3df71901	0.12065316
240	0x3d33546d	0.043781687
241	0xbdf275aa	-0.11838849
242	0x3d4f7086	0.05064442
243	0xbd809196	-0.06277768
244	0xbce99849	-0.028514998
245	0xbc98b012	-0.018638644
246	0x3dd94629	0.10609085
247	0xbcbb41c9	-0.022858517
248	0x3cd8a0b3	0.026443815
249	0x3a81c0ec	0.0009899414
250	0xbd26e164	-0.040742293
251	0x3de1802c	0.11010775
252	0x39cdba2c	0.00039239356
253	0xbd318486	-0.043339275
254	0xbc5f18f2	-0.013616787
255	0x3db6eb3d	0.08931587

lstm.weight_ih_l1 f4 [256, 64]
0	0x3da04c69	0.07827074
1	0x3def2780	0.11677456
2	0x3bdbaae6	0.0067037223
3	0xbcd90934	-0.026493646
4	0xbc265b99	-0.0101536745
5	0xbd1dcda9	-0.03852621
6	0x3df768e7	0.120805554
7	0xbdbdd819	-0.09269733
8	0xbdf68a10	-0.12038052
9	0x3d83a96a	0.064287975
10	0x3d49a5e3	0.049230468
11	0xbdb9b7a1	-0.090682276
12	0x3df204f6	0.118173525
13	0xbd61908d	-0.055069495
14	0xbc869b19	-0.016431378
15	0xbd7258c6	-0.059166692
16	0x3d1811cc	0.037126347
17	0x3bea501e	0.007150664
18	0xbd4a8d29	-0.049451027
19	0x3d9feae3	0.07808473
20	0x3c17bfb7	0.009262017
21	0xbd942a91	-0.072346814
22	0xbdb72407	-0.089424185
23	0xbdd3b3b7	-0.10337012
24	0x3d19f5f2	0.037588067
25	0x3de20438	0.11035961
26	0x3da26b81	0.07930661
27	0x3cc12b0d	0.023580099
28	0x3d52b89d	0.051445592
29	0x3d6fb6f6	0.058524095
30	0xbd30713f	-0.04307675
31	0x3c8c5984	0.017132528
32	0x3b550ab6	0.0032507605
33	0xbc6b5e43	-0.014365735
34	0x3d56b6d5	0.052420456
35	0x3da0b06b	0.07846149
36	0xbdcb533c	-0.09927985
37	0xbbe2cd1e	-0.0069214245
38	0x3d922626	0.071361825
39	0x3d42a441	0.047519926
40	0x3d24173c	0.04006122
41	0xbdfcce09	-0.123439856
42	0xbaecc15c	-0.0018062997
43	0x3da87b94	0.08226696
44	0x3daa269a	0.08308144
45	0x3c8eb740	0.017421365
46	0x3db63113	0.08896079
47	0xbdfb9e8e	-0.12286101
48	0xbd5ee7e4	-0.054420367
49	0xbd36a671	-0.044592325
50	0xbde982cf	-0.11401903
51	0xbde54ea2	-0.11196639
52	0x3d530819	0.051521394
53	0xbe07e871	-0.13272263
54	0x3d9b67a4	0.07588127
55	0x3c543655	0.012952407
56	0x3df64cdc	0.120263785
57	0xbe00f4b7	-0.12593351
58	0xbe098c56	-0.1343244
59	0xbdca1a0e	-0.09868251
60	0xbdd89c5f	-0.105767004
61	0x3d95fecc	0.07323989
62	0x3be87ecc	0.0070951935
63	0xbdde9ccf	-0.108697526
64	0xbdcf7246	-0.10129218
65	0x3db81f80	0.08990383
66	0x3dbad6f0	0.09123027
67	0xbb6daa13	-0.0036264702
68	0x3db27e9f	0.08715557
69	0x3e0cc160	0.13745642
70	0xbde312fc	-0.11087605
71	0xbda8b923	-0.08238437
72	0xbe090385	-0.13380249
73	0x3d5941a0	0.0530411
74	0x3db8524c	0.09000072
75	0xbdfcfd7a	-0.12353034
76	0xbdc08a3f	-0.09401368
77	0xbcd58b96	-0.026067536
78	0x3d68f38f	0.0568729
79	0x3d82c277	0.063847475
80	0xbdd79b31	-0.10527647
81	0xbdb21afc	-0.08696553
82	0x3b840947	0.0040294263
83	0xbdc34973	-0.09535494
84	0x3d73953f	0.059468504
85	0x3d91e0ee	0.0712298
86	0xbda5782b	-0.08079561
87	0xbb913111	-0.004430898
88	0x3de75884	0.1129618
89	0x3d8ad552	0.06778969
90	0x3da3a560	0.07990527
91	0x3bdc4afc	0.006722806
92	0x3db762a7	0.08954363
93	0xbda12166	-0.07867698
94	0x3d99dea3	0.07513168
95	0xbd98796d	-0.07445035
96	0xbd0d2e02	-0.034467705
97	0x3d5be373	0.05368371
98	0x3dd989a9	0.1062196
99	0xbd9d25a5	-0.07673196
100	0xbb9555e6	-0.004557359
101	0x3d209b3e	0.03921055
102	0x3ccbd417	0.024881406
103	0x3cf40570	0.029787749
104	0xbd9dab55	-0.076986946
105	0x3dcf3652	0.10117783
106	0xbe0079ef	-0.12546514
107	0x3d79d18e	0.060990863
108	0xbd5ae07c	-0.05343674
109	0xbbdf3522	-0.006811754
110	0xbd7e5860	-0.062096
111	0x3d5bd568	0.053670317
112	0x3d9e9a11	0.077442296
113	0xbd20275e	-0.039100043
114	0xbce11bc8	-0.027479067
115	0x3d93018f	0.07178032
116	0xbe0acf87	-0.13555728
117	0xbc8877e9	-0.01665874
118	0xbde4cd4f	-0.11171972
119	0xbdb27f20	-0.087156534
120	0x3de45787	0.11149507
121	0xbd1eec81	-0.038799766
122	0xbd478f5f	-0.048720714
123	0xbd54bad1	-0.051935975
124	0x3d5536e4	0.0520543
125	0xbce597a3	-0.028026408
126	0x3c852624	0.016253538
127	0x3c671787	0.01410473
128	0xbc50b354	-0.012738068
129	0x3dc31b0d	0.09526644
130	0xbd3bfa0f	-0.04589277
131	0xbd4cf923	-0.050042283
132	0x3da9a371	0.08283127
133	0x3c6d6b5d	0.014490929
134	0xbccd6283	-0.025071388
135	0xbccb3c8a	-0.02480914
136	0xbdb4395b	-0.08800002
137	0x3d52b457	0.051441517
138	0x3d88bac1	0.066762455
139	0xbdacc84e	-0.084366426
140	0x3c881c1e	0.01661497
141	0xbc680789	-0.014161953
142	0x3d9129a4	0.070880204
143	0xbdf0589b	-0.1173565
144	0x3d6bf10a	0.05760292
145	0x3db101d5	0.086429276
146	0xbdc37e91	-0.09545625
147	0x3db020f1	0.08600033
148	0x3d9486a2	0.07252242
149	0xbddc0f88	-0.1074515
150	0xbd7bf546	-0.061513208
151	0xbe08ef06	-0.1337243
152	0xbd02f703	-0.03197385
153	0x3dc5b1ed	0.09653077
154	0x3d8af4e8	0.067849934
155	0xbdcdea07	-0.10054403
156	0xbd852f30	-0.06503141
157	0x3b07369b	0.0020631913
158	0xbdbfe28c	-0.09369382
159	0x3d70291c	0.058632955
160	0x3bb117a3	0.005404429
161	0x3ded6f45	0.115934886
162	0xbdd4a395	-0.10382763
163	0x3da39895	0.07988087
164	0xbd8a6e9a	-0.06759377
165	0x3de23b4d	0.11046467
166	0xbde01aa6	-0.10942583
167	0xbd267de2	-0.040647395
168	0x3d7fcb89	0.062449966
169	0xbd427407	-0.047473934
170	0x3d31d412	0.043415137
171	0xbdb69c24	-0.089165
172	0xbcbd7754	-0.02312819
173	0xbd787c12	-0.060665198
174	0x3d903180	0.070406914
175	0xbdf10e6a	-0.117703274
176	0xbdf12030	-0.117737174
177	0x3dfbc376	0.122931406
178	0xbdbcec53	-0.09224763
179	0xbc89d51b	-0.01682525
180	0xbbf55be6	-0.007487762
181	0xbd4570ac	-0.048203155
182	0xbd898d69	-0.06716425
183	0xbd293061	-0.041305903
184	0xbdda337b	-0.1065435
185	0x3c2d61fa	0.010582441
186	0x3cadc388	0.0212114
187	0xbd8531ff	-0.065036766
188	0xbdb524e5	-0.08844928
189	0xbd9a34d5	-0.07529608
190	0x3d7cf7b2	0.06175966
191	0x3d050262	0.032472976
192	0x3da3a991	0.079913266
193	0x3d52cd61	0.051465396
194	0xbe0a0454	-0.13478214
195	0x3cf276a6	0.029597592
196	0x3e0c9da5	0.13732012
197	0x3db1be6a	0.08678897
198	0xbdd0f98b	-0.102038465
199	0x3cbfd782	0.023418192
200	0xbd316b5c	-0.043315277
201	0x3e08cce4	0.1335941
202	0x3d0e1bff	0.034694668
203	0x3db8b786	0.09019379
204	0xbcff933f	-0.031198142
205	0x3df9f766	0.12205391
206	0xbe035903	-0.12826924
207	0x3cc53f40	0.024078012
208	0x3d421582	0.047383793
209	0xbdae6475	-0.085152544
210	0xbdfec94b	-0.12440737
211	0x3dce551c	0.10074827
212	0xbb984f39	-0.004648116
213	0x3c1cbf09	0.009567031
214	0xbd50f03a	-0.051010348
215	0xbd064e1f	-0.032789346
216	0x3c5d3068	0.0135003105
217	0x3d7aa3f6	0.06119152
218	0x3dc81841	0.09770251
219	0x3cc78d93	0.0243595
220	0x3bb1e13e	0.0054284623
221	0x3d08c0c7	0.03338697
222	0xbd1e853f	-0.038701292
223	0xbc7d57ed	-0.015462858
224	0xbd8f59d3	-0.069995545
225	0x3d7eaf1e	0.062178724
226	0xbd6d4348	-0.057925493
227	0x3de40207	0.11133199
228	0xbabc9a96	-0.0014389332
229	0xbdd5a054	-0.10430971
230	0xbd952001	-0.07281495
231	0xbdc9db9b	-0.098563395
232	0x3dd7e74c	0.10542163
233	0xba118043	-0.00055504235
234	0x3d83d577	0.064371996
235	0x3c80ad4d	0.015707636
236	0xbca60f2b	-0.020270905
237	0x3ccff27d	0.025384182
238	0x3c17cc1e	0.009264974
239	0x3d134ff7	0.035964932
240	0x3db6f810	0.08934033
241	0xbcf1def6	-0.029525261
242	0x3c0155d4	0.007893998
243	0xbdb4ad42	-0.08822109
244	0x3d03d2d0	0.03218347
245	0xbdc9c693	-0.09852328
246	0x3d5ad8c8	0.053429395
247	0x3db0294c	0.08601627
248	0xbdd835cc	-0.10557136
249	0xbdc7d121	-0.09756685
250	0x3d85fd88	0.06542498
251	0xbc6290b0	-0.0138284415
252	0x3dbef026	0.093231484
253	0xbcca11c7	-0.02466668
254	0x3d996bd3	0.07491269
255	0xbd4ab4e3	-0.049488913

lstm.weight_hh_l1 f4 [256, 64]
0	0xbd612262	-0.05496443
1	0xbc7e3900	-0.01551652
2	0xbc7e0935	-0.015505125
3	0x3b80ce38	0.003930833
4	0x3d5337c1	0.051566843
5	0x3d0e0bb4	0.03467913
6	0x3d0169c2	0.031595
7	0xbd25b672	-0.040457197
8	0xbd8ac1d2	-0.067752495
9	0x3dd04d32	0.10170974
10	0x3dc4e442	0.09613849
11	0x3df4fb55	0.11962
12	0xbd479af9	-0.048731778
13	0x3dbee514	0.09321037
14	0x3dbae62d	0.09125934
15	0x3da769d0	0.08174479
16	0xbd9435eb	-0.072368465
17	0xbde5a035	-0.11212198
18	0xbdc62054	-0.09674135
19	0x3b93f238	0.0045149587
20	0xbcad79a7	-0.021176172
21	0x3d382d60	0.044965148
22	0xbdc1b164	-0.09457663
23	0xbd37ae5c	-0.044844016
24	0x3d901664	0.07035521
25	0xbdf32d30	-0.11873853
26	0xbde0746e	-0.10959707
27	0xbdd320c5	-0.10308985
28	0xbdddf19f	-0.10837101
29	0x3ddd9d02	0.108209625
30	0x3d6eecba	0.05833123
31	0x3d0a06de	0.033697955
32	0xbdb46f74	-0.088103205
33	0x3e05fa19	0.13083686
34	0x3df88dc7	0.12136417
35	0xbd86e41b	-0.065864764
36	0xbdc2d00e	-0.095123395
37	0xbc4fa2b1	-0.012673066
38	0x3bd0fba2	0.006377653
39	0xbd7bc56a	-0.061467566
40	0x3cb09840	0.021556973
41	0xbdc20baa	-0.09474881
42	0xbda46946	-0.08027892
43	0xbd83d021	-0.06436182
44	0xbde03b55	-0.10948817
45	0xbbfa9d3b	-0.007648138
46	0xbcc41035	-0.02393351
47	0xbd8b12ec	-0.067907184
48	0x3d998a98	0.07497138
49	0xbe04d5bf	-0.12972163
50	0xbd0a1476	-0.03371092
51	0xbdb7dde2	-0.08977868
52	0x3d946ffc	0.07247922
53	0xbc981b2b	-0.018567642
54	0xbda58ac8	-0.08083111
55	0xbbc8af31	-0.0061244
56	0xbdd6ac45	-0.104820766
57	0xbc4a809e	-0.012359766
58	0x3c9555e8	0.01822944
59	0x3da9d2bb	0.08292147
60	0xbcbedfe4	-0.023300119
61	0xbcf5ada5	-0.029990027
62	0x3dc6a4f2	0.096994296
63	0x3d612fee	0.05497735
64	0xbd18e6e7	-0.03732958
65	0xbc4918bc	-0.012273964
66	0x3bcca8de	0.0062457165
67	0xbd424c5a	-0.047436096
68	0xbdb817cb	-0.08988913
69	0x3dda9001	0.10671998
70	0xbd9ad407	-0.07559972
71	0xbbe9a28d	-0.0071299733
72	0x3ceef608	0.029170051
73	0xbd35c647	-0.044378545
74	0xbdc512d0	-0.09622729
75	0xbd329189	-0.043595824
76	0x3d89779b	0.06712266
77	0x3db9d6ee	0.09074198
78	0x3d038d9e	0.03211748
79	0x3c867fcc	0.01641836
80	0xbe0316a9	-0.12801613
81	0xbc6a242a	-0.014290849
82	0xbcd9327f	-0.026513336
83	0x3d80f259	0.06296224
84	0xbdcb7c3f	-0.099358074
85	0xbbc2e66f	-0.00594788
86	0xbd55b7bb	-0.052177172
87	0xbdc19126	-0.09451513
88	0xbc82a0df	-0.01594585
89	0xbd861c4c	-0.06548366
90	0xbd8cf208	-0.06882101
91	0x3da12c64	0.07869795
92	0x3ce8ae62	0.028403465
93	0x3d9cf141	0.07663203
94	0xbb6d1d0b	-0.003618064
95	0xbcaaffc5	-0.020873914
96	0xbd0c1a3e	-0.034204714
97	0x3ca9ef49	0.020743983
98	0x3c70339e	0.014660744
99	0xbdc50b30	-0.096212745
100	0x3ded1cbc	0.11577746
101	0x3d11d024	0.03559889
102	0xbdcc2121	-0.09967256
103	0xbb90f675	-0.004423911
104	0xbd7f1e9d	-0.062285054
105	0x3d8113d4	0.0630261
106	0xbd2f124f	-0.04274207
107	0x3d700865	0.058601756
108	0x3d0718ef	0.032982763
109	0xbcda07f8	-0.026615128
110	0x3d7d287a	0.06180618
111	0xbd5c1784	-0.053733364
112	0xbd1c147d	-0.038105477
113	0x3d29466c	0.041326925
114	0x3e0172da	0.12641469
115	0x3d831a47	0.064014964
116	0xbc173bf0	-0.009230599
117	0xbdcb5a5e	-0.099293455
118	0xbdcf667b	-0.101269685
119	0xbd86e13a	-0.06585927
120	0x3d92fdd2	0.07177319
121	0xbcc463a1	-0.023973288
122	0xbdb6e4a1	-0.08930326
123	0x3c8f2072	0.017471526
124	0x3d63b870	0.055595815
125	0xbd1addac	-0.03780906
126	0xbc10511b	-0.0088084
127	0x3cf11110	0.029427081
128	0xbdde52c6	-0.108556315
129	0xba148bb5	-0.000566657
130	0xbd40a861	-0.04703558
131	0x3cc774ff	0.02434778
132	0x3caefd22	0.021360938
133	0x3d9ece4d	0.077541925
134	0x3d632178	0.05545184
135	0x3df26c00	0.118370056
136	0x3d0beece	0.03416329
137	0xbd7c2c93	-0.061565947
138	0xbda967b6	-0.082717344
139	0xbd93a45f	-0.07209086
140	0x3ce13019	0.027488755
141	0x3cfe5963	0.031048482
142	0xbe096513	-0.13417463
143	0xbc9e6c19	-0.019338654
144	0x3d76a874	0.060219243
145	0x3d6efe6c	0.058348104
146	0x3cef412e	0.029205885
147	0x3da4366d	0.080181934
148	0x3cc3376d	0.02383014
149	0xbdf98e74	-0.12185374
150	0xbcd5b198	-0.02608566
151	0xbd353197	-0.044236746
152	0xbd0ffb48	-0.03515175
153	0x3d14256c	0.0361685
154	0xbdf6bf1b	-0.12048169
155	0x3c4b0117	0.012390397
156	0x3dcc9a3e	0.09990357
157	0xbd23e3c3	-0.040012132
158	0x3dac87af	0.08424317
159	0xbcb7cd30	-0.022436708
160	0xbd98709f	-0.07443356
161	0xbd423578	-0.047414273
162	0x3da392f3	0.07987013
163	0xbc73aea8	-0.014873184
164	0x3c582fd9	0.0131950015
165	0x3dc5380d	0.096298315
166	0x3d7db87e	0.061943524
167	0xbd53c912	-0.051705427
168	0xbdeabe62	-0.11462094
169	0xbdb68a29	-0.08913071
170	0x3d23fe72	0.04003758
171	0xbc8e050c	-0.01733639
172	0xbdcb93df	-0.099403135
173	0x3d3de219	0.0463582
174	0x3ddf952c	0.10917124
175	0x3d3e9787	0.046531226
176	0x3da84dcf	0.08217966
177	0xbd175eb9	-0.03695557
178	0xbde2adfe	-0.110683426
179	0x3db3b65a	0.08775015
180	0x3dc0a051	0.09405578
181	0x3e086cd2	0.13322762
182	0xbdc088d9	-0.094011016
183	0x3db3eed1	0.08785785
184	0x3dde2ee1	0.10848785
185	0x3ded71df	0.11593985
186	0xbcfb685b	-0.030689409
187	0x3d8fe12e	0.070253715
188	0x3c824d2f	0.015905945
189	0xbd85c928	-0.06532508
190	0xbd118b52	-0.035533257
191	0x3db9996d	0.09062467
192	0xbd195b8e	-0.03744083
193	0x3dcdb318	0.10043925
194	0x3dd50299	0.10400886
195	0x3d3a47f2	0.04547877
196	0x3da2aed1	0.079435
197	0xbb18e860	-0.0023331866
198	0x3c10aea3	0.008830699
199	0xbda685fa	-0.08131023
200	0xbd837f7c	-0.064208
201	0xbd9e3725	-0.07725362
202	0x3dcfc3a8	0.1014474
203	0x3da5aecc	0.080899805
204	0x3c5c47ef	0.013444885
205	0xbdc0a359	-0.09406156
206	0x3dd0eeea	0.10201819
207	0xbd999da3	-0.0750077
208	0x3d81f95c	0.0634639
209	0x3da75634	0.08170739
210	0x3ddd2a65	0.10799102
211	0xbd7c7b01	-0.061640743
212	0x3ca947a0	0.020664036
213	0xbd7fede8	-0.062482744
214	0xbdd3a677	-0.10334485
215	0xbd9eaa88	-0.0774737
216	0x3bc13534	0.005896235
217	0xbd24fb94	-0.040278986
218	0x3d8b0a01	0.067890175
219	0x3cd5391b	0.026028207
220	0xbd96bb96	-0.07359998
221	0x3ca98481	0.020693066
222	0xbbba07ca	-0.005677198
223	0xbd864d7d	-0.065577485
224	0x3e040edd	0.12896295
225	0xbd172d86	-0.03690865
226	0xbcbc0d91	-0.022955688
227	0xbdcc6912	-0.09980978
228	0xbcf67c7f	-0.030088661
229	0x3d82be78	0.06383985
230	0x3df14665	0.11781005
231	0x3ddeabe4	0.10872629
232	0xbd8981e3	-0.06714227
233	0xbc9af6b6	-0.018916469
234	0x3ca5f4e8	0.020258382
235	0x38c7f51c	9.5347146e-05
236	0x3cfd7ee0	0.030944288
237	0x3d7b0591	0.061284605
238	0x3dace743	0.08442547
239	0xbd7db18d	-0.061936904
240	0x3c9234e1	0.01784748
241	0xbdb44eae	-0.088040695
242	0x3d6f24e6	0.0583848
243	0x3c25d150	0.010120705
244	0x3d6ec819	0.058296297
245	0xbe000a9a	-0.12504044
246	0xbd96cd69	-0.07363398
247	0x3de532c2	0.11191322
248	0x3d3afdf5	0.04565235
249	0x3dbf7dd4	0.09350172
250	0xbc02f13d	-0.007992086
251	0xbd5a91ff	-0.05336189
252	0x3dc62f8b	0.09677037
253	0x3daad18e	0.08340751
254	0x3d3302ad	0.043703724
255	0xbc50b5cc	-0.012738656

lstm.bias_ih_l1 f4 [256]
0	0x3d00b48f	0.031422194
1	0xbd20cc5c	-0.039257392
2	0x3dcdc0dd	0.100465514
3	0xbd9cc3ef	-0.07654559
4	0xbcfc3412	-0.030786548
5	0xbdc6e819	-0.09712238
6	0x3becb52d	0.0072237463
7	0x3d3c2ee1	0.045943145
8	0xbd8f136f	-0.069861285
9	0x3dc93e53	0.098263405
10	0x3d8e0c0d	0.06935892
11	0x3e061131	0.13092496
12	0xbcbf2ff9	-0.023338305
13	0xbd01e170	-0.031709135
14	0xbdcd1dcc	-0.10015449
15	0x3dc8f047	0.09811454
16	0xbcffef7d	-0.031242127
17	0xbdaf8b46	-0.08571486
18	0xbcdfbbf7	-0.027311308
19	0x3dbdcef5	0.092679895
20	0x3db4a850	0.088211656
21	0xbd08a0a5	-0.033356328
22	0x3dd3ffcc	0.10351524
23	0x3dab5261	0.08365322
24	0x3d36cefe	0.044630997
25	0x3e04ba54	0.12961704
26	0xbcfb455e	-0.030672725
27	0xbdb4e960	-0.08833575
28	0x3c9d0560	0.019167602
29	0x3de9f3e5	0.11423472
30	0x3d1c9996	0.03823241
31	0xbd926a5f	-0.07149195
32	0x38d9a43c	0.000103779574
33	0xbd5bec96	-0.053692423
34	0x3d88dcff	0.06682777
35	0xbda2d1ab	-0.07950147
36	0x3db8cd46	0.09023528
37	0xbcdeeac0	-0.027211547
38	0xbdffd3c2	-0.124915615
39	0xbdaf320f	-0.0855447
40	0xbc60180d	-0.013677609
41	0x3dd53aed	0.1041163
42	0x3d257982	0.040399082
43	0x3d11ad1f	0.03556549
44	0xbd935393	-0.07193675
45	0xbdae0770	-0.08497512
46	0x3dd00722	0.101576105
47	0x3d4aaef6	0.049483262
48	0xbd369a92	-0.044581003
49	0x3caf226c	0.021378718
50	0x3d591777	0.053000893
51	0x3d918859	0.071060844
52	0x3cc3b7b0	0.0238913
53	0x3dc63d48	0.09679657
54	0x3d5dd8d3	0.054161858
55	0x3c810463	0.015749162
56	0xbd59f4e6	-0.05321207
57	0xbd3392ff	-0.04384136
58	0x3b799b32	0.0038086888
59	0x3dd2ac06	0.10286717
60	0x3e06f78e	0.13180372
61	0xbd9512d6	-0.07278983
62	0x3cc67571	0.024225922
63	0x3dd24f4e	0.102690324
64	0x3dbb5c1d	0.091484286
65	0x3dc9894a	0.09840639
66	0x3c865696	0.01639871
67	0x3d6a7ebb	0.057249766
68	0x3d22ca7a	0.039743878
69	0xbd8af128	-0.06784278
70	0xbd827e02	-0.0637169
71	0xbc5b1877	-0.013372532
72	0x3ceedc26	0.02915771
73	0xbde45be2	-0.11150338
74	0xbdded364	-0.10880163
75	0xbd883469	-0.066506214
76	0xbd1f82aa	-0.03894297
77	0x3d513c71	0.051083032
78	0xbc178112	-0.009247081
79	0x3c5aa6bf	0.013345419
80	0x3c552f0d	0.013011706
81	0x3e05c058	0.13061655
82	0xbd9ac579	-0.07557196
83	0xbce0c850	-0.027439266
84	0xbdb99a0e	-0.09062587
85	0x3daef1d4	0.08542219
86	0xbdc9a7aa	-0.098464325
87	0x3d2cd529	0.042195473
88	0xbd9bf442	-0.07614948
89	0x3d8f9499	0.07010765
90	0xbdcf8b34	-0.10133973
91	0x3d3cd7a9	0.046104107
92	0x3de2bd23	0.11071231
93	0xbdc34cd5	-0.09536139
94	0x3d301c31	0.042995635
95	0xbdcd4660	-0.100231886
96	0x3c49b110	0.012310281
97	0x3dd3ff15	0.103513874
98	0x3df30d7b	0.118678056
99	0xbdb04d42	-0.08608486
100	0x3d2b1160	0.041764617
101	0x3d926cbc	0.07149646
102	0xbda868ba	-0.082231
103	0xbdbd0cf1	-0.09230984
104	0x3db7dbbb	0.08977457
105	0x3db18448	0.08667809
106	0x3d99075f	0.07472109
107	0x3ceef1bf	0.029168008
108	0xbd762b43	-0.06009985
109	0xbdba5b02	-0.090993896
110	0xbd94812d	-0.07251201
111	0x3dbbca28	0.091694176
112	0x3dce0b5d	0.10060761
113	0x3d9890e2	0.07449509
114	0x3df0be6a	0.117550686
115	0x3d3456c2	0.04402805
116	0xbca76a96	-0.020436566
117	0x3dfb6d17	0.122766666
118	0xbd5874af	-0.052845653
119	0xbde2e17e	-0.110781655
120	0xbc677e3f	-0.0141292205
121	0xbdd3253d	-0.10309837
122	0x3dda4fba	0.10659738
123	0x3e048251	0.12940337
124	0xbd51c679	-0.05121467
125	0xbdfa8c54	-0.12233797
126	0xbdbcbf08	-0.09216124
127	0xbdaee1bf	-0.085391514
128	0xbdb9f9c7	-0.09080844
129	0x3d8b2e6d	0.067959644
130	0xbda44df3	-0.0802268
131	0xbde0de5b	-0.10979911
132	0xbda0f581	-0.07859326
133	0xbc90e7ea	-0.01768871
134	0xbde3396f	-0.11094939
135	0xbdd25e57	-0.102719
136	0x3de9acce	0.11409913
137	0x3d9f8ab9	0.07790131
138	0x3db0ecc6	0.08638911
139	0x3dc17e68	0.09447938
140	0xbd4ba13d	-0.049714316
141	0xb9adef50	-0.00033175433
142	0x3da0cc19	0.078514285
143	0x3ccf8f7b	0.025336972
144	0x3d689883	0.05678607
145	0x3ce32269	0.027726369
146	0xbc99f496	-0.018793385
147	0xbd9370b0	-0.07199228
148	0xbd622e2f	-0.055219825
149	0x3d6d1005	0.057876606
150	0x3c921b99	0.017835425
151	0x3dd6dc7f	0.10491275
152	0x3db7df71	0.08978165
153	0xbdea2e98	-0.11434668
154	0x3d517869	0.051140223
155	0xbd535d49	-0.051602636
156	0x3b20c52b	0.0024531584
157	0xbd2bf8e7	-0.04198542
158	0x3e032de4	0.12810475
159	0xbdf38c09	-0.11891944
160	0xbd3ead4c	-0.046551988
161	0x3d50325b	0.050829273
162	0x3bb10343	0.005402
163	0x3dd09059	0.10183782
164	0x3dfcb6ca	0.12339552
165	0xbaa743f6	-0.0012761343
166	0x3c38b966	0.011274671
167	0xbd85c65b	-0.06531974
168	0xbc82de64	-0.015975185
169	0xbd9bfe5e	-0.07616876
170	0xbdd5118f	-0.1040374
171	0x3d5c9614	0.053854063
172	0xbcec1eb4	-0.028823234
173	0x3bc92b66	0.0061392067
174	0xbdf1ba45	-0.11803106
175	0x3d9eb61b	0.077495776
176	0x3a400198	0.0007324456
177	0xbc85cc5d	-0.0163328
178	0x3c7ce440	0.015435278
179	0x3dd8ffd5	0.10595671
180	0xbd337e41	-0.043821577
181	0x3de0ffaa	0.10986264
182	0x3bdefc09	0.0068049473
183	0xbd98ead4	-0.07466665
184	0x3d33ef3a	0.043929316
185	0x3d50b516	0.050953947
186	0xb96c57b7	-0.0002253939
187	0xbda55550	-0.08072913
188	0x3ccbf8a2	0.02489883
189	0xbda72225	-0.081608094
190	0x3d9060fb	0.070497476
191	0x3cd8cdd1	0.026465328
192	0xbdb4b653	-0.08823838
193	0xbda5dd2b	-0.08098825
194	0xbd5486d6	-0.051886402
195	0x3da5f161	0.0810268
196	0x3b73c7c1	0.003719792
197	0xbe03ba33	-0.12863998
198	0xbdaa9295	-0.083287396
199	0x3da55358	0.08072537
200	0xbd51e3c9	-0.051242623
201	0x3dab1c27	0.08354979
202	0x3e07b5ca	0.13252941
203	0x3d7983f9	0.060916875
204	0x3daf4eab	0.085599266
205	0xbdf3fac9	-0.11913068
206	0xbda49d0d	-0.080377676
207	0x3cfa6227	0.03056438
208	0xbc98ee0c	-0.018668197
209	0x3b8987a9	0.00419708
210	0x3ddc7e3e	0.10766266
211	0x3da1f21c	0.07907507
212	0xbd8748ad	-0.06605659
213	0xbab58cf3	-0.001385121
214	0x3d13781c	0.036003217
215	0x3c8698ad	0.016430223
216	0x3d118309	0.035525355
217	0x3d051ebb	0.03250001
218	0x3da81e51	0.082089074
219	0x3db59e1f	0.0886805
220	0x3da23566	0.07920341
221	0xbc810266	-0.015748214
222	0xbd04090c	-0.03223519
223	0x3ddd87be	0.108169064
224	0x3d17aa53	0.03702767
225	0x3dd90f1c	0.10598585
226	0x3d67dd09	0.05660728
227	0x3ce8b645	0.028407225
228	0x3bde8880	0.0067911744
229	0x3d347d8d	0.044065047
230	0xbb5214b2	-0.0032055792
231	0x3ddceb4d	0.107870676
232	0x3adc5d47	0.0016812467
233	0x3dd2a7a3	0.102858804
234	0xbdbb63fd	-0.091499306
235	0x3d5e7fca	0.054321088
236	0xbbdcb6c1	-0.006735653
237	0xbc557387	-0.013028032
238	0xbd67ee22	-0.056623586
239	0xbdf5037d	-0.11963556
240	0xbc4cf002	-0.012508394
241	0x3d12e751	0.03586513
242	0x3d3a7306	0.04551985
243	0xbce581c0	-0.028015971
244	0xbb68a85a	-0.0035500736
245	0x3dc346dd	0.095350005
246	0xbd128129	-0.035767708
247	0xbd3bb590	-0.04582745
248	0x3cdcc1da	0.026947904
249	0x3df8a691	0.12141145
250	0xbdbe94b6	-0.09305708
251	0x3d72028f	0.05908447
252	0xbd9915e3	-0.07474878
253	0xbc83576c	-0.016032897
254	0xbd09b970	-0.033624113
255	0x3c3fb51b	0.011700894
