models/BTC_USDT_1h_model.pth (torch, 215461 bytes, 9 tensors)

lstm.weight_ih_l0 f4 [256, 10]
00000000: 80f3 a13d f877 263d 713b f53d 65cf 5f3a
00000010: db09 35bd e18b f13d 3c49 c3bd 04c5 0e3d
00000020: 8d9e e23d 6541 03bd 395b 36bd c0bb 2bbc
00000030: 151e 03be a3c1 2cbd bf9f 893d d254 d23d
00000040: a9a6 033d 3503 7c3d 4853 babc 6ce3 973d
00000050: 4489 2ebd 8296 97bd 72c4 653d 2442 7a3d
00000060: 654a 36bc 85bb a93d b19f 623d a775 b53d
00000070: dcae 893d 6345 043e 47eb eb3d 5dc7 b83b
00000080: 9ad4 183d 58dd c9bc 84f7 143d 4b2e 293d
00000090: f31b d53d 2650 50bd cb02 ab3d 93df 693d
000000a0: 2257 533c 5862 89bd 9959 86bc 8136 3b3d
000000b0: b606 103c 566e 943c 5fa9 82bd 9c31 b4bd
000000c0: bb3e 983c e1d2 e63d b663 d13d e459 00be
000000d0: 0f13 373d 3b9b ae3b 65d8 f6bd ea8c 9fbd
000000e0: 5fae 173d e03f e93d 1e87 ca3d 42a1 bdbd
000000f0: 4739 3ebd d7aa e83d 1a39 f23d 3c3b ff3d
00000100: 6c9e d9bd 0581 d0bd 8bc0 9fbb 8a1d d3bd
00000110: b478 3dbd 9e93 22bd 8a8d bcbd 8c9d 8fbd
00000120: 143c 4cbd 4fd6 90bc ed27 8c3d 456b cebd
00000130: ea16 d23d 965e e23b 9e25 083e 1cea be3d
00000140: d5a7 2ebd 3cdc e03d 5bea 9ebb 129e c1bc
00000150: 98cc 5d3d 578d 66bd 03d6 d1bd 04ec a03d
00000160: 0d3a 653d 0056 a33d db42 f5bc 6b13 b53d
00000170: 45c7 f73c 61b0 043e 0c42 a3bc 8f94 06bc
00000180: 95ea abbd a8c7 6cbd dbc6 48bd e6b9 03bd
00000190: 0fc3 913d 57b0 95bc ca4b 073e 9ab0 053e
000001a0: b4f6 003e 5f39 bcbd 140a 893d ec11 f53d
000001b0: 63cb a6bc d385 95bd a9f4 db3d 7247 033e
000001c0: 243a 91bd 2167 acbd cf74 e8bd 797d 0c3d
000001d0: 119a 943d a180 523d fe15 43bc 2dc5 41bd
000001e0: fba6 2abc d224 a23d 22fd acbd fb57 073d
000001f0: 0f31 7bbc bb3f 83bd d89a 013d c8c3 ea3c
00000200: 01d8 383d 56d0 e9bd d100 aabc 0a0d d3bd
00000210: db5b de3d e45d b23d 8a1c 473d 64aa c7bd
00000220: 507d cd3d d8ae 0fbd c684 9fbd 93d4 e4bd
00000230: c21e 973d 0c5d 09bd 37eb d2bd 705e cebd
00000240: 2724 acbd 4559 79bd e6e9 9a3d 9eb7 19bd
00000250: f3b2 fb3d 2b81 e3bd 8e27 c2bc d6e2 343d
00000260: b5ce 0a3e e7fb 86bd 794a 833d ecd5 98bd
00000270: c05d 15bd e26b 48bd 7580 8c3d d95e 46bd
00000280: c82c e93d f1bb 853c 61af 21bc 058e b03d
00000290: 7f10 a5bd f1ef 59bc 0a65 f83d 119d abbd
000002a0: 3426 b8bd bb33 b7bd 8d85 ab3c 5395 863d
000002b0: c6b6 97bd 68b5 fe3d ae02 a3bc 0406 ce3c
000002c0: c770 f23d 0dc2 12bd a61d d3bd e19b d13d
000002d0: 174f fa3d ee73 bb3a cf36 38bc b617 68bd
000002e0: 0592 15bd 952b 56bc 4d47 a3bd 34a1 17bd
000002f0: ba74 f2bd 7020 063e c0a3 84bd 4bbb 083e
00000300: 08c8 bc3d ba7b 4fbd f280 91bd 6c38 9abd
00000310: 34ae d23d f32f 273d 67c7 043e 809e a3bd
00000320: b7b5 80bd 0fe8 70bb 1c03 d43d 4d25 963d
00000330: eed9 ac3d e0d4 10bd 4bff f53c 3b73 153d
00000340: 0f3a 54bd f36f e5bd 29b2 003d 967a 0ebd
00000350: d490 d0bd 339d 8abd f8bc b0bd 0a0c 503d
00000360: 2b9f adbd 1bc3 c03d a6cd 873d a062 e33d
00000370: 264d 9dbd 327d 2a3b 1d50 33bd 4799 c2bd
00000380: 465e d33d 4f62 afbc 8b4b eabd ac3e 093e
00000390: ba77 92bd a5d9 b03d 7005 63bc 442e 7e3d
000003a0: 73d1 51bc 9f36 dc3d 1ea3 a43c a635 9c3d
000003b0: 0106 d8bd 8b4d 99bd 4a9c 063e ac2d 4b39
000003c0: 893d b93d c1e6 7abd 3977 6abc 289e adbd
000003d0: 045e db3d edfa 043d c45a c3bd 738d 7abd
000003e0: 9089 d1ba beb5 f2bd de86 823d f7e6 863d
000003f0: 7ccd 84b8 2ccb e53d 54cf eebd d2f0 3a3d
0.07907772 0.040641755 0.11974228 0.0008537679 -0.044198852 0.11794258 -0.09535453 0.034855857
0.110653974 -0.032044787 -0.04452059 -0.010481775 -0.12804444 -0.042176854 0.06719922 0.102700844
0.03214136 0.061526496 -0.02274479 0.07416424 -0.042611375 -0.07401754 0.056095548 0.061098233
-0.0111261355 0.0828772 0.055328075 0.08860331 0.06722805 0.12917094 0.11519485 0.0056390003
0.037312128 -0.024641678 0.03636886 0.041303914 0.104057215 -0.050857686 0.08350142 0.057097983
0.012899192 -0.06708211 -0.016400145 0.045706276 0.0087906625 0.018119019 -0.06379961 -0.08798525
0.0185846 0.11270691 0.102240965 -0.1253429 0.04469591 0.0053285635 -0.12052993 -0.07790549
0.037031528 0.11389136 0.09889053 -0.09259273 -0.046441343 0.1136071 0.118272975 0.1246247
-0.1062592 -0.101808585 -0.004875248 -0.103083685 -0.04625769 -0.03969156 -0.09206684 -0.070124716
-0.049861982 -0.017680315 0.06843553 -0.10079054 0.10258277 0.006908248 0.132956 0.093219966
-0.042640526 0.109795064 -0.0048497147 -0.023634944 0.054150194 -0.056287136 -0.102458976 0.078575164
0.055963565 0.079753876 -0.029939106 0.08841594 0.030246386 0.12957908 -0.019928955 -0.00821413
-0.08394352 -0.057807595 -0.04901777 -0.03215971 0.071172826 -0.018272562 0.13212505 0.1305565
0.1259411 -0.0919063 0.066913754 0.11966309 -0.020360654 -0.073009156 0.107400246 0.12820223
-0.070911676 -0.08418108 -0.113504045 0.034299348 0.07255948 0.0513922 -0.011907099 -0.047307182
-0.010415788 0.07917179 -0.08446719 0.03304289 -0.015331521 -0.0640864 0.03164181 0.028657809
0.045127872 -0.1141669 -0.020752342 -0.103052214 0.10857364 0.087093145 0.0486112 -0.09749296
0.10033667 -0.035078853 -0.077889964 -0.11173358 0.073789135 -0.033536002 -0.1029877 -0.10076606
-0.08405333 -0.06087615 0.07564144 -0.037528627 0.12289991 -0.11108621 -0.023700502 0.04416164
0.13555415 -0.06591015 0.06410689 -0.07462677 -0.03646636 -0.04893101 0.06860439 -0.048430298
0.113854945 0.016324969 -0.009868474 0.08620838 -0.08059787 -0.013301835 0.12128647 -0.083795674
-0.08991662 -0.08945414 0.020937705 0.0657145 -0.07407908 0.12436944 -0.019898739 0.025149353
0.11837917 -0.035829592 -0.10308389 0.1023481 0.122221164 0.0014301518 -0.011243536 -0.056663238
-0.03651621 -0.013071914 -0.07972584 -0.03701897 -0.1183867 0.13098311 -0.06476545 0.13352697
0.092178404 -0.050655104 -0.071046725 -0.07530293 0.10287133 0.040817212 0.12966691 -0.07989216
-0.06284659 -0.0036759411 0.103521556 0.07331333 0.08440004 -0.035359263 0.03002896 0.036486845
-0.05181318 -0.11202993 0.031419907 -0.034784876 -0.10183874 -0.067682646 -0.08629793 0.05079273
-0.084776245 0.094122134 0.06631021 0.111027956 -0.076807305 0.0026014564 -0.043777574 -0.095018916
0.103207156 -0.021409182 -0.1144019 0.13402814 -0.07151742 0.086352624 -0.013856277 0.06205584
-0.012806284 0.10752606 0.020097312 0.0762742 -0.1054802 -0.07485493 0.13145557 0.00019376603
0.0904494 -0.06125522 -0.014310651 -0.084774315 0.107112914 0.032465864 -0.095387965 -0.061170053
-0.0015986431 -0.11851071 0.0637338 0.06587022 -6.332525e-05 0.112203926 -0.116606385 0.04563982

lstm.weight_hh_l0 f4 [256, 64]
00000000: 6765 ccbd 9d9c c23c 435b 883d 75f4 863b
00000010: 4d34 8f3c 958b b83d 1ec5 bf3d 3eb3 f93d
00000020: 98d1 c6bc 06c1 1c3d 6891 b03d 0404 9a3d
00000030: 2764 a63d cc44 cbbd 6949 5fbd cf6e c2bd
00000040: 76cd a3bd f363 a5bc 6ef5 273d 7235 9c3d
00000050: 84ff 1bbd c722 53bc a205 c6bc 0cd0 fb3d
00000060: caec c6bd 4ea7 f4ba e88c f53d 6347 903d
00000070: fc44 253d 64ad dcbd e710 be3d d18e 003c
00000080: a3ae ec3d 6f3a 07bc cc91 c73d fced e03d
00000090: 799b 653d 5dcb a93d efc4 c73c 549d 91bd
000000a0: 5ca0 843c d0e1 83bd 3a7d 4c3d 186f 8fbd
000000b0: 3869 01be 9c1a d9bc 225d c13d 0449 d63d
000000c0: fada bd3d 5b95 29bd ad05 9e3d d86a 15bd
000000d0: 2426 d53d 9de3 f03b 5a20 b6bd b2a3 01bd
000000e0: a974 dabd 76ad 64bd db49 963d 1150 fe3d
000000f0: 85b2 8abd 9478 e13d 5ade 72bd 42c0 f23c
00000100: 0893 4abd 4de6 613d 7d02 ae3d 7621 9c3d
00000110: 66c7 e2bc f793 c8bb 4964 cb3d 7227 b13c
00000120: c35d 2dbd 3f52 fc3d 393c 853d 0726 a3bd
00000130: 14da 203d 1871 cdbd 3edc e2bd df0b ee3d
00000140: 371d cabc 84d2 c9bd 034c b23c 7be7 e0bc
00000150: 86b7 6c3d 5ce2 c0b8 3fe1 dfbd 7ebc 713d
00000160: fb3d b1bc 9a25 9b3d a797 cabd f188 24bc
00000170: ba5e a0bd e206 8abd 5f93 053e 1111 533d
00000180: dc84 d1bd b6b8 72bc 1fe2 993d 7bd9 82bd
00000190: 3d65 0f3c 266d 8c3d 47e4 9a3d 402c fbbd
000001a0: 0d39 cc3d a123 d5bd c3af 983b bbc2 13bd
000001b0: ac77 59bd 1f56 4f3c 02d8 443d d7e0 ecbd
000001c0: 7cf6 593d 8f59 26bc 9a0d 3bbc 0af7 c33d
000001d0: 580e abbd 28f2 44bd be26 eabd 40e8 a33d
000001e0: 48de f13d d05b d93d 5b80 5bbc 27ab f0bd
000001f0: 733d 243d f683 a43d d4f2 e2bd 3bb6 a6bc
00000200: 0f95 af3d 34cf 0b3d d0f6 063d e2e9 69bd
00000210: dc7f e2bd 6bfb a63d 935b 293d 4412 a13d
00000220: 5463 b83d 4e59 49bd bc02 58bd f313 a43d
00000230: 44a5 9d3c 9365 9dbb 8e44 a53b b3f0 e93c
00000240: 0945 bcbd bbed 58bd 120c 43bd 7fe2 21bd
00000250: 3153 b4bb 38eb c33c 4fe2 e5bd 3128 783d
00000260: d37c 33bd 96d8 bcbd 803e 88bd 1e6a f5bc
00000270: a45f 0fbc 3d35 f3bd 643f 273c 8a48 903d
00000280: 85bc 02be c747 503d 5419 90bd 4b3b 90bc
00000290: 31ba c63d 252a 86bd c8fe 84bd 470f e1bc
000002a0: e200 9c3c 5b50 d8bd ebaa 203c 46fc 403d
000002b0: cfb8 cb3d 1532 98bd f70c dabd 998b bebb
000002c0: cdde 053e ba18 db3c a219 613d 2931 ccbd
000002d0: b76d 33bc 36d0 1abd 1c9d aebc a59c cdbd
000002e0: 3bf3 ab3d 1cf1 adbd 6e0a 19bd e835 9cbd
000002f0: 4b4b ef3d 0dfd a73c a4a7 0abc 8c8f 9bbd
00000300: b8ed 523d 9b56 49bd 4ccf 973d bc2b a2bc
00000310: 7950 df3d cfa8 843d be0d 2f3d adfe d73d
00000320: 62ab 8e3d 6d40 48bc d8e9 213c 6970 393d
00000330: 96e1 59bd ad25 6d3d 38f0 223d 23a1 dcbc
00000340: 70df 2f3d b2c1 853d 0180 e53d 2db0 08be
00000350: da4c 80bd 9618 8f3d a4a9 643b 4455 883d
00000360: 1599 92bd 2b59 7c3d b1e4 47bc f864 d6bd
00000370: ec81 1e3d d9d7 863c bc4a c83d 6863 b2bc
00000380: a920 ca3d e4e9 50bd e239 38bc 8525 ba3d
00000390: 0c96 70bd 5650 66bd cc7b 79bc 3d2d cdbb
000003a0: f9a1 5dbd d821 5d3d 5917 a9bd f05f 10bc
000003b0: b06c 03be 6f06 01be 5392 e5bd 2622 eabc
000003c0: a138 ccbd 1664 c7bd 4ad0 e0bc ac86 463d
000003d0: a16a 2bbd ce00 b93d 7f2b 42bd 21ec 23bd
000003e0: 5dd1 093e e418 693d d47f c63c 7517 90bd
000003f0: 0c3a dcbc c8c0 d7bd 03fb a83c a547 d23c
-0.099802785 0.02375632 0.06658032 0.004118497 0.017480994 0.09010998 0.09363769 0.12192391
-0.024269864 0.03827002 0.08621484 0.07520297 0.08124571 -0.09925231 -0.05451337 -0.09493791
-0.07998173 -0.020189261 0.041005544 0.076273814 -0.038085476 -0.0128867095 -0.024172608 0.12295541
-0.09713133 -0.0018665583 0.11989766 0.07044866 0.04034899 -0.10775259 0.092805676 0.00784655
0.11556747 -0.008253678 0.097446054 0.10982892 0.056056473 0.082907416 0.024385897 -0.07110086
0.016189747 -0.06439555 0.049924113 -0.07003611 -0.12637794 -0.026501946 0.09441592 0.104631454
0.09270282 -0.041402202 0.07715926 -0.036478847 0.10407665 0.0073513524 -0.08892889 -0.031650253
-0.106667824 -0.055829488 0.073383056 0.12417615 -0.06772331 0.110093266 -0.059294082 0.029632691
-0.049456626 0.055151273 0.08496568 0.0762357 -0.027682971 -0.0061211544 0.09931237 0.021625254
-0.042325746 0.12320375 0.06505627 -0.079662375 0.039270476 -0.100313365 -0.11077164 0.11623358
-0.024672134 -0.09854606 0.02176476 -0.027454128 0.05779221 -9.197436e-05 -0.10931634 0.05901765
-0.021636 0.07575531 -0.09892207 -0.010042415 -0.07830568 -0.06739594 0.13044499 0.051529948
-0.10230419 -0.014814546 0.07513832 -0.06389137 0.008752164 0.06856756 0.07563072 -0.122642994
0.09971819 -0.10407186 0.0046596243 -0.03607438 -0.053092644 0.01265481 0.048057564 -0.11566322
0.05321358 -0.010153188 -0.011416817 0.09568603 -0.08352345 -0.0480825 -0.11433171 0.080032825
0.11809975 0.10613215 -0.013397302 -0.11751395 0.040097665 0.08032982 -0.11081472 -0.020350566
0.085733525 0.03413315 0.032950222 -0.057107814 -0.110595435 0.08153423 0.041347098 0.07864812
0.0900332 -0.049157433 -0.052736983 0.080116175 0.019243844 -0.0048033684 0.0050435727 0.028557157
-0.09192855 -0.052961092 -0.047618933 -0.039522644 -0.0055030813 0.023915872 -0.112248056 0.060585205
-0.043820214 -0.09220998 -0.06652546 -0.029957827 -0.00875083 -0.11875389 0.010207985 0.07045086
-0.12767227 0.050849702 -0.07036081 -0.017606398 0.09703482 -0.06551007 -0.06493908 -0.027473105
0.01904339 -0.105622016 0.009806375 0.047115587 0.09947359 -0.074314274 -0.10647004 -0.005814981
0.13073273 0.026745189 0.054956086 -0.09970314 -0.010951451 -0.03779622 -0.02131515 -0.10039643
0.08396002 -0.084932536 -0.037363462 -0.07627469 0.11684283 0.020506406 -0.00846282 -0.07595739
0.051496238 -0.04915486 0.074125856 -0.019796245 0.10904021 0.0647751 0.042737715 0.105466224
0.069662824 -0.012222392 0.009882413 0.04527322 -0.05319365 0.05789726 0.03977987 -0.026932305
0.042937696 0.06531085 0.112060554 -0.13348456 -0.06264658 0.06987111 0.0034891153 0.06656888
-0.07158104 0.061608475 -0.01220052 -0.10468477 0.038698122 0.016460346 0.097798795 -0.021775916
0.09869511 -0.051004305 -0.011244269 0.090891875 -0.058736846 -0.056228958 -0.015227269 -0.0062614963
-0.054109547 0.053987354 -0.08256406 -0.008811936 -0.1283443 -0.1260011 -0.1120955 -0.028580736
-0.099717386 -0.09735887 -0.02744307 0.048468277 -0.041849736 0.090333566 -0.047404762 -0.040020112
0.13458772 0.056908503 0.024230875 -0.07035724 -0.026883148 -0.10534817 0.020627504 0.025668928

lstm.bias_ih_l0 f4 [256]
00000000: 8b5e fb3c af6a 7f3d 5647 123d 6bee 45bd
00000010: 5720 34bd 24d3 a83d ae0d bdbd 9f4a 97bc
00000020: 5cce 98bd 40ac b63d 1e9f 073b 0cab 3f3d
00000030: aa7a 823d 186b 3e3d e6f7 4abd 55c1 a13d
00000040: 7923 99bd 2dcc 053e 6b46 94bd 208a e7bd
00000050: 643b 5fbd cdd9 c3bc 1882 f13d 45fe 173d
00000060: 794e f63c 49f6 6cbd fb17 bebd dcc4 d83d
00000070: 7d06 c6bd 4aee 48bc 11a7 3d3d 5c0d 93bd
00000080: 758f 89bd 46e1 ca3d 0fbe babd 9c4b b23d
00000090: 7f60 32bc 5e21 fe3c 0eb8 be3d 7067 11bd
000000a0: 2ac3 8ebd a908 90bd 1f14 22ba 1f55 2fbc
000000b0: c4cb 483d d320 8bbd 62f9 03bd cb5d b1bd
000000c0: 0923 dbbd 6259 c03d c4c6 833d 8ae0 57ba
000000d0: 6ce7 25bd 323d b23d f995 f33d 2cec 9c3c
000000e0: cc47 4e3d c416 a43d b370 d7bd 006e 86bd
000000f0: 59f2 dcbd 9a56 e4bd 5c0f 823a 2d80 ccbd
00000100: af62 443b 7f92 ab3d 424e 423d 884c 853b
00000110: 8bf7 cb3d f8cd f43c 2d45 c03c 186a d33c
00000120: 1266 053e 342a 343d 8c8c 333d 834e 833d
00000130: ad49 903c 379b a63d d7b0 b5bd a257 73bc
00000140: 485c 4fbd dc3b 693d 8e82 14bd 9064 12bd
00000150: d1ed 2d3d 550a 76bd a4a7 d8bb 2bab 93bc
00000160: a36a 6e3c 643e aa3d 2b2a 6ebd 8252 9e3d
00000170: 72fd 793d fa0d a73c 7ec5 4f3c 1d2f 9e3d
00000180: 25c7 443c 6c44 debd 1a51 8fbd dff0 55bd
00000190: 9dd6 983d 1308 20bc 649c 603d bc58 deba
000001a0: 18fc 4c3d 76c4 833d 33ae a6bc fedd ea3d
000001b0: f94d a3bd a1ef a7bd deb4 0c3d 86cc 3b3d
000001c0: 5be4 673c 500c 0abd 5b13 973d 4356 e5bd
000001d0: 2cb4 6f3d 6f1d 90bd 6baa f7bd 8fec b83d
000001e0: b038 8e3d ba47 b53c 77b6 f23d 7396 7ebc
000001f0: 1102 a33c 8695 9cbc 1358 33bd b546 56bd
00000200: 12a2 e0bc 96ad d23d 9723 82bd 1015 75bd
00000210: 5bf5 e4bc c7db eabb 60db e7bd 9438 a23d
00000220: fc63 903b 72e5 b4bd f9a6 a73d fddd 113d
00000230: 3668 64bd 8323 31bd fb78 303d 3198 01be
00000240: e328 68bd d80d 303d fcf9 cebd 66c0 a53d
00000250: 2a5f 83bd dd3a 9fbb ca11 b93c de8c eb39
00000260: 13a8 ac3b 65d0 7ebb 93b6 3abc 9e0a 92bd
00000270: ac40 fd3d 4fa5 203c 89a2 f8bc 579e 21bd
00000280: 3cfc ffbd 81f3 32bc 2b4b 753b e80b 533d
00000290: bdc9 59bc 5d56 cd3d b35d e53d b480 f13d
000002a0: d187 f03b b7e6 51bd 6106 db3c de6d cabd
000002b0: 2f5c 81bd e6b8 073d 007f bbbd c962 bfbd
000002c0: baa8 cc3b 9812 c0bd 305d 803d 9fb3 adbd
000002d0: ba04 fdbd 8841 cc3a 5968 3dbd 4db1 83bc
000002e0: 3497 3cbd 77fd 963d f385 713c e787 c63c
000002f0: 4be5 86bd ec58 713d 7f9e c4bc 26f5 7dbd
00000300: 54b6 adbc a595 013d 106e b4bc 7dc5 7c3d
00000310: 618e a83d aad6 ce3d 33d4 27bd ee47 8c3c
00000320: 38fd 0cbd 0a08 24bd bd88 103d fb95 c73c
00000330: 9d32 3ebc ced7 acbd 3e6f 4aba ba3a 873d
00000340: 33bb 933d f179 e93d a14e 0ebd e991 013e
00000350: a577 b13d c055 3ebd 674b 9e3d 2040 d4bd
00000360: 64a5 45bd a7aa a8bd 18f6 063d d22f df3d
00000370: 7d6b b7bd 42dc 11bd c4db 4d3d 6933 d73b
00000380: f18d 9bbd 92d1 29bc 5791 4cbd 91d0 88bd
00000390: 2bae 3fbd f80b b6bd fc80 9bbd e95d c03d
000003a0: 2141 3b3d 4982 473d a940 933c 1617 ee3b
000003b0: 4bc6 993d 2813 df3d 4bd5 153d db5b 093e
000003c0: e421 0cbd f96a e93d 086e a1bd ce95 c33d
000003d0: b6d0 fc3d e4b1 a3bd adf2 983d 34f4 493d
000003e0: fa96 b9bd 55d6 c8bd c92c 7d3d 58fc b5bd
000003f0: 49b4 b7bd 1003 2bbd 121c eebc f50f 0a3e
0.03068473 0.0623576 0.035712563 -0.048323076 -0.043976154 0.08243397 -0.09231125 -0.0184682
-0.07461235 0.08919573 0.0020694206 0.046793982 0.063710526 0.04648885 -0.04955282 0.07898203
-0.07477469 0.13066168 -0.07239994 -0.11305642 -0.0545 -0.023907566 0.117923915 0.037107725
0.030066716 -0.057852063 -0.09281918 0.10584423 -0.09669206 -0.012263844 0.046301905 -0.071802825
-0.067168154 0.09906249 -0.09118282 0.087058276 -0.010887264 0.03102177 0.093124494 -0.035499036
-0.06970818 -0.07032902 -0.0006182808 -0.010701447 0.04902245 -0.0679337 -0.03222025 -0.08660468
-0.10700042 0.093920484 0.06434396 -0.0008235058 -0.040503904 0.08703078 0.118938394 0.019155584
0.05036144 0.08012155 -0.105195425 -0.065639496 -0.10788412 -0.111493304 0.000992279 -0.09985385
0.0029966047 0.08377551 0.047437914 0.004067961 0.099593244 0.02988337 0.023470486 0.025807425
0.13027218 0.04398556 0.043835208 0.06411459 0.017613256 0.08135074 -0.0887162 -0.014852436
-0.050625116 0.056941852 -0.03625732 -0.035740435 0.042463128 -0.060068447 -0.006611781 -0.018025955
0.014551791 0.08312681 -0.058145683 0.07730581 0.06103272 0.020392407 0.012681363 0.0772383
0.01201037 -0.10852894 -0.06997891 -0.052231666 0.07462809 -0.00976755 0.054836646 -0.0016963701
0.050045103 0.06433956 -0.020346737 0.11468123 -0.079738565 -0.082000025 0.034352176 0.045849346
0.014153565 -0.03370315 0.07376739 -0.11198094 0.058521435 -0.07036864 -0.120930515 0.09029495
0.06944406 0.022128928 0.11851209 -0.0155388 0.019898446 -0.019114267 -0.043785166 -0.052313525
-0.027421031 0.10287015 -0.063544445 -0.05983454 -0.027949026 -0.007167313 -0.11321139 0.07920948
0.0044064503 -0.08832826 0.081861444 0.035612095 -0.055763446 -0.043246757 0.043084126 -0.12655713
-0.056679618 0.042981952 -0.101062745 0.08093338 -0.064146355 -0.004859312 0.02259149 0.00044927647
0.0052690594 -0.0038881537 -0.011396068 -0.07130931 0.12365851 0.009805038 -0.03035094 -0.039457645
-0.12499282 -0.010922314 0.0037428837 0.051525027 -0.013292727 0.10026238 0.11199512 0.11792126
0.0073404093 -0.051245417 0.02673644 -0.09884237 -0.06316411 0.033135317 -0.09155083 -0.09345014
0.0062456997 -0.093785465 0.06267774 -0.08481526 -0.12354417 0.0015583495 -0.04624209 -0.016075755
-0.046042636 0.07372563 0.014741409 0.024234725 -0.06586703 0.058922693 -0.024001358 -0.06200137
-0.021205105 0.031636853 -0.022025138 0.061711777 0.082302816 0.10099538 -0.040973853 0.017124142
-0.034421176 -0.04004673 0.035286654 0.024363508 -0.011608747 -0.08439599 -0.0007722265 0.06602998
0.0721344 0.114002116 -0.034742955 0.12653317 0.086653985 -0.046468496 0.077292256 -0.103637934
-0.048253432 -0.08235674 0.032949537 0.10897793 -0.08956049 -0.035610445 0.050258413 0.006567408
-0.075954325 -0.010364907 -0.049943294 -0.06680406 -0.04679696 -0.088890016 -0.07592961 0.09392912
0.04571641 0.048708234 0.017975168 0.0072659357 0.075085245 0.10892326 0.036580365 0.13413946
-0.034212008 0.113973565 -0.07882315 0.09550057 0.12344496 -0.07992914 0.07468162 0.049305156
-0.090619996 -0.098065056 0.06181029 -0.088860214 -0.089699335 -0.041750968 -0.02906612 0.1348265

lstm.bias_hh_l0 f4 [256]
00000000: 998b b6bd 8b5d ea3b 679d b93d b174 ea3c
00000010: 196a 4f3d 8b37 5f3d fa91 f43b c36e 2abd
00000020: b098 aabd f226 a43d 71a8 17bd a910 9a3b
00000030: e978 223d 4348 7b3c f262 393d 2752 e43d
00000040: 1666 0a3e a209 2cbd 4e67 51bc de77 c3bd
00000050: fba4 e23b e628 b9bc 8813 e73d bb87 12bc
00000060: 2ac3 86bd 3d78 d2bd c51b ec3d 43f5 5d3d
00000070: 1904 ff3d 3494 eabd faea 0aba b0fc 8fbd
00000080: 910d b9bd 6cd2 dc3d 0008 02bd caea b2bd
00000090: 6c7a d2bd e8fc 12bd ca7a c93d b757 da3d
000000a0: 1374 00bd 997d 903d de58 df3c 607f 65bd
000000b0: aee6 89bd 20c6 07bd d0a8 00be 8773 1f3b
000000c0: d624 01bc 7eec 01bd 4456 e83d fdf4 e93d
000000d0: 8303 933c 40df 9c3d c1bf ca3d 66f8 6ebd
000000e0: 4401 04bd b0d1 863d d77f a1bd 6427 9d3d
000000f0: aa13 a93c 4e62 ba3c 6585 b63c 54fe 90bc
00000100: f994 78bd e764 94bc a005 df3d 735b a83d
00000110: 1d8d 4cbd c4d1 a73d 057a 88bd bb66 ff3d
00000120: c8bf 3c3c e759 f8bc fd81 a63d dd6b 03bd
00000130: 2644 8c3d fa9e 68bc d490 f03c 9d68 633c
00000140: f3d1 093e a5a3 ff3d ee52 4f3d b049 6e3d
00000150: cb4d d43c e932 17bd 1f3a 9abd d5cc ed3d
00000160: 6444 cabd dcbd c1bd bbdd 93bd 005d cabc
00000170: e61a 7d3d 347f 693d 6c6f 6b3d cd09 9a3c
00000180: 6b4a 933d 9eb0 b8bc 54e2 583d 0f2c d4bd
00000190: b731 60bd 2ca5 313d 7f50 e73d 16cb ca3d
000001a0: cb80 c6bc 7809 42bd 6667 d3bd 4260 e3bd
000001b0: 602f 933c 562d 59bd e1cc 81bc 92cf 41bd
000001c0: e2e7 ddbc 38a7 8d3d 79c4 7cbd 5836 12bc
000001d0: f86c 7b3d bc70 1cbd 43a7 f23d 7280 f33b
000001e0: eba7 383c 7bcb 56bd 6d02 c63d 94fa 30bb
000001f0: ce1d 7abc 242b 9e3d 1f0a b53d 91db 2bbc
00000200: 4925 053d 120d 353d 3359 ccbc 464d 4f3d
00000210: ec51 80bd cb80 cb3d 03de 70bd 2afc b13b
00000220: a766 2b3d c8a7 973d 25e3 e03d 4c19 d4bd
00000230: 9664 ad3d dbcd b93c c446 a53d 8574 e7bd
00000240: 5a53 ca3d bc33 d0bd b6c7 95bd c87b 92bd
00000250: b10d 9abd b906 d83d e642 d4bc e988 c73d
00000260: b5b0 9c3d 0b15 ac3d 9c0f debd 1cb5 92bd
00000270: 2669 d8bd 9087 cc3c 22d7 a43d 5b30 c03d
00000280: f8eb da3c f687 8dbd 08da bbbb 006d 22bd
00000290: 0366 853c a46c 28bd 8d92 d23d de85 c53d
000002a0: 7027 aabd 4236 ffbd cd36 843d 66e2 ebbd
000002b0: 2d3b 903d d296 62bd 3d09 71bd fb85 ca3d
000002c0: 021a 903d 804a ef3d 0120 d53d 4cbf 6b3d
000002d0: 6004 a13d e05a 833b b5a2 15bd 481c b23d
000002e0: c610 f03d 1891 7f3d 9cb2 063d ffeb 913d
000002f0: 3530 d6bc 82ab 5ebd a9f9 38bd 9d65 8f3d
00000300: c68e 0a3c 5b40 28bd 6175 4d3c e727 823d
00000310: 7904 ee3d e8e4 abbd 949d 6cbc 136f 963d
00000320: c921 bd3c f273 793d 9450 ca3c d6ad 023e
00000330: 6ea7 65bd bc3a d53c 3ebc 36ba 0352 2abd
00000340: 9a43 293d 611f e33d 6d2b c33d a463 853d
00000350: a314 9cbd 8327 c9bc 4917 14bd 8ab9 023e
00000360: 80b7 88bc e1d2 c93d 92a0 c13d 58d9 a33d
00000370: fd73 d33d 5412 013e 0e02 043e 0cc1 bc3d
00000380: c395 0bbc d9a7 063e 7bb7 063e 2301 ee3d
00000390: 11d2 3a3d 019d 3bbc a273 b43d b54b 7d3d
000003a0: 8cd3 c1bd 40af ba3d cdb5 783d 80bb 2e3d
000003b0: 7b5a 87bd d283 223d 697c 0dbd d754 debd
000003c0: 181a 373d 4d23 e3bd f903 21bd ff98 f0bc
000003d0: e8cd f13d 46db c4bc b058 7cbd 2872 2f3d
000003e0: 9a91 76bd a1de bd3d 2676 dc3d 7aa4 5bbc
000003f0: 61f2 b13d 2f96 f73d e0fd 823d a9f4 7b3c
-0.08913345 0.0071522645 0.09063225 0.028620096 0.050638292 0.05449633 0.007463691 -0.041609537
-0.08329904 0.08015241 -0.037025873 0.004701693 0.03966609 0.015337053 0.045260377 0.11148482
0.13515505 -0.042001374 -0.012780977 -0.09544347 0.00691664 -0.02260251 0.11283022 -0.0089434935
-0.06580193 -0.1027684 0.11528734 0.054188978 0.124519534 -0.11454049 -0.00052992965 -0.07030618
-0.09035791 0.10782322 -0.03174591 -0.08736189 -0.10277256 -0.03588572 0.09837873 0.106612615
-0.031360697 0.07055206 0.027264055 -0.056029677 -0.06733452 -0.03314793 -0.12564397 0.0024330334
-0.0078823175 -0.031719677 0.11344579 0.11423681 0.01794601 0.07659769 0.098998554 -0.05834236
-0.03222777 0.065829635 -0.07885712 0.07673529 0.02063926 0.022751953 0.022280404 -0.017699398
-0.060688946 -0.01811452 0.10889745 0.082205676 -0.049939264 0.081943065 -0.066638984 0.12470766
0.011520334 -0.030316306 0.08130262 -0.03208529 0.06848936 -0.014198059 0.029365934 0.013879922
0.13458996 0.124823846 0.050616197 0.058175743 0.025916 -0.036913786 -0.07530617 0.11611334
-0.09876326 -0.09460041 -0.07220026 -0.024702549 0.06179323 0.057006076 0.057479307 0.018803502
0.071919285 -0.022545155 0.05295022 -0.10359966 -0.05473491 0.04337041 0.1129465 0.09902017
-0.024231335 -0.04737231 -0.10322456 -0.11102344 0.017966926 -0.05302175 -0.015844764 -0.047317095
-0.02708811 0.0691666 -0.06171081 -0.008924089 0.061383218 -0.03819345 0.11848309 0.0074310834
0.0112705035 -0.052440148 0.096684314 -0.0027004825 -0.015265895 0.07723072 0.08839821 -0.01048936
0.03250626 0.044201918 -0.024944877 0.050610803 -0.06265625 0.09936675 -0.058805477 0.0054316716
0.041845944 0.074050486 0.109808244 -0.103563875 0.08466451 0.022681167 0.08070138 -0.11301521
0.09879179 -0.101661175 -0.073134825 -0.07152516 -0.07522143 0.10548157 -0.025910806 0.097429104
0.07650892 0.08402451 -0.10842821 -0.0716345 -0.105669305 0.024966985 0.08048846 0.09384223
0.026723847 -0.06910698 -0.0057327785 -0.03965473 0.016283995 -0.041119233 0.102818586 0.09644674
-0.08308303 -0.12461521 0.06455765 -0.115177915 0.07042537 -0.055319615 -0.0588467 0.09888836
0.070362106 0.116841316 0.10406495 0.05755548 0.078621626 0.004008636 -0.036532123 0.086968005
0.11721949 0.06239423 0.03288518 0.07125091 -0.026146034 -0.05436278 -0.04515997 0.07001803
0.008456891 -0.041077 0.012540192 0.06355267 0.11621947 -0.0839327 -0.014441866 0.073454045
0.0230874 0.06090159 0.024696626 0.12761626 -0.056067877 0.026028983 -0.00069707993 -0.04158212
0.041324235 0.110899694 0.09529767 0.065131456 -0.07621124 -0.024554973 -0.03615502 0.1276609
-0.016689062 0.09854675 0.094544545 0.080004394 0.103248574 0.12604648 0.12891409 0.09216508
-0.008519593 0.13149966 0.1315593 0.116213106 0.04561049 -0.011451007 0.08811118 0.061839778
-0.094641775 0.091154575 0.060720254 0.042659283 -0.06609055 0.039676495 -0.034542475 -0.10856026
0.04470262 -0.110907175 -0.03931043 -0.02936983 0.118068516 -0.024030339 -0.061608016 0.042833477
-0.06019745 0.09270979 0.107647225 -0.0134059135 0.08688808 0.12089192 0.06396079 0.015378156

lstm.weight_ih_l1 f4 [256, 64]
00000000: a300 ccbd e26d 20bd 8dd3 d33c 994c dbbd
00000010: e80f e83b d201 fbbc 6cc5 0e3c 94c4 f4bc
00000020: 5e6a 603d 02ff df3d d278 113d 8d28 903d
00000030: f1d7 9b3d 6c61 cbbd 3bc5 933d eb1a 9fbd
00000040: 7434 2a3c 201e 713d 3cba 96bd 65b9 a2bc
00000050: d986 26bd cbfa 13bd cda6 bc3d d820 bc3d
00000060: f318 193d f198 953d fc66 4f3d b3a6 103c
00000070: b747 4c3d 48ea c63d a582 353d 16db 523d
00000080: 201e 9a3d 0491 0a3d ba87 0fbd afbe c8bc
00000090: 2e75 b63c a2fc da3d 5a62 da3d 5012 3fbd
000000a0: 3a4a dfbc 0caa d5bc 9528 8dbc f97f 90bd
000000b0: 4281 febd a2e6 ddbb f2ae d6bc 99c1 e0bd
000000c0: 27ef d03d 2884 b33c dc56 fc3d 69a4 96bd
000000d0: fbb3 953d 2b7c 02be a975 ec3d e774 e63d
000000e0: 859a df3d 8d27 83bd b87d 84bd 0160 a53d
000000f0: d1f9 3abc e166 fb3d 22ea 38bc 7857 a1bc
00000100: 7073 00bd a3b1 e33d d68a ca3d 7610 f7bc
00000110: 18d1 fab9 ff95 f63d add3 05bd c69c 393d
00000120: e2a7 713c e643 dbbb 5b11 bebd 99ec 08bd
00000130: 523e acbd c496 24bc 5b21 33bc faa5 0e3d
00000140: 0d39 debc c16a af3d 6aee bebd 7bb1 bcbd
00000150: 3ee1 ba3c ba79 c53c dc1a db3d 19a1 0d3d
00000160: 6800 a5bd 3679 4abd 5e42 b1bd f88d 823d
00000170: 5c1d 5abd a5da f3bd d3d5 ae3c 3b3d f3bd
00000180: 9004 3fbd 9599 aabd 56b5 933d 50f3 e2ba
00000190: 069a e0bd b4c6 aabd a519 51bd 0658 fdbb
000001a0: 68cc 9f3d 1708 b8bd cf93 c4bd 4a39 c83d
000001b0: 5f5a 8d3d 3b97 eebb c7c3 4a3d 5c72 c3bd
000001c0: 7baf 9fbb 99e9 073e 9925 30bc 2f48 983d
000001d0: cf4e efbd e938 b3bc 3bf2 00be 1628 3bbd
000001e0: d749 223c dcbe 7dbd 42b1 b9ba fea7 a3bd
000001f0: 682b 84bd d79d 11bb db93 833c 1e2b 083d
00000200: 8fd3 593d 0e18 e6bd d953 14bd 02f0 593d
00000210: f0c9 d53d cd2d 4abd 1902 b3bb b6a0 193d
00000220: 5cb2 a8ba 1912 9abc a7bb 8d3d b47a 1d3d
00000230: 84d4 08be 7b1d 09bd ac09 91bc e549 a23d
00000240: 9c17 e0bd 6a85 45bd 21bd c03d 229c dcbd
00000250: ecf4 adbd 9b08 ce3d 695a 543d 8fe0 7fbd
00000260: 5514 da3d 9443 7e3d 838a c03d 0996 89bd
00000270: 1b38 133d 1d7e 38bd e0f9 f13d c891 ddbd
00000280: beef 30bd d961 dabd 8b55 e1bd 0265 173b
00000290: 9420 e0bd 0719 c2bd 6bfd 983d cd9e a63d
000002a0: 084e 933c dc47 7539 23a6 223d 31c4 993d
000002b0: 3c0d 1cbd 34a0 83bd 232f c3bc e9e1 c9bd
000002c0: ac57 9cbd 3c0d 1e3d e377 86bc 4b29 30bd
000002d0: 74dc aebd 8863 34bd ea62 893d a865 ba3d
000002e0: 4820 e83a 2263 c3bd d881 6c3c 9f4e f6bd
000002f0: fdbf db3d 8d62 2c3d eff4 cbbd 4605 f93d
00000300: c280 023d f4b8 14bd 7809 a73b 1357 f53d
00000310: 0695 46bb 8138 0a3e 32d1 d5bd 33cb cc3d
00000320: 3725 bb3d 9a6a 3dbc 67e1 bebd a154 0d3d
00000330: 9483 993c 3b77 3d3d c3b8 d53c b62f d23d
00000340: 766f c63a 2d5c 5cbc e24e 963d fea7 903d
00000350: b97d bc3d 3a46 a63d 92f5 7a3d 9652 e4bd
00000360: fe79 c83d ca4b a5bc 68e3 06be 5ec6 57bd
00000370: 9e42 1a3d a149 0b3d 8c10 863d d862 f8bd
00000380: bc4c bfbd 7584 5fbd be12 6a3d a444 c03d
00000390: d855 4cbd 8ee8 afbc 086c db3d 5156 abbd
000003a0: 37ec 393c b8a5 623d bdaa c4bd e719 af3c
000003b0: c7db e03d a9ce 193d bd40 2fbd 9bb2 2c3c
000003c0: 346c 43bd 5f27 adbd 4e8d 5ebd 577d 74bd
000003d0: faa7 f13d 01fc 02be 8c5f 95bd 27f0 8abd
000003e0: edad 3abd ef90 e7bc fa7d d03d 06a6 de3c
000003f0: 083c cf3b efaf f7bc 1cd7 5abd ec80 d4bd
-0.09961059 -0.039167292 0.025857711 -0.10707969 0.0070819743 -0.030640516 0.008714061 -0.029878892
0.05478894 0.10937311 0.035515614 0.070389844 0.07609547 -0.09930691 0.07215353 -0.07768806
0.010388482 0.05886662 -0.0735974 -0.019863794 -0.040655944 -0.036127847 0.09211502 0.09185952
0.03737731 0.07304562 0.050635323 0.008828807 0.04987308 0.09712654 0.044314045 0.051478468
0.07525277 0.033829704 -0.03504155 -0.024504988 0.022272673 0.10692717 0.1066329 -0.046648324
-0.027257074 -0.026082061 -0.017231265 -0.07055659 -0.12426998 -0.0067718783 -0.026206467 -0.10974426
0.10201865 0.021913603 0.123212546 -0.073555775 0.07309719 -0.12742679 0.115458794 0.11252766
0.10918144 -0.06404028 -0.064692914 0.08074952 -0.0114121 0.12275482 -0.01128629 -0.019695029
-0.03136009 0.11117866 0.09889762 -0.030159216 -0.00047839503 0.12040328 -0.032672573 0.045315526
0.014749499 -0.0066914437 -0.09280654 -0.033428762 -0.08410324 -0.010045711 -0.0109332455 0.034826256
-0.027126813 0.085652836 -0.093228176 -0.09213539 0.022812482 0.024105895 0.106984824 0.034577463
-0.08056718 -0.049432002 -0.08655237 0.06374735 -0.053250656 -0.119069375 0.021342194 -0.11876913
-0.04663521 -0.08330075 0.072123215 -0.0017314944 -0.10966878 -0.08338681 -0.051049847 -0.0077314405
0.07802659 -0.08985918 -0.09598505 0.09776552 0.069020025 -0.0072812117 0.049503114 -0.09543297
-0.004873214 0.13272704 -0.0107511515 0.07435643 -0.116849534 -0.021877723 -0.12592404 -0.045692526
0.0099053 -0.061949596 -0.0014167207 -0.07991026 -0.064535916 -0.0022219324 0.016061714 0.033244245
0.053180274 -0.11235057 -0.036212776 0.053207405 0.10438907 -0.049360085 -0.0054628965 0.03750678
-0.0012870538 -0.018807458 0.069205575 0.038447097 -0.13362318 -0.03347538 -0.017704807 0.079242505
-0.10942003 -0.048222937 0.094110735 -0.107719675 -0.08493981 0.10060235 0.051844034 -0.062470015
0.10648409 0.062076166 0.09401419 -0.0671807 0.03594218 -0.045042146 0.11815238 -0.10818821
-0.043197386 -0.10663194 -0.11002644 0.0023100977 -0.10943714 -0.0947743 0.07470211 0.081357576
0.017981544 0.0002339179 0.03970922 0.07508124 -0.03809856 -0.06427041 -0.023826187 -0.09857542
-0.076339096 0.03858684 -0.016414588 -0.04300813 -0.08538142 -0.044040233 0.067083195 0.09101421
0.0017709816 -0.095403925 0.014435254 -0.120267145 0.10729978 0.042086173 -0.09958827 0.12159209
0.031861074 -0.036309198 0.0050975643 0.11979499 -0.0030301227 0.13498117 -0.104402915 0.09999695
0.091379575 -0.01156106 -0.09320336 0.034504537 0.0187395 0.046256285 0.026089078 0.102630064
0.0015139419 -0.013449711 0.073392645 0.07063292 0.09203667 0.081188634 0.06126935 -0.111485645
0.09788893 -0.02017774 -0.13172686 -0.052679412 0.037661187 0.034005765 0.06546125 -0.12128228
-0.09340808 -0.05456968 0.05714678 0.09388092 -0.049886554 -0.021473195 0.10713965 -0.08366073
0.011347822 0.055333823 -0.09602878 0.021374656 0.10979419 0.037550602 -0.04278635 0.01054063
-0.047710612 -0.08454775 -0.054333977 -0.059689846 0.11799617 -0.12791444 -0.07293615 -0.06784087
-0.045576025 -0.028267352 0.10180278 0.027178776 0.006324295 -0.030235259 -0.0534278 -0.103761524

lstm.weight_hh_l1 f4 [256, 64]
00000000: 6cc7 933b 847f b83d 9212 d2bd df61 41bd
00000010: 444e d53c 7f47 f93d 7862 cc3d d723 363d
00000020: 69a1 87bd c5b2 8b3d da97 823d 0ed5 9abd
00000030: 845d dabd beb4 e0bd 8d1c e5bd 73ef 9fbd
00000040: 7691 873d 07f8 9f3d 0441 033e 7b38 9ebd
00000050: 7202 eb3d 4d23 f73d 1fee 83bd 7b05 92bd
00000060: 5ce3 d4bc f6ee d7bc 7368 79bc 628f 41bd
00000070: 9fd5 f93d 9c23 093e 9f7a 07bd d59b 733d
00000080: ff8d 3bbd 6734 1bbd 7920 683d ceb7 27bd
00000090: a747 c7bd 32ba 053e 8f35 93bc 9993 7d3d
000000a0: 1704 cfbd cbb5 143c 383b debd d6c6 823b
000000b0: 2b30 413c c733 b4bd a6ed d5bb ca3a 9cbd
000000c0: 2721 e23d a52f d83d 3a21 e4bc 02fe 39bd
000000d0: facd f73c f27c 743d dc76 74bd b94f a6bd
000000e0: 4eab d83c 3e50 e5bd cfb4 e73c 66d5 523d
000000f0: 8180 f63d 6673 933c 0591 82bd 7736 f63d
00000100: ac14 923d 80f7 453c 60ae 053d d481 d0bd
00000110: 70b0 48bc 4035 963d 706c 333c 3002 96bc
00000120: 787c 8e3d 80f8 57bd 228c 073b b7e8 36bd
00000130: b1ff febd 1f45 863c 756e cabd cab9 0fbd
00000140: 3018 b3bd 8369 e03d 5afb 133c f049 98bd
00000150: f072 d93d 6f0b c13d fbc4 b93d ae3f 823d
00000160: 9c3d 06be 45d8 1abd 07fb 8b3d 8f6f c93c
00000170: 3fbc 9b3d 94e3 b0bd f5ea a3bd 709c 15bd
00000180: ad1f 3f3d 5caf 5c3d e021 b43d 6822 053e
00000190: 9425 b1bd fa48 eb3a f4fa 813d 1546 90bb
000001a0: 5b73 b03d 9e13 e8bc 69f8 c93d 53ef acbd
000001b0: db6b 043c b96e b9bc d3ea 8fbc 6a3c 02be
000001c0: fc01 77bd 44dc f3bd 5ed7 953c 50bb 91bd
000001d0: 503e 723d ce9b a6bd 4484 c83c 557a 573c
000001e0: 52aa bcbd a694 913d b3e7 a33d 906b 9ebd
000001f0: 6bce ec3d 727b 9bbd 8767 cebd c697 08bd
00000200: ab79 da3d 1183 35bd c903 bd3d 92f4 973d
00000210: 2202 ca3d b81a bf3d 218d 843a effb d03c
00000220: 241d d93d 026d e33d e492 a63b 353e 613d
00000230: c3e1 d2bd 7cc1 83ba 80a0 9c3d a790 133d
00000240: 6dc7 1cbd 7860 b93c 3e51 28bd d43f 233c
00000250: bbdb 09bd 27c6 72bd b503 c6bb 2ea0 933d
00000260: 1c28 fbbc 4c61 5cbd 339c 853d 0cfb f43c
00000270: 082c d1bd acae 9c3d 9e78 693c d507 78bc
00000280: 0999 413d c646 223b 0e41 873d ea96 a43d
00000290: 7e0a ff3c b7b6 99bd 64cb bebd b73c cabd
000002a0: f635 a8bd bc2a df3d c19f dc3d 6d90 ebbd
000002b0: ba73 c2bd 409d 9dbd 876d 5b3d 4112 eebd
000002c0: f044 06bc 4065 2ebd 26f6 0cbd 615f b13d
000002d0: 9bb0 49bd e88f afba 478e a93d db61 28bd
000002e0: 81b6 9fbc 6797 84bc 600c 373d e461 e4bd
000002f0: 355c 2abd cdb2 7cbd b191 a4bd c76e 1e3d
00000300: de02 71bc 4798 f0bc 3182 843d 7363 92bd
00000310: 186e 1bbd 7e86 a8bd 6d0d 28bd 8676 c3bd
00000320: 3348 e8bd 52fc e4bd 2c94 92bb 6153 05be
00000330: 1c78 f73d 6cc7 473d c2a4 043e a41e 033e
00000340: 5e98 903d f813 03be cb26 d13d 690e 423d
00000350: 523e 793c a1bb dbbc d1c5 5dbd d0d4 df3d
00000360: d36c da3d 0817 82bd d806 23bd 6300 9bbd
00000370: 30af 0a3e 0a7f 60bd c4e1 2a3d 7a0a 823d
00000380: f07c c53d 1f48 c3bc e71a a6bd 2cbd 1dbd
00000390: ac73 b1bd 54af 8abd 3bf3 083d ce0e a43d
000003a0: ef8d f73d b068 d93b 9cbf 8d3d 4855 aa38
000003b0: fc21 fa3b 07cb d83d e460 c93d 31dd 423d
000003c0: 9349 7ebd dbbd f63b 9ea9 863d 2db9 e3bc
000003d0: 4eed 253c 56c7 c63c 3f0f 843d 5230 11bd
000003e0: ee88 bdbb ece6 c73d 6e33 99bb e66b 0e3d
000003f0: 764f b4bd 6ce0 cc3c d3dc e7bc 5dc3 26bc
0.004509857 0.09008697 -0.10257448 -0.047212478 0.026038297 0.1217184 0.09979719 0.044467773
-0.066225834 0.06821207 0.0637662 -0.07560168 -0.10662368 -0.10971974 -0.11187086 -0.07809343
0.06619541 0.07810979 0.1281777 -0.077256165 0.11475076 0.1206728 -0.06441902 -0.071299516
-0.02598732 -0.026359063 -0.015222657 -0.04725588 0.12198948 0.1339249 -0.033075925 0.059474785
-0.045789715 -0.03789177 0.056671593 -0.040946774 -0.097304635 0.13059309 -0.017969875 0.06190834
-0.10108202 0.009076546 -0.10851139 0.0039909882 0.011791269 -0.08798938 -0.006528574 -0.076284006
0.110414796 0.105559625 -0.027847875 -0.045408256 0.030249584 0.05968947 -0.059683666 -0.08120675
0.026448872 -0.111969456 0.028284458 0.051473044 0.12036229 0.017999362 -0.063753165 0.12022107
0.07132849 0.012082934 0.032637 -0.10181013 -0.012249097 0.073343754 0.0109511465 -0.01831159
0.06957334 -0.052727222 0.002068289 -0.044655528 -0.12451113 0.016390381 -0.09884349 -0.03508929
-0.08744848 0.10957625 0.009032095 -0.074359775 0.10617626 0.09426009 0.09070774 0.06359802
-0.1310944 -0.037803907 0.06834989 0.024589328 0.076042645 -0.08637157 -0.08003799 -0.036526144
0.046661068 0.053878173 0.08795524 0.13001406 -0.086497456 0.0017950826 0.06346694 -0.0044028857
0.08615752 -0.028329667 0.098618336 -0.08444085 0.008082355 -0.022635804 -0.017568028 -0.12718359
-0.060304627 -0.11907247 0.018291172 -0.07115805 0.059141457 -0.08135186 0.024477132 0.013151725
-0.092121735 0.071084306 0.080031775 -0.0773536 0.115628086 -0.07591905 -0.1007834 -0.033347867
0.106677376 -0.044314448 0.092292376 0.07419695 0.09863688 0.09331268 0.001011286 0.025510756
0.10601261 0.11104776 0.0050834287 0.054990966 -0.10296967 -0.001005217 0.076478004 0.036026623
-0.038276125 0.022629008 -0.041093104 0.009963948 -0.033656817 -0.059271004 -0.0060429224 0.07208286
-0.030658774 -0.053803727 0.06523933 0.029904865 -0.102134764 0.076505035 0.014249949 -0.015138586
0.047265086 0.0024761423 0.06604205 0.08036597 0.031132933 -0.07505553 -0.093161374 -0.09874862
-0.08213417 0.10896823 0.10772658 -0.115021564 -0.09494729 -0.07696009 0.05357125 -0.116245754
-0.008195147 -0.04257703 -0.034414433 0.0866077 -0.04924069 -0.0013394328 0.082790904 -0.041108947
-0.019496204 -0.016185476 0.044689536 -0.11151484 -0.04159184 -0.061693955 -0.08035601 0.038679864
-0.014710156 -0.029369486 0.064701445 -0.07147875 -0.03794679 -0.08228777 -0.04102843 -0.09544091
-0.11341896 -0.11180939 -0.00447323 -0.13020088 0.12083456 0.048774168 0.12953475 0.12804657
0.07060312 -0.12800586 0.10212477 0.047377024 0.015212612 -0.026822867 -0.05414373 0.10929263
0.10665288 -0.06352049 -0.03980145 -0.07568433 0.13543391 -0.054808654 0.041719213 0.063496545
0.096429706 -0.023838101 -0.081106 -0.038510486 -0.08664641 -0.067717224 0.033435088 0.08010636
0.120876186 0.006634794 0.06921312 8.1221166e-05 0.007633446 0.105855994 0.098329335 0.047574226
-0.062081885 0.0075299568 0.06575321 -0.02779826 0.010127379 0.024264973 0.064482205 -0.035446472
-0.0057841456 0.09760842 -0.0046753203 0.03477087 -0.088042185 0.025009356 -0.02830354 -0.010178414

lstm.bias_ih_l1 f4 [256]
00000000: 25d5 8fbd 7203 913d 1d9a 6e3d ab70 9ebd
00000010: d191 d63c 36f2 b5bd bbff 1dbd 07cc 3dbd
00000020: fd5c a3bd 78c0 d03d 1c56 043e 7bb0 b9bc
00000030: 8b43 d63d 77f9 42bd 0859 d3bd 11e6 613c
00000040: a912 fabc 5fcb 6ebd 12c3 e23d c0e0 d73c
00000050: 4872 993c 3ab6 e1bc 93c7 89bd a1d8 c0bc
00000060: de03 8f3d 5224 ebbd f2d9 f93d 0ff4 2cbd
00000070: 2870 aa3d 565a ff3d eddc 153d 093b ffbc
00000080: f68f 8c3c 7ac1 e33d 0db8 113d 51da b13d
00000090: ba7e 95bd 27d4 72bd f95f a5bd 89d7 bb3d
000000a0: 8c09 533d 6ea8 b9bd f8c0 663d 6ca9 df3c
000000b0: 045a 86bc e952 98bd 0425 a1bd 5b42 a4bd
000000c0: 8c53 783d 6401 423b f0a1 81bd ee16 a23d
000000d0: 81ce ddbd 0546 b83d 9acd 893c d25d 94bc
000000e0: ebf6 91bc 6a66 9f3b 9247 76bd 6947 e73d
000000f0: 6c5b 2c3d dafb 463d 307a 22bd d6be e63d
00000100: 362c 8c3d 9e99 c7bd 36de bdbd 3d47 353d
00000110: ca05 9ebd c727 c03d ea60 a1bd 9b2d cd3c
00000120: 2e56 edbb 8532 f63d 3388 e33d daaf b1bd
00000130: 15f8 fabd 0662 99bd b253 aabd 1823 d73c
00000140: 2d0a f03d 7d58 ad3c 66f2 d93d b9dd bcbd
00000150: 5f14 b93d 05e7 44bd ae52 063e be89 f73d
00000160: 0f9b 81bc 82ba c0bd 29d1 043e 83f8 fc3b
00000170: d350 8ebc f39c a23d 8605 b0bd ea7f bbbc
00000180: 9c86 3e3d d3a7 47bd 2dd3 64bd f58e 84bd
00000190: 2a20 58bd a163 85bc f10f dbbd 4584 043e
000001a0: bbd9 a73d 1f29 84bd 12e0 aebd c792 b2bd
000001b0: 7976 b03d 63ac 033e cee2 673d 3194 7e3d
000001c0: e00b bbbd 3813 4dbd 0916 13bd 42a6 103d
000001d0: 81f9 6bbd e41e fb3d 5625 92bd 6627 cebc
000001e0: 809f c33d 0d34 27bd b69c 72bd 9278 96bd
000001f0: d525 f9bd faa7 f7bd 63ce 573d 1dce 9dbd
00000200: b253 45bd 66b5 7cbd 4029 e43d 870e 003e
00000210: ba85 553b 305a 16bd 9d0d ed3d 945d 01be
00000220: 195e fc3d 3dc0 723c 1a6f 1abd dcbb 32bd
00000230: 2dda 8f3d b123 c7bd a1de 9b3b 01ed b93d
00000240: 167d 843d 436b 523c 7db7 8e3c 157d 073e
00000250: 7086 123d 3545 bebd d79c 873d 50f6 3f3d
00000260: af10 d3bd b29f 873d 7235 b43d 8e1b 8cbd
00000270: 30a5 e3bc 691d a33d 8701 62bd 0664 aebd
00000280: 4f8b 12bc a185 a1bc 33f6 083d 20c7 a6bb
00000290: 0935 84bd 5706 38bd 08e1 06be c274 c63d
000002a0: ca20 003e ef68 813d f4cc a93c 9971 bf3c
000002b0: 3294 0cbc c46d 66bc 1f7f 1abd 76fe 823c
000002c0: 71f7 143d e57e 89bd 7db1 543c 91a6 de3d
000002d0: 42db aa3d 568c 58bd 324b 3fbd c757 76bd
000002e0: 2411 b73d c261 083e a0c3 b5bd c464 c53d
000002f0: d1e5 ac3d 691e 92bd 0f26 dabd 6a66 433c
00000300: 42b7 423d c440 2fbd 270f bfbc ab6c b9bd
00000310: 4823 dc3d acca 70bd fa0c a33b 9458 c63d
00000320: 2ca1 c1bd d234 14bd a3a6 c3bd 8442 1abb
00000330: 7130 82bd b8ef 823c 2fc9 ddbd 65d0 45bd
00000340: 5eb2 c13d 0899 debd 0f9b 64bd d39d babd
00000350: aae0 e23d aeeb eb3d cfe4 e83d f440 d8bc
00000360: 2f7e d5bd 0baf 063d 8355 a2bd 32b9 a33d
00000370: f39a 253d ab6e 633c d07d cc3d 28dd 89bd
00000380: dc75 653d 938b e93d 08c0 5fbd 8531 b4bd
00000390: 2b64 18bd 8c85 21bd e5a2 6bbc a9b9 b43d
000003a0: 9ae4 1ebd 9463 9d3d 09eb 29bd c87a ef3d
000003b0: 8584 48bd 4f04 863d ecd5 babd 8344 cebd
000003c0: 5753 c0bd 19c7 bb3d 7834 873c 7393 d8bd
000003d0: f969 f0bd a64c 71bb 49a1 de3d 4837 f13c
000003e0: 7fa9 aabd 5bf5 54bd 6ecf 3abd d0fd 5ebc
000003f0: 020f fcba 0d7d 8c3d c1cd b4bd b446 e13d
-0.07023076 0.07080735 0.058252443 -0.077363335 0.026192578 -0.08884089 -0.03857396 -0.046337154
-0.079767205 0.101929605 0.12923473 -0.02266716 0.104621015 -0.04760119 -0.10319716 0.013787762
-0.030526476 -0.05829942 0.11072363 0.026352286 0.018731251 -0.027552713 -0.06727519 -0.023540797
0.069831595 -0.11481537 0.12199773 -0.04222494 0.08322173 0.12468402 0.036587644 -0.03115608
0.01715849 0.11120887 0.035575915 0.08684219 -0.07299562 -0.059284355 -0.08074946 0.091719694
0.051522776 -0.090653285 0.056336373 0.027302466 -0.016400345 -0.07437689 -0.07868388 -0.08020469
0.06062655 0.002960288 -0.06329715 0.0791453 -0.10830403 0.0899773 0.016821671 -0.018111143
-0.017817935 0.0048645036 -0.06012685 0.11292917 0.042079374 0.048580028 -0.03966731 0.11266868
0.0684437 -0.09746097 -0.09270899 0.04425739 -0.07715948 0.09382587 -0.07879813 0.02504616
-0.0072429394 0.120213546 0.11109962 -0.08676119 -0.12254349 -0.074893996 -0.08316745 0.026261851
0.11720691 0.021160359 0.10641937 -0.09221978 0.090370886 -0.04807188 0.13117477 0.12086819
-0.015821008 -0.094105735 0.12970413 0.0077200546 -0.017372524 0.07940092 -0.085948035 -0.022888143
0.046515092 -0.048744034 -0.055865455 -0.064725794 -0.05276505 -0.016282858 -0.106964 0.12941082
0.08195826 -0.06453156 -0.08538832 -0.08719402 0.08616347 0.12858729 0.056612782 0.062153045
-0.09133124 -0.050067157 -0.035909686 0.035314806 -0.057610992 0.12261751 -0.071360275 -0.025165271
0.095519066 -0.040821124 -0.059231482 -0.07347216 -0.12165419 -0.12092586 0.05268706 -0.077053286
-0.04817552 -0.061696433 0.1114068 0.12505542 0.0032580928 -0.036707103 0.11574862 -0.12633353
0.12322635 0.014816341 -0.03770361 -0.043636188 0.070240356 -0.097236045 0.004756764 0.09078408
0.06469171 0.012842956 0.017421478 0.13231309 0.03577274 -0.09290544 0.06621712 0.04686576
-0.103059165 0.06622256 0.087992564 -0.06841193 -0.027788728 0.07964594 -0.055177238 -0.08515172
-0.008944347 -0.01971704 0.03343792 -0.0050896555 -0.06455428 -0.04492792 -0.1317178 0.096902385
0.12512508 0.063188426 0.020727612 0.023369597 -0.008580254 -0.014064256 -0.03771889 0.015990477
0.03636879 -0.06713656 0.01298177 0.10871614 0.08342601 -0.05286821 -0.04670257 -0.060142305
0.08938816 0.13318542 -0.08875203 0.0963836 0.084422715 -0.071347065 -0.1065179 0.011926273
0.04753805 -0.042786375 -0.023322655 -0.0905393 0.10748917 -0.058787033 0.004975912 0.09684864
-0.09454569 -0.036183186 -0.09553268 -0.0023538182 -0.06356896 0.015983447 -0.10829388 -0.048294444
0.09457849 -0.10869032 -0.055811938 -0.09112134 0.110780075 0.11519562 0.11371767 -0.02639816
-0.10424458 0.032881778 -0.07926466 0.079943076 0.040430974 0.013881366 0.09984934 -0.06731635
0.056020603 0.11403575 -0.054626495 -0.087985076 -0.037204903 -0.039434 -0.014382099 0.08824474
-0.03879223 0.07685009 -0.041483913 0.116933405 -0.048954505 0.065437905 -0.091228336 -0.10071661
-0.09390896 0.09168834 0.016504511 -0.10574999 -0.11738963 -0.0036819368 0.108706065 0.029445305
-0.0833311 -0.0519918 -0.045607977 -0.013610318 -0.0019230547 0.06859789 -0.08828307 0.10999814
