models/BTC_USDT_4h_model.pth (torch, 215461 bytes, 9 tensors)

lstm.weight_ih_l0 f4 [256, 10]
00000000: 2c77 9a3c c857 31bd 633f 9c3c 3d7b d8bd
00000010: 8c40 bdbd 62fe ab3d 57f3 ca3d e4fe 8ebd
00000020: b768 f0bd 9f84 d23d 2016 ad3d 9b65 5e3d
00000030: e0b1 083e 9304 dd3d a3ce 64bc 71a4 2e3d
00000040: 38ac e03b 416b 4abd d408 cdbc 24e1 373d
00000050: 6d0d 063e 41cc 41bd 1ae7 56bd c888 e6bc
00000060: f04f 813b f645 0abd c7f8 d93c 49df 033e
00000070: 7b80 fabc 483b 35bd 10a8 ee3d d538 303d
00000080: 8107 afbd b0da 243d 9072 b1bc 0486 403c
00000090: 0d18 84bd d49b 8cbc 52bd 803b 5753 aa3d
000000a0: e98d bc3d e71b 02be 04ac a93d 80f8 ecbb
000000b0: 06da efbd f458 c4bd 7079 f3bd 80e5 143c
000000c0: 11fb 9dbd 608b 0dbc 2c2d 4d3d a0d3 76bd
000000d0: cfea e43d 5b58 30bd 59cf 2cbd b058 26bd
000000e0: 0af5 b73d e611 09bd 4abd b33d a843 54bc
000000f0: 7da8 e4bd b8d6 003c b95b 723c 1de9 873b
00000100: 9f37 583d 9841 3bbd 7e8a cb3d 3bad 083d
00000110: caad de3d 614b a13d 3e3d d8bd 2c29 e4bd
00000120: 0780 f13d d39f d33d c3b2 653d ec7c b73d
00000130: f0da 833d 756c 3fbd 8dba 863d d373 53bd
00000140: 449e fb3b 7f02 833c 8b52 34bc 3509 88ba
00000150: ad96 a4bd f2bf 41bc 3d62 1f3d 0e19 bcbd
00000160: f77f c93d efd9 aa3d 5bd3 cf3c f864 d83d
00000170: c83a b83d b785 6fbb 8f4a cb3d d105 c1bb
00000180: fb55 6e3d ee62 91bd a9e1 ce3d 7cca 4f3c
00000190: f642 0cbc 6471 993d 0e88 a63d f7dd 543d
000001a0: 8338 21bd db36 8cbd bed9 36bd 89b8 0abd
000001b0: d0ef 013e 5057 6fbd ad7f ca3c 17fe e8bd
000001c0: 940c 9a3d 4495 bbbb 8548 9f3d 49e8 343d
000001d0: 36f5 8abb b24f b8bd 45f1 023d 84f6 82bd
000001e0: 9008 b93b 8f2b 25bd 7557 eabd 7875 eebd
000001f0: d074 ad3d 07e0 34bd c180 bd3c 79c0 60bc
00000200: a9da adbc ee56 d8bd 9b62 cebd c14b 613d
00000210: be43 f0bc bb20 49bc 0123 ca3d 6861 9e3d
00000220: 3c21 aabc 1132 90bc e3e6 c23d 3039 a93d
00000230: bfa8 3cbc 88d7 f6bc 94d9 84bc 386e 90bc
00000240: 5a7d e83d 3a22 073d 0abb aebd 5999 2c3d
00000250: af82 50bd e75a b5bc ad80 8cbd 8a67 c73c
00000260: 0bab 753d bcc0 f5bc c512 06bd e1c1 4cbd
00000270: feb1 a7bc 7469 f33c d649 983a cdc3 ecbd
00000280: 7032 57bd bebf 7dbd 7a92 ec3c d1a2 93bd
00000290: f363 23bc f380 b0bd e2a4 02be b2e5 843c
000002a0: 667f dc3d 3122 8abc 9e97 cc3d fde8 acbc
000002b0: 7856 86bd 69f4 6abb 7311 b0bd fb67 ba3d
000002c0: 6fea e83c 3c6d 3abd b88a e5bd 5422 ca3d
000002d0: 3f81 b0bd a6fc cd3d 51c4 983c 01b3 1bbd
000002e0: 98c1 ed3b 009e e2ba 053e bfbd 54c1 e9bc
000002f0: acc5 413d df4d aebd c7ea e6bc 4144 75bd
00000300: 644f 56bd 4644 96bd e5d6 cb3d 2227 13bd
00000310: db35 053e 479f ecbd acb9 f63d 33e6 d43d
00000320: 9e3d c63d 3ae2 b83c f0f7 bebd cfc8 203d
00000330: 8438 bb3c c93e 34bd 6b97 3ebd 6ab7 f0bc
00000340: e88d dabc ce69 f23d defa a9bd c6f5 93bc
00000350: d9c4 223d b75f 8d3d bc26 923d 1dd4 e33c
00000360: 33b5 73bd 0fee f2bd 8511 b1bd 6756 95bd
00000370: 0a33 73bb 5e6c 9a3c 2665 f7bd 6447 b8bd
00000380: 1be7 0bbd de61 eb3c 1e17 0a3d 0e62 e03d
00000390: 67d2 59bd 2298 d2bd 366c 76bd 3807 42bd
000003a0: f9a3 d83d c413 6cbb 2a33 adbd f1e5 93bd
000003b0: 9e1a af3b 14cb 84ba a834 ee3d 9578 893d
000003c0: 7150 d83d 9101 84bd ac61 e53c 909d 653d
000003d0: e2f3 4d3d ed80 4bbc f8cf e5bd e925 483c
000003e0: b07b 283d 4027 773d 2d10 70bd 62cb bebd
000003f0: 65dd eabd 0b2d 403d f1c1 7abd fea7 79bd
0.018855654 -0.043296605 0.019073194 -0.10570381 -0.09240827 0.08398129 0.09909695 -0.0698221
-0.11738723 0.10279202 0.08451486 0.054296117 0.13349104 0.10791888 -0.013965282 0.042637292
0.0068564676 -0.04941869 -0.025028624 0.044892445 0.13091059 -0.047313932 -0.05246649 -0.028141394
0.003946297 -0.033758126 0.026607884 0.12878145 -0.030578842 -0.044245988 0.11653149 0.04302295
-0.08546353 0.04024762 -0.021661073 0.011750702 -0.064499 -0.017164148 0.0039288187 0.08316677
0.09206755 -0.12705956 0.082847625 -0.007231772 -0.117115065 -0.09587279 -0.11888397 0.00908792
-0.07713903 -0.008639187 0.050091907 -0.060260415 0.11177599 -0.043053012 -0.04218993 -0.040611923
0.08982284 -0.033464335 0.087763384 -0.012955584 -0.11164949 0.007863693 0.014792376 0.0041476623
0.05278742 -0.045716852 0.09938525 0.03336833 0.108729914 0.078757055 -0.10558556 -0.111406654
0.117919974 0.103332184 0.056078684 0.08959374 0.064382434 -0.046734292 0.065785505 -0.05162413
0.007678779 0.015992401 -0.011006008 -0.001037872 -0.080365516 -0.0118255485 0.038912047 -0.09184466
0.098388605 0.08342349 0.025369337 0.10566133 0.08995587 -0.0036548206 0.0992633 -0.005890586
0.058187466 -0.070989475 0.10101635 0.012682553 -0.008560887 0.07492331 0.08131419 0.051969495
-0.039360534 -0.068464 -0.04464125 -0.033867393 0.12689137 -0.058432877 0.024719084 -0.11376589
0.0752193 -0.005724581 0.07777504 0.044166837 -0.004240657 -0.08999576 0.031968374 -0.063946754
0.0056467727 -0.040324744 -0.11442462 -0.11643499 0.08469546 -0.04415896 0.023132684 -0.013717764
-0.02122243 -0.105634555 -0.10077401 0.055003885 -0.029329177 -0.01227587 0.09869958 0.077334225
-0.0207678 -0.017601999 0.095166944 0.08262861 -0.011514842 -0.03013207 -0.01621703 -0.017630681
0.11352034 0.032991625 -0.085317686 0.04213843 -0.05090588 -0.022138072 -0.068604805 0.024341363
0.059977572 -0.02999913 -0.032732744 -0.049989585 -0.020470615 0.02971337 0.0011618685 -0.115607835
-0.052538335 -0.061950438 0.02887844 -0.07208789 -0.00997256 -0.08618345 -0.1275821 0.016222809
0.10766487 -0.016862007 0.09989856 -0.021107191 -0.06559461 -0.0035851246 -0.08597078 0.09101864
0.0284321 -0.04551433 -0.11208099 0.09869829 -0.08618402 0.100579545 0.018648298 -0.03801251
0.007255744 -0.0017289519 -0.09338001 -0.028534569 0.047307655 -0.085109465 -0.028188122 -0.059879545
-0.052321807 -0.07337241 0.09953097 -0.03592599 0.13008825 -0.11553817 0.12047133 0.103954695
0.09679721 0.02256881 -0.09324634 0.039254006 0.022854097 -0.04400519 -0.046531122 -0.029384334
-0.026678994 0.11836587 -0.08299802 -0.01806153 0.03973851 0.06903022 0.07136294 0.027811104
-0.059498977 -0.11861812 -0.0864592 -0.072918706 -0.003710928 0.018850502 -0.120798394 -0.08997992
-0.034155946 0.02873319 0.033713453 0.109562024 -0.05317917 -0.10282923 -0.06016179 -0.047370166
0.1057815 -0.0036022523 -0.084570244 -0.07221592 0.005343749 -0.0010131323 0.11631137 0.06712452
0.10562218 -0.06445611 0.028000675 0.056058466 0.050281413 -0.012420875 -0.112213075 0.01221607
0.041133583 0.060340166 -0.058609176 -0.09316136 -0.11468009 0.046917956 -0.061220113 -0.060951225

lstm.weight_hh_l0 f4 [256, 64]
00000000: 030e 733d 0d02 8fbd c9bb 80bd 087e d8bd
00000010: 9729 e13c 6ecc 833d bcff 41bd 2cf6 e1bd
00000020: b357 58bd c811 a13d 7a0e b93d 7af1 dd3d
00000030: 3073 aa3b 2d6b 9e3d ca5d c63d b5d8 e43d
00000040: 90d5 80bd df71 c83d abf7 a9bc 198c 81bd
00000050: cc8b 9e39 8105 de3d 4345 a83d eb5c 85bc
00000060: f99c a6bd c2b4 41bd df2c fabd 373e 79bd
00000070: 87ba a2bd 58a4 8d3d df36 d43d a5c4 8cbd
00000080: 35f1 b03c 6503 053e f9e2 d23d 447d 163d
00000090: 3166 f03d e6cb d6bc 6fc7 92bd 4d00 b03c
000000a0: 4dcc 833d ba38 8d3d 6157 52bd 5cc1 0f3d
000000b0: 2eae 553d 5839 c9bd 01f8 153b d35d c03d
000000c0: d481 263d 32c2 913d 4927 02bc 1f9d c2bb
000000d0: 3fb8 873d 484a 6238 2d7a 86bb a222 7fbd
000000e0: 9603 c43d a088 913d 9a26 8cbd 2e4a 63bd
000000f0: 0b92 06bd e59d e5bd 71a9 0fbd 753c fd3d
00000100: 1812 a3bd eceb da3b f71f acbd e754 b53c
00000110: 98d0 a63b 35b1 2dbd bad5 f4bd 74f4 cfbd
00000120: f8fe c3bd f735 f1bc 31c1 58bd 0dac 91bd
00000130: 893e 8c3d 87c7 8cbd cd08 81bd b06a 92bd
00000140: 0c27 92bb 08c5 8c3c cb69 a9bd e61a debd
00000150: 6397 64bd fcd3 3bbd e458 30bd 077f 7ebd
00000160: ff26 a6bc 3d1c bdbc 27d9 cb3d b06b 5cbd
00000170: dcb8 66bd efe7 13bd 7995 dcba 4cbd 893d
00000180: d88a eabd 6ca9 09bd e278 e2bc 4506 5bbb
00000190: 8c95 edbd 19c0 aebd a777 a1bd 2572 c03d
000001a0: 73c7 12bd 3847 b13d 5851 683c 036f c0bd
000001b0: e061 b8bd 5b8b e1bc 4d52 91bd 3682 873d
000001c0: c866 9b3d 9e60 d3bd 0b84 e6bd 8180 25bb
000001d0: 12a2 7cbd cf1d 513d 7569 893d 0cc2 8aba
000001e0: 70c0 003e be63 843d 06b5 ab3d e544 b6bd
000001f0: 53d8 23bd 1afd 33bc f1b9 f0bd feb2 a83c
00000200: 3d5c ff3d cc02 b1bd c4b5 07bd 185c ad3d
00000210: f06f ddbd decd 03bd 628f fbbd e89a aabb
00000220: 8bce 9d3d 8d9d 903d bc03 86bd bfa2 763d
00000230: 2c5f 8c3d 9795 eb3d 0df0 ac3d 641b 75bd
00000240: a7b2 f3bd 6548 1dbd 5696 bbbd 88d7 593d
00000250: a5b9 603c e626 d33d c9af 97bd bc25 4d3d
00000260: 1eb9 bcbd 9dfd 9e3d d31c c83d eb75 f2bc
00000270: 73c0 7cbd 160c a63d 25ef bfbc 342a b03d
00000280: ea68 243d 8955 023d b36c d13d 50a0 96b6
00000290: a13a 9e3d a9ba 6a3c d895 863d 1deb f9bd
000002a0: 5cb5 7c3d 9347 95bd 0da3 d83d 053a f7bd
000002b0: b501 2f3d 847e 3b3a a07d cfbc 3a3c b03d
000002c0: 7a71 f43d 5597 34bd 1735 bbbc a04a df3d
000002d0: 3637 923c 75cc 7f3c 2d5c 6d3d 5a7b febc
000002e0: dfe5 f5bc 77c1 513d 1d7c 233d ba5a 8abd
000002f0: 6053 243d 9761 9b3d 02b1 213d f138 b3bd
00000300: f542 1e3d ec89 053e dd60 e0bd eaa1 c2bd
00000310: 34f6 97bb e674 52bc ca55 debd b080 efbd
00000320: aacd 283d 58a8 cf3d 9b32 003e 14d1 d4bc
00000330: a7a9 da3c 2e1a c63d 8a29 2abc c2cd 733c
00000340: 288b efbd b5b7 c73d ab25 9cbb ac1a 9ebd
00000350: 31bb 7d3d c288 13bc aa24 ecbd 9eb3 bebd
00000360: e6f2 24bd dec1 f73d 0c29 033d 257c cb3d
00000370: 74ca a3bc 68d8 bbbd 2491 acbd 34fe 023e
00000380: d70b 053b 813f b63d f525 233d c8e6 ae3d
00000390: 0307 bbbd 523c a0bb c0c6 2d3d 2fde e83d
000003a0: e8f4 90bb 8457 d3bc 94e5 693d 1a7e 02be
000003b0: 5abd 003e a38a 15bd 40d2 d0bd ec8f 853c
000003c0: a8cf e13d cbab 253d 71e1 d0bd 8c0e 9f3d
000003d0: 1501 e83c d248 b23d 5410 a93c e802 d6bd
000003e0: 7990 e4bd e665 d9bc 759b cfbd 363b da3d
000003f0: 4d3a 52bd 8d03 c9bd 9257 a9ba 9245 f23c
0.059339534 -0.06982813 -0.06285817 -0.105709136 0.027485652 0.06435476 -0.047363028 -0.11033282
-0.05281801 0.0786472 0.09035964 0.108370736 0.0052017197 0.07735286 0.096858576 0.11174146
-0.06290734 0.09787344 -0.02074798 -0.0632555 0.00030240265 0.108408935 0.082163356 -0.016279658
-0.08135409 -0.047291525 -0.1221559 -0.06085035 -0.079457335 0.06916112 0.10362028 -0.068734445
0.021599391 0.12989576 0.10297198 0.036740556 0.117382415 -0.026220273 -0.07166945 0.021484518
0.06435452 0.06895585 -0.051352862 0.03509651 0.052168064 -0.098253906 0.0022883418 0.093928955
0.040651157 0.07117118 -0.007943937 -0.0059391405 0.06626939 5.395178e-05 -0.00410392 -0.062288888
0.095709965 0.07106137 -0.068433 -0.055490665 -0.03285412 -0.112117566 -0.0350737 0.12365047
-0.079624355 0.006680956 -0.08404534 0.022135211 0.0050907843 -0.042405326 -0.119548276 -0.101540476
-0.09570116 -0.029444678 -0.052918617 -0.07112894 0.06847865 -0.06873994 -0.06300507 -0.07149255
-0.004460221 0.017183796 -0.082721315 -0.10844974 -0.055808436 -0.04585646 -0.043053523 -0.06213286
-0.020282267 -0.023084754 0.09953528 -0.053813636 -0.05632864 -0.03610986 -0.0016829214 0.06725559
-0.114522636 -0.03360884 -0.027645532 -0.0033420485 -0.116007894 -0.085327335 -0.0788415 0.09396771
-0.03583474 0.08656162 0.01417955 -0.09396174 -0.09003043 -0.02753227 -0.07095776 0.06616633
0.07587963 -0.10321163 -0.11255654 -0.0025253596 -0.061678 0.05105382 0.067095675 -0.0010586395
0.12573409 0.06464337 0.08384137 -0.08899859 -0.040001225 -0.010985637 -0.117542155 0.020593163
0.12468765 -0.086431116 -0.03313233 0.08464831 -0.10812366 -0.032178752 -0.122832075 -0.0052064545
0.077054106 0.070613004 -0.06543681 0.0602138 0.0685409 0.115031414 0.084442236 -0.059840575
-0.118993096 -0.03839912 -0.09159534 0.053184062 0.013716136 0.10310154 -0.07406575 0.050084814
-0.09214996 0.07763217 0.09771123 -0.029597243 -0.06170697 0.08107774 -0.023429463 0.086017996
0.040139116 0.031819854 0.10225811 -4.489011e-06 0.07726026 0.01432673 0.06571549 -0.122030474
0.061696395 -0.07289042 0.105779745 -0.12071613 0.042726237 0.0007152336 -0.025328457 0.08605237
0.119357064 -0.044089634 -0.022852464 0.109029055 0.017848592 0.015612711 0.057949234 -0.031064678
-0.030016838 0.051209893 0.039913286 -0.06755586 0.040118575 0.07586973 0.03947545 -0.08751095
0.038638074 0.13040894 -0.10955975 -0.09503539 -0.004637504 -0.012845254 -0.10856207 -0.11694467
0.04121176 0.10139531 0.12519304 -0.025978602 0.026692225 0.09672962 -0.01038588 0.014880599
-0.11696464 0.09751836 -0.0047652326 -0.07719931 0.061946098 -0.009004774 -0.115304306 -0.09311603
-0.04027071 0.12097524 0.032021567 0.09935788 -0.019993998 -0.091721356 -0.08426121 0.12792283
0.0020301247 0.08898831 0.03983112 0.08540112 -0.09132197 -0.0048900032 0.04242587 0.11370503
-0.0044237264 -0.025798567 0.05710371 -0.12743416 0.12572232 -0.036509167 -0.10196352 0.016303979
0.110259354 0.040447038 -0.101992495 0.077664465 0.028320828 0.087052956 0.020637669 -0.10449773
-0.111603685 -0.026537847 -0.10137073 0.10655825 -0.05132513 -0.098151304 -0.0012919775 0.02957419

lstm.bias_ih_l0 f4 [256]
00000000: 0515 2ebd 3b44 a43c e499 b83d 4176 1dbd
00000010: 1f66 a7bd 3e09 1d3d 08da d9bd 1793 9b3d
00000020: 30d8 923d 0eb2 6c3b 48be 99bd 44c4 4b3d
00000030: bcb0 debc a879 073e 02ca 75bc cdb2 743d
00000040: 2966 04be 564f c9bc 48a3 483d 30e3 173d
00000050: 3ed3 833c 4279 01be 929e 15bd 12cd d93d
00000060: fb14 6a3d 3497 b63d 932e 1a3d 363e bcbd
00000070: d69b 9cbd b2f1 233d a531 b73d 5dd4 c03d
00000080: e52b ddbd 917e 3e3d 2960 793d 907c da3d
00000090: 0f35 9b3c 6999 c93c 8654 95bd 0d31 a23d
000000a0: 564e 863d 8c21 f83d cf90 503d a96c d2bd
000000b0: 316b 513d eea9 4abb 7fa4 b33d 6fab 9ebc
000000c0: 541d 553d 17ef db3c 281d b73b 5530 2b3c
000000d0: ba23 a1bd 9d0a a7bc 2e7c 61bd cb20 a43d
000000e0: fae2 113d 4a33 06bd af72 03be 74e6 a0bd
000000f0: 8219 d4bb cfd3 dfbd 026e 603c a425 533d
00000100: c4bb 6c3d ea5c a739 c706 8bbb ce11 a93c
00000110: fb6d 66bd 6520 fd3c 9ae6 c03d 6840 db3c
00000120: ecbd dd3d 62a4 b9bc 6d67 2c3d de8e ef3c
00000130: 3d15 82bb efb6 89bc cafe ea3d a228 7b3c
00000140: 77cf c0bd b24b 9c3d d625 b73c d623 8c3d
00000150: 1ec5 d23d 4495 0abd 6ded aa3d 9c8c 38bd
00000160: 834e abbd df2a 503c b32c a5bd e95e 2fbd
00000170: e1eb 833d e691 363d 3bb7 0a3d 770f 35bd
00000180: 9a69 6abd 9f30 07bd 6eff ad3d 542d be3d
00000190: 804d 783c b0b7 9fbd d82e dc3d a45a f33d
000001a0: 25b6 e63c 3d4b 863d 3292 02bd 79d9 2b3d
000001b0: bd2a d3bc 488a 8b3c 3594 323d 3b00 f53d
000001c0: 4e40 a9bd b125 093d aaf6 be3d 37c7 0d3d
000001d0: 6e67 d6bd 40fb 72bd 93b8 c13c 33a1 e6bd
000001e0: a7a3 21bd 66cd b4bd 2bf1 1bbd 8840 66bd
000001f0: a5b1 d5bc 8fa6 733d 098e 67bd 7ffe a13d
00000200: bb0c cd3d 0803 953d 0ed7 563d 95b2 34bd
00000210: 11ab e7bc 8204 c3bd ebbd 78bd 24cf a4bd
00000220: 22fa 1cbd a0ee ce3d c553 4e3c 100d 063e
00000230: a261 c0bd fa3d a8bd 5579 043e b3ed bd3d
00000240: 1afb 963d 1f51 633d 42d4 68bd 3612 e03c
00000250: 75cd a93d 099d e63d 8ef2 42bd 489b f5bd
00000260: 8d96 c1bd d267 ca3d 2874 97bc 0c7a ca3d
00000270: 966d c23d 188f f63d c5e5 733c 41fb b03d
00000280: b36d afbd d83f c9bd 5274 d73d 1ca8 d6bd
00000290: eaf9 1d3d 5c08 a13d 6cda 003d 7f19 9fbd
000002a0: feb8 cc3d a1a8 b93d b165 86bb 5162 9dbd
000002b0: bb23 b5bd af05 923b 01c4 d1bd 5471 033e
000002c0: 498d 0dbb e600 d03d c106 85bd 669e 06be
000002d0: 8df9 03be d9f7 c63a 1872 9bbd 21c1 4c3c
000002e0: a166 f63c 7f28 eabc fe56 c0bd 5295 3a3d
000002f0: d867 1abd 720f a53d 7679 0f3d 54e9 403d
00000300: 25d6 5fbd f4a1 f43c a47b e4bc 316a 4fbd
00000310: 4c0d 223c 175c 40ba 77bb 60bd 3f85 953d
00000320: 4ab7 85bd eab9 ae3d 79c2 fc3b 2bd2 d1bd
00000330: 7c68 ceba 47eb aa3b ae37 133d a072 b83d
00000340: 2dda 223d 3872 ebbd f617 093d 61ed 27bd
00000350: 3b7f 3cbd 9713 c03d ba87 08bc 2ffd f03d
00000360: b0d4 aebd 1dfb 513b 0883 103d ecff 8ebd
00000370: 6e13 2abd c3cb 57bd 5a38 9abb 156c f13d
00000380: 34dd 8ebc 61ea a5bd c1fa 3dbd 1328 ddbd
00000390: c6ab 8e3d eaac 20bd 4181 9d3d 21c9 853d
000003a0: 4336 91bc 2d9e cbbd 2153 37bd 71c1 cbbd
000003b0: d561 ccbb ce7c d2bd 0ed6 dfbd 2e28 de3c
000003c0: 675c 093d 822a 05bd dff6 d43c dc10 3fbd
000003d0: a9a1 a7bd fb63 b63c e23e 023e b0e3 683c
000003e0: 817f 993d 7b0e 233d 56d8 5f3d 5dfb 3d3c
000003f0: 4fd4 693d f645 c8bd 2d98 8b3c c73d c4bd
-0.042500515 0.020052066 0.09013727 -0.038442854 -0.08173775 0.038338892 -0.10637289 0.075964145
0.07170141 0.003611687 -0.075069964 0.04974772 -0.027183883 0.13230002 -0.015001776 0.05974083
-0.12929596 -0.024573963 0.048983842 0.037081897 0.016091939 -0.12643912 -0.036528178 0.10634817
0.057148915 0.089155585 0.037642073 -0.09191553 -0.07646911 0.04002542 0.08945016 0.09415505
-0.10799388 0.046507422 0.06088272 0.1066829 0.018946199 0.024609284 -0.07291512 0.07919512
0.0655791 0.121157736 0.05091935 -0.102746315 0.051127616 -0.003092404 0.087716095 -0.019368855
0.052029923 0.026847405 0.0055881925 0.010448535 -0.078681424 -0.020390803 -0.055050068 0.08014067
0.035616852 -0.032763757 -0.12836717 -0.078564554 -0.0064727673 -0.10929071 0.013698103 0.05154957
0.057796255 0.00031921949 -0.0042427513 0.020638373 -0.05625723 0.030899236 0.09418984 0.02676411
0.1082724 -0.022661392 0.042090822 0.02924293 -0.003969817 -0.016810862 0.114743784 0.015329512
-0.09414571 0.07631625 0.022356909 0.06842773 0.10291503 -0.033833757 0.083460666 -0.04505597
-0.08364584 0.012705534 -0.08065166 -0.042815123 0.06441475 0.044572733 0.03386615 -0.0442042
-0.057229616 -0.033005353 0.08495985 0.092859894 0.015155196 -0.077987075 0.10751122 0.11882523
0.028163025 0.06557319 -0.031877704 0.041955445 -0.025777215 0.017033711 0.043598372 0.119629346
-0.08264218 0.03348321 0.09324391 0.034613814 -0.104689464 -0.059321642 0.023647582 -0.11261215
-0.03946271 -0.08828239 -0.038071793 -0.056213886 -0.026085684 0.059485015 -0.05653194 0.079098694
0.10012194 0.07275969 0.052451186 -0.04411562 -0.028279813 -0.09522344 -0.060727995 -0.080473214
-0.038324483 0.10104108 0.012593214 0.1309092 -0.09393622 -0.08214946 0.1293691 0.09273853
0.073721126 0.055497285 -0.05684305 0.027352434 0.08291141 0.11260421 -0.0475946 -0.11992508
-0.094525434 0.098830834 -0.018488005 0.0988656 0.09493558 0.12039012 0.014886324 0.08641673
-0.08565845 -0.0982663 0.10520233 -0.10481283 0.038568415 0.078629225 0.031458303 -0.07768535
0.09996222 0.090653665 -0.004101478 -0.07684768 -0.08844706 0.004456244 -0.10242463 0.128362
-0.0021599105 0.10156421 -0.06495429 -0.13146362 -0.12888165 0.0015180066 -0.07590121 0.012497217
0.030078234 -0.028583763 -0.093915924 0.04555256 -0.03769669 0.080595866 0.035027944 0.04709752
-0.054647584 0.029862382 -0.027890988 -0.05063838 0.009890866 -0.0007337941 -0.05486628 0.07300805
-0.065291 0.08531554 0.0077136126 -0.102451645 -0.0015747692 0.0052160355 0.035941772 0.09006238
0.03975885 -0.11496395 0.033470117 -0.040997867 -0.046019774 0.093787365 -0.008333141 0.11767041
-0.08536661 0.0032040544 0.03528121 -0.06982407 -0.041522436 -0.052684557 -0.0047064247 0.11788193
-0.017439462 -0.08101345 -0.046381716 -0.10798659 0.06966357 -0.039227404 0.07690669 0.06532503
-0.01772607 -0.09942279 -0.044757012 -0.099490054 -0.0062372484 -0.10277711 -0.109294996 0.027118769
0.033535387 -0.03251124 0.025996624 -0.046646938 -0.08185131 0.022264471 0.127193 0.014214441
0.074950226 0.03980873 0.054649673 0.011595574 0.05708724 -0.09778969 0.017040337 -0.095820956

lstm.bias_hh_l0 f4 [256]
00000000: a6b9 bd3d 12d8 003e 201b 113d ccda ffbb
00000010: 8d7c ac3d f783 cabd ed15 0abd e9cf 55bd
00000020: 9c9e 9dbd 72e5 a33d da22 8dbd 6895 5dbd
00000030: e142 47bd 418f ce3d 82d7 1fbc 7a81 cd3c
00000040: 8e65 e0bd dbe0 27bd da4a 50bb aecf 883c
00000050: 6b1a a0bc bb3c 97bc fbe8 22bc b60d 8abd
00000060: 8cbb f93d 54ac c5bd 030c d9bb f728 663d
00000070: 5d09 0a3c 3bd1 ac3d 6c09 8e3c 6050 363b
00000080: e50d d53a 79a8 43bc 473a e73d f056 e4bd
00000090: 2f7f 663d ba0d 1bbd 9d26 79bd 624d 43bc
000000a0: c932 ee3d e972 acbc 99f8 b23c 312b 913d
000000b0: 7b72 e5bd 20dd a6bc e108 523d dcf8 efbd
000000c0: bebb 993b 4ea9 e83d 439e 173d aba4 a53b
000000d0: 9183 bd3c 6581 e2bd 8203 ca3d dfd2 6d3d
000000e0: 446e 823d cd56 033d 2a25 a5bd 6c1d 123d
000000f0: 33dd 063e fd17 2fbd 7b74 66bd c0d3 65bc
00000100: f30b 733d aee7 bdbd c498 2fbd 8044 e1bd
00000110: 4796 5abd 1223 e53d 334a 2bbc 2184 5dbd
00000120: 0c7b 083e 0cab 143d 41b2 1f3d 3675 4a3d
00000130: e0c2 cbbc 2c45 eb3d 0929 573c 4341 f53d
00000140: d5dc e9bd 28ae a7bd 7807 a63b 6db9 aebc
00000150: b3e9 193d 2b55 d23d 45cf c43d 8a2e a2bd
00000160: 1397 ce3d 018b 6abd 288a 5cbd e3fe 883d
00000170: 392b fd3d 6c57 e43c 089d e0bd a370 f73d
00000180: 2841 043e 73ab a53d cf9c 12bd 3457 993d
00000190: 2d6c cc3d e4fd 9dbd d24e c23d 6c0d 1abd
000001a0: 71a3 7e3d 4a1b 6ebd 8bd6 e9bd 5554 b23d
000001b0: 06d8 4c3d 3862 c7bc be49 be3d 1b08 8c3c
000001c0: 0680 b4bd 1f55 1ebd f46a f43d c71d bd3c
000001d0: 1d44 8bba 61b5 e5ba 0cb0 f43b 3b58 cebc
000001e0: 6718 9c3d 5402 efbd 2de6 bdbd ba86 aabd
000001f0: ebae e93d 651e 9c3d 5fd8 8ebd 4167 9bbd
00000200: 3b09 e0bd bc65 443d 1d3d febd 1f44 533d
00000210: e496 d7bd 2737 913c 9b39 443d 1a86 b93d
00000220: 4e9c 4fbd 4d84 50bd 48b5 d13d ff8a 9f3b
00000230: e8fe b93c 24e7 31bd ddbe e93d dce0 143b
00000240: 2479 cfbd f5eb 3cbd 0d4e 02be dba6 7d3c
00000250: 1bce 003e 5fac debd eec6 f93d 5dd6 963c
00000260: 2b46 c63d 06ff f8bd dbc4 d83d 48d2 bebd
00000270: a75b 293d 8455 e0bd 85f4 653c 9798 893d
00000280: 3f62 8c3d 0635 8bbd 2c8b d13d fc2b 5e3d
00000290: 6b93 13bd 694d 443d 3aea cabb 43b3 00be
000002a0: 2815 96bd 0689 803d 765b 533d 1801 8fbd
000002b0: e622 3e3d efef efbc 2efb edbb 2136 cbbb
000002c0: 9e5f 49bd ffcb dfbb 8aca a0bd 1173 debd
000002d0: dc32 5cbd a574 acbd 25a5 393d f10b 6b3d
000002e0: c308 8a3d c2df b53d e43c ef3d 0ac0 e7bd
000002f0: 77a1 c83c d2d4 bcbd 6b12 cabc 90a4 7abd
00000300: cd56 c4bd 5120 b23b 8a38 623d 4502 cc3d
00000310: 62dd de3d 29be 033e 10d5 bebd c069 133c
00000320: d39e 21bd 159b c73c 328b e3bc 6fb2 263d
00000330: 6aff dcbd 2ad3 cdbd 42cf 513d ea01 363d
00000340: 48bc 7f3c 14c3 c03d bd0e f9bc 9965 be3d
00000350: 18f7 89bd 6bec a53d cf22 f7bd 9395 013d
00000360: 0495 e1bd e653 713d 4af6 e93d 5550 ba3c
00000370: 9e5e 133d efdc 24bd 05de ce3d 6952 d73d
00000380: 70b4 583d 308d da3a 91e9 0bbd a5c7 903d
00000390: 92de 92bd 1ed5 2d3d 956b f93c 60a6 cfbd
000003a0: 1955 e7bd dbfd cfbd 515d ecbc e200 a9bc
000003b0: 5ef3 153d 6e16 c03d ec94 923d 703a 99bd
000003c0: c78d 563d ae2c 043e 258f b23d ecdb a53d
000003d0: d270 8a3d 6bbb 84bd 3636 e53d 0f66 a6b9
000003e0: ab5f 83bd f9a0 7ebd 2608 c5bb d0ca 4fbc
000003f0: e888 c2bb 8e5d cd3d 7746 dabd 306a aebb
0.09263925 0.12582424 0.03542626 -0.007808065 0.08422194 -0.098884515 -0.033712316 -0.05220023
-0.07696268 0.080027476 -0.06891413 -0.054097563 -0.048647765 0.10085917 -0.009755971 0.025086153
-0.1095687 -0.040985923 -0.0031782896 0.016700592 -0.019543847 -0.018461576 -0.009943242 -0.067408964
0.12193975 -0.096520096 -0.0066237464 0.05619141 0.008425084 0.08438345 0.017338477 0.0027818903
0.0016254751 -0.0119420225 0.112904124 -0.111493945 0.056273635 -0.037854888 -0.06082784 -0.011920305
0.1163078 -0.021050887 0.021847056 0.07088316 -0.11203476 -0.020369112 0.051278 -0.11717388
0.00469157 0.11360417 0.037016165 0.0050550303 0.023134025 -0.11059836 0.0986395 0.05806243
0.06368688 0.0320652 -0.08063729 0.03567259 0.13170318 -0.042747486 -0.05626343 -0.014027536
0.059337568 -0.09272705 -0.042870298 -0.109993935 -0.053365972 0.1118833 -0.010454702 -0.054081086
0.13328189 0.036295936 0.038988356 0.049428187 -0.024873197 0.11487803 0.013132342 0.11975338
-0.114190735 -0.081875145 0.0050668083 -0.021328652 0.03757639 0.10270151 0.09609846 -0.07919033
0.10087409 -0.05726147 -0.053842694 0.06689241 0.1236176 0.027873717 -0.10967451 0.120820306
0.1291548 0.08089342 -0.035794076 0.07487336 0.099815704 -0.077144414 0.0948769 -0.037610456
0.06216759 -0.058131494 -0.11417874 0.08707491 0.050010704 -0.024338827 0.09291409 0.017093709
-0.08813481 -0.038655397 0.11934462 0.023085488 -0.0010625158 -0.0017525369 0.0074672755 -0.025188556
0.07621842 -0.11670366 -0.09272418 -0.08326478 0.11410316 0.07622985 -0.06974863 -0.075880535
-0.109392606 0.047948584 -0.12414 0.051578637 -0.10526827 0.017726494 0.0479065 0.09058781
-0.050686173 -0.05090742 0.10239655 0.0048688645 0.022704557 -0.043433324 0.114133574 0.0022717034
-0.101305276 -0.046123464 -0.12725087 0.015481676 0.12578623 -0.10872721 0.12196146 0.018412763
0.09681352 -0.12158017 0.10584422 -0.09317452 0.041347172 -0.10953811 0.014035349 0.06718557
0.068546765 -0.06797223 0.10231623 0.054241166 -0.03602926 0.047925387 -0.0061924728 -0.12568383
-0.07328254 0.06276135 0.051600896 -0.069826305 0.04642 -0.029289214 -0.007262609 -0.006201521
-0.049163453 -0.006829738 -0.07851131 -0.10861791 -0.05375944 -0.08420686 0.04532351 0.057384435
0.067399524 0.08880569 0.11681536 -0.113159254 0.024491055 -0.0922028 -0.024666985 -0.061192095
-0.095868684 0.0054359813 0.0552297 0.099613704 0.10882069 0.12865509 -0.09317982 0.008997381
-0.039458107 0.024365941 -0.027776334 0.04069751 -0.10790904 -0.10050042 0.051223047 0.04443542
0.015608855 0.09412208 -0.030402536 0.09296722 -0.067365825 0.08101734 -0.12067186 0.031636786
-0.110147506 0.058917902 0.11423929 0.022743383 0.035978906 -0.04024976 0.101009406 0.10513765
0.052906454 0.0016674157 -0.034158293 0.07069329 -0.07171358 0.042439573 0.030446807 -0.101391554
-0.11295528 -0.10155841 -0.02885309 -0.020630304 0.036609046 0.09379278 0.07157311 -0.07481849
0.052381303 0.12907669 0.08718709 0.080985874 0.067598 -0.0648106 0.111919805 -0.00031738027
-0.064147316 -0.062165234 -0.0060129343 -0.012682632 -0.0059367307 0.1002761 -0.10657971 -0.005322717

lstm.weight_ih_l1 f4 [256, 64]
00000000: 126c 473d 0c27 793d 8a2e b93c e1bc f8bd
00000010: f874 f43c 9304 173d 2e45 4f3c d80f 83bd
00000020: 74e4 79bd 4b33 d43d 54c2 27bd 256b dcbd
00000030: 773c f1bc 42ee b33d f742 cfbd 191d c7bd
00000040: 049f 97bd eb87 8cbd 71e6 bf3d d977 ff3d
00000050: 1407 5ebd 3672 17bc aff6 953d fa1f ec3d
00000060: 4d6e fe3d 469c de3c 1b2b f03c 963f 75bc
00000070: 9e51 bbbd 2cbc de3d 409b 5a3d 020b 86bd
00000080: 7763 bcbd 79c2 b63c 6ea7 12bd 62b0 93bd
00000090: b25d 773c 7d24 9ebb a7a5 ff3b 3ed9 9fbd
000000a0: d6aa d63d c886 68bd ee3d bcbd 911d d83b
000000b0: 9bca 07bc e628 d2bd 7ab5 463d 296f 0b3c
000000c0: b97c b0bd 6e16 cabd 308a bc3c 6234 3bbc
000000d0: a81f a63d 7118 dcbd 0f78 a93d 2bc6 edbd
000000e0: bae3 693d c065 83bd 58bc 373d 4a7e 8f3d
000000f0: 9d86 c7bd 747c 823c 4e72 31bd d53b d73d
00000100: d820 f63c 2358 073e 3309 703d 65a5 94bd
00000110: a8c6 993c 6286 05bd c101 d1bc 99fa ebbd
00000120: 91f5 7abd bb99 05be e90b a43d 3b17 cabd
00000130: b058 163c 40ce b73d e63f e3bc 03f3 6abd
00000140: 14cc a93d 6ef5 913d a8a2 70bd 1d42 9fbd
00000150: 2119 993d 1fcc e13d 6bf9 a33d 29a8 b2bd
00000160: 50fd 643d 9875 64bd 95f0 f93d 995c cb3d
00000170: d956 c43d c815 8bbd a71c 12bd 7294 6a3d
00000180: 79d5 1a3d ce7c d13d 3ed7 a1bd 346e 31bd
00000190: 9be8 02be fc44 dd3d 2ce3 833d ea84 00be
000001a0: fd35 46bc 1305 c13d fe68 01be 4626 ac3d
000001b0: 0d32 8d3d eb8b 57bd 45e8 0a3d 61f6 dd3d
000001c0: 0dc7 f83c b4eb 81bd 5106 b93d 3898 0cbd
000001d0: a929 ab3d e87f 1f3b ea99 e83d ff8a a33d
000001e0: 6afd e33d eb1f d83d 6a00 93bd 9b52 e8bd
000001f0: 0fa2 5f3c 9415 8bbd 86a1 3a3d 9192 f5bc
00000200: 49e2 f53c f0c7 90bd 8f73 9b3d 43bf 7f3d
00000210: 439a b0bd eeb8 08bd 53d1 113d 3c3a c5bc
00000220: dac8 57bd df34 ce3d e119 46bd 81ee d33c
00000230: aaf3 cb3d da6f a93d 056b 183c 7a1a a13d
00000240: da1d dbbd 8579 17bd 87cf 2bbd f000 ad3d
00000250: 4325 893d 1cb2 763d b389 b6bd 0d08 93bd
00000260: 6f99 8d3d df8c f83d f5d2 9dbd fddc 843c
00000270: 0c85 d3bd 9caa ed3d f0e5 45bc 6858 a33b
00000280: cc7a 62bd 0945 743d d824 9f3d b6a2 febd
00000290: 9d3c de3c a962 fd3b ea6d 2b3d e48b 863d
000002a0: ad09 fb3d c498 e5bd 8b16 c2bd babf d0bd
000002b0: 9023 fd3d 7ac8 803d 381e ca3d 6d82 f93d
000002c0: db56 54bc 9721 7e3d bed8 8c3d b43b 6f3d
000002d0: eb68 a43c 8436 263d c4b5 103c 684c 6bbd
000002e0: 046b 60bd 7f17 863b 18c1 5bbd ba32 adbd
000002f0: c9ac 52bd 819e 553d 6236 bbbd bcc6 f3bd
00000300: 9dfc 523d 1985 f83d f33d 8b3d 3dfc aabd
00000310: 1b62 94bc 0fe2 d23d 4b32 e1bd 9a49 e4bc
00000320: 29c8 ccbd 897e 4ebd cb51 353b 757e ee3c
00000330: e079 a13c 61bc adbc e5cd 633d 74e2 e53d
00000340: 5604 1a3d 4eca e73d d516 243d 1abb 43bd
00000350: 9000 493d 9f90 ad3d 0d5f 3c3d 5eae c73d
00000360: ba2f f7bd 6ea3 56bd ad85 c93c c51b 803d
00000370: a299 f3bc 256d f63d 461a fcbb 9ff5 803d
00000380: 119a 2a3d 2352 01be f2b7 9ebd 361d 06be
00000390: 97e3 c6bd 0692 0d3d ccc2 613d 9f57 8b3c
000003a0: 6d7e 3f3d 178f 7d3d fc60 1a3d 2a8e 32bc
000003b0: d797 863d 8f6a a53d bac2 143d 54db 063e
000003c0: 8f1e 74bd 5de7 88bd 6fbb 38bd 4341 103d
000003d0: 5a68 823b 8273 cf3b fb88 ee3c 3480 c13d
000003e0: d667 61ba 7c33 ef3d b976 8b3d 9be1 833d
000003f0: ffa8 a03d 83c3 543b 6dd5 72bd 609d dfbd
0.04868705 0.060828254 0.0226052 -0.12145401 0.029840931 0.036869597 0.012650771 -0.06399506
-0.061008886 0.10361346 -0.04095681 -0.10762624 -0.029447777 0.087856784 -0.101201944 -0.09722347
-0.07403377 -0.06861862 0.09370125 0.12474031 -0.05420597 -0.009243539 0.07322442 0.115295365
0.12423382 0.027174126 0.02931743 -0.014968773 -0.091464266 0.10875735 0.053370714 -0.06545068
-0.09198659 0.022309529 -0.035804205 -0.07211377 0.015098022 -0.004826127 0.0078017297 -0.078051075
0.10481803 -0.056769162 -0.091915 0.0065953215 -0.008288051 -0.10261707 0.048512913 0.008510389
-0.08617539 -0.098675594 0.023015112 -0.011426063 0.08111507 -0.10746849 0.082748525 -0.11610063
0.057101943 -0.06415892 0.044857353 0.070065096 -0.09742472 0.015928484 -0.0433219 0.10509459
0.030044958 0.13217215 0.058602523 -0.07258109 0.018771484 -0.03259886 -0.025513532 -0.11522407
-0.061269347 -0.13046925 0.08010084 -0.09867712 0.009176418 0.08974886 -0.02774043 -0.05736066
0.08290878 0.0712689 -0.05874887 -0.07776282 0.07475496 0.11025261 0.08006557 -0.0872348
0.05590564 -0.05577621 0.122040905 0.09929771 0.095868774 -0.06791264 -0.035671856 0.057270475
0.03780124 0.10228883 -0.07902382 -0.04331799 -0.12784044 0.10804173 0.06439814 -0.12550703
-0.012097833 0.09424796 -0.12637708 0.084057376 0.06894312 -0.05262367 0.033912916 0.10838009
0.030368352 -0.06343785 0.09034408 -0.034324855 0.083575554 0.0024337713 0.11357482 0.07985496
0.11132319 0.10552963 -0.07177813 -0.11343881 0.013649478 -0.06791225 0.045564197 -0.029977115
0.030015128 -0.07069385 0.075904004 0.06243826 -0.08623173 -0.033379488 0.035600018 -0.02407562
-0.05268178 0.10068678 -0.048364524 0.025870563 0.099585846 0.08273287 0.009302859 0.07866378
-0.10699053 -0.036981124 -0.04194596 0.084474444 0.0669656 0.060228452 -0.08912983 -0.0717927
0.06914031 0.12136244 -0.077062525 0.016218657 -0.10328111 0.11604807 -0.012078747 0.004984904
-0.05529289 0.05963615 0.07770699 -0.124333784 0.027128512 0.0077327085 0.04185287 0.06569651
0.12257705 -0.11210778 -0.09476956 -0.10192819 0.12360299 0.06288238 0.09869045 0.1218308
-0.012960161 0.062043753 0.06877278 0.058406547 0.02006956 0.040579334 0.008832399 -0.057445914
-0.054789558 0.0040921564 -0.053650945 -0.08456941 -0.051434312 0.052153114 -0.09141232 -0.1190314
0.051510442 0.12134761 0.06798925 -0.08348892 -0.018113187 0.102970235 -0.10995921 -0.027867127
-0.09999115 -0.050413642 0.002766716 0.029113034 0.019711435 -0.02120799 0.05561628 0.11224833
0.03760179 0.113178834 0.040060837 -0.047785856 0.049072802 0.0847485 0.045989085 0.09750055
-0.1206965 -0.052401952 0.024599874 0.062552966 -0.029736344 0.120325364 -0.0076935617 0.062968485
0.041650835 -0.12628989 -0.077499285 -0.1309708 -0.09711378 0.034563087 0.055117413 0.017009554
0.04675143 0.06190404 0.037690148 -0.010898152 0.0657193 0.08076965 0.03631852 0.13169605
-0.059599455 -0.06684754 -0.045100626 0.03521849 0.003979725 0.0063309083 0.029118052 0.09448281
-0.00085985416 0.11679742 0.06809754 0.06439515 0.078447334 0.0032465167 -0.05928557 -0.10918689

lstm.weight_hh_l1 f4 [256, 64]
00000000: 2946 82bd a990 f73d 3774 8bbd 05d7 d63d
00000010: b016 abbd e263 f8bd 58f1 9f3d b6be e73c
00000020: 06e3 8abd 1af6 1abb 5e12 8a3c af5b fdbd
00000030: 5075 62bd 9ea5 91bd 5b43 06be 16d9 8ebc
00000040: f289 7cbd 0099 14bd a3a6 743c 5cbf 153d
00000050: 27c7 a33d 96da 12bc eea5 d1bb 89b7 1bbc
00000060: bab7 063e 310a ed3d e637 eebc abd4 abbd
00000070: dfdb 593d 069a 13bd db96 0ebc d9f9 583d
00000080: 6f56 21bd 10eb f4bc ba90 13bd 79df e8bd
00000090: fb58 973d 0ee2 7f3d 93df 12bd b478 003c
000000a0: b0aa 3dbd d543 ebbb 5e1a 623c 7298 533d
000000b0: 78b0 4d3c 5fd2 35bd 9d1e 96bd 6382 f0bd
000000c0: 1233 a4bd 94ae 8fbd 9a6d 9ebd 8965 94bd
000000d0: 194e 60bc 179d 95bc f84b 7b3a 62e3 813d
000000e0: b7aa ad3c c9aa e43b f65e 91bc 1f2c 75ba
000000f0: 1e04 05be 9dd0 41bc 88e5 6e3d c107 9a3d
00000100: 1c21 1e3d 163b 39bd 6937 0bbc f474 913c
00000110: 9be5 d83c 1117 bbbd a6b6 f9bd 181a 933d
00000120: b4b3 963d 6b51 1ebd 1c1c 063d 1279 03bd
00000130: 29a5 1f3d 7357 d53d b7f2 253d 9c57 813d
00000140: 1a26 2c3d b1e0 d2bd 8a9e a13d 7cd7 fcbd
00000150: c0cc 7abd ac06 df3b a40c ccbd 6827 ca3d
00000160: b16b d2bd e355 8b3d c04c 2a3c 3e33 64bd
00000170: 3ad9 d4bc e236 1c3d 7700 54bd 1882 64bd
00000180: 406d ad3d 65fa cabd 2563 24bd adb2 4f3d
00000190: b51b d4bd 7ec1 a73c 4c08 3f3b 3772 8abd
000001a0: 56b6 5fbc 7f9e ebbd 2b90 bfbd 2dc2 f43b
000001b0: 0675 713a 8c50 d1bb 6213 96bb cd2a 54bd
000001c0: 6ecd bd3d d852 2c3d 139e 293d 7521 203d
000001d0: 93ed 9fbd a9f6 ab3d cac8 adbc ad11 943d
000001e0: ec16 a73b b62b 6a3d cfbf 213d e372 8ebd
000001f0: 2bd8 6c3d 649e 793d bee1 a93c 161f 0b3d
00000200: ca39 73bd df89 8c3d 0fe7 00bd 6378 b7bd
00000210: d767 843b 8c1e 9f3d c21b 1c3d 1465 343d
00000220: 188b 8ebd 92eb 023d 7da2 d6bd 3c52 25bd
00000230: 1dde 4e3d c708 bbbd f304 523d bd9c dabc
00000240: a50c e1bc 68b6 173d 303a d0bd b6cb 01be
00000250: 8067 ce3a 9815 d7bd 6bf9 dabd 29c1 67bd
00000260: e5bd d7bd c284 e93d 0ec5 27ba d692 25bd
00000270: 53c5 3a3d ea5f 72bb 97f9 6d3d 2541 eb3d
00000280: 675e b5bd 13f4 db3d 6933 3fbd 1c08 e8bd
00000290: 174a d9bd 7eea e5bd 8cef b73c da25 38bc
000002a0: f96a 323d 7cfe d4bc 3bf3 fa3c 8d87 593c
000002b0: 7c5c 9b3d 7ad2 943d 3154 c2bc 1aca d63d
000002c0: fba5 e73d 53c3 1bbc 4a11 873c 90f6 ecbd
000002d0: 8c21 af3d be8b ec3d c048 d13d 14c8 fdbc
000002e0: 4c79 773d 31e0 673c bae3 a53c 5635 d0bd
000002f0: 12eb 97bd 1a5d ea3c 3dd3 983d 7029 863d
00000300: 4348 953d 8a8c 883d aadf bdbc 7608 673d
00000310: 3e51 a33d 74f5 5ebd 8c22 94bc fb71 4dbd
00000320: dd56 22bd 2cc0 a23d 5847 063e e12f a5bc
00000330: 1762 a3bc 5c07 a7bd a984 e53c fbca 5fbd
00000340: 93df e2bd 501e e23d 206f c23b bd9b f7bd
00000350: c6c6 453c c120 a5bd d180 713b 9456 373d
00000360: 3c75 04be b39e 8cbd b95a 8a3c 245b c13d
00000370: 8a75 7d3d e363 203d e28f a1bc bd71 793d
00000380: 3021 cfbd dd70 a9bb e5f0 f5bb 0b8c 133c
00000390: 8fa2 d7bd 177c e03d 66ea 013e f05d 80bc
000003a0: bb32 863d c6b6 c0bd 6607 85bd 2422 153d
000003b0: 2306 36bc 986b a03d 9655 d9bd 0100 3d3d
000003c0: 21da 0ebd b375 87bc b988 e33d f6df 8b3d
000003d0: 83ea a9bd b3be 88bd e7cf aebd ddcb a73c
000003e0: 68a2 f93d 65b4 db3c bd9e a0bd 4bc1 33bd
000003f0: ce4a c4bd 3779 9e3d 3692 143d 0aa0 883d
-0.06361038 0.120881386 -0.068092756 0.104902305 -0.08353937 -0.12128426 0.078097045 0.02828918
-0.067815825 -0.0023645223 0.016854461 -0.12371003 -0.05528766 -0.07111667 -0.13111632 -0.017437499
-0.061654992 -0.036278725 0.014932307 0.036559448 0.0799697 -0.008963248 -0.006397954 -0.009504207
0.13156024 0.115742095 -0.029079389 -0.083901726 0.0531882 -0.03603556 -0.008702959 0.05297265
-0.03938907 -0.029897243 -0.036026694 -0.11370749 0.073900186 0.062471442 -0.03585775 0.007841278
-0.04630536 -0.007179717 0.013800232 0.051659055 0.01255428 -0.04439008 -0.07330058 -0.11743619
-0.080175534 -0.0701572 -0.077357486 -0.07245929 -0.013690495 -0.018263383 0.00095862104 0.06342198
0.021199567 0.006978367 -0.017745476 -0.0009352583 -0.12989852 -0.011829522 0.058324367 0.0752101
0.038605794 -0.045222364 -0.0084970975 0.017755963 0.026476672 -0.09135259 -0.121930405 0.07182711
0.073584944 -0.038651865 0.03274165 -0.032097884 0.03897587 0.1041707 0.040514674 0.06315538
0.042028524 -0.10296763 0.07891567 -0.12345788 -0.06123042 0.0068062153 -0.099633485 0.098707974
-0.10274447 0.06803491 0.010394275 -0.05571293 -0.025982488 0.038138278 -0.051758256 -0.05578813
0.084681034 -0.0991104 -0.040133614 0.050707508 -0.10356847 0.020478006 0.0029149232 -0.06760066
-0.013654312 -0.1150484 -0.0935367 0.0074694366 0.0009210858 -0.0063877758 -0.0045799473 -0.05179863
0.09267698 0.042071193 0.041410517 0.039094407 -0.078089856 0.08396656 -0.021213908 0.07229934
0.005099168 0.057170592 0.039489564 -0.06955507 0.05782334 0.06094207 0.020737525 0.033965193
-0.059381284 0.06862234 -0.031470355 -0.08958509 0.004040699 0.07769498 0.03811241 0.044041708
-0.06960124 0.03196294 -0.10480211 -0.040361628 0.050504792 -0.091325335 0.05127425 -0.026686067
-0.02747185 0.03703919 -0.101673484 -0.12675366 0.0015747398 -0.105021656 -0.10692104 -0.056580696
-0.105342664 0.11402275 -0.0006399908 -0.040423237 0.04559834 -0.0036983439 0.058099356 0.11487035
-0.088558964 0.10739913 -0.046679888 -0.11329672 -0.10609835 -0.112263665 0.022453092 -0.011239493
0.04355905 -0.026000254 0.03063356 0.013276947 0.07585999 0.07266708 -0.023721786 0.104877666
0.11310955 -0.009507018 0.016487736 -0.115704656 0.085513204 0.11550091 0.10218954 -0.030979194
0.060418412 0.0141525725 0.02025019 -0.10166423 -0.07417883 0.028608847 0.074621655 0.06550872
0.072891735 0.06667431 -0.02317794 0.056404553 0.0797448 -0.0544333 -0.01808288 -0.05015753
-0.03963362 0.0794681 0.13113153 -0.020164432 -0.019944234 -0.081557006 0.028017359 -0.054636937
-0.110778 0.11040938 0.0059336573 -0.120902516 0.012071317 -0.08062888 0.0036850462 0.0447603
-0.12935346 -0.06866207 0.016888963 0.09441212 0.061879672 0.03915776 -0.019721929 0.060899485
-0.10113752 -0.005170925 -0.0075055235 0.009005557 -0.105290525 0.10961168 0.12687072 -0.015669793
0.06552645 -0.09409861 -0.06495552 0.036409512 -0.011109862 0.07833022 -0.10612027 0.04614258
-0.034875993 -0.016535616 0.11110062 0.068298265 -0.08296683 -0.06676998 -0.08535748 0.020482952
0.1218918 0.026819417 -0.07842777 -0.04388551 -0.0958458 0.07737964 0.03627225 0.0667115

lstm.bias_ih_l1 f4 [256]
00000000: 02bd bc3c f2e4 6d3d 2b08 1b3d d656 073e
00000010: 8815 563b e0b0 af3d d9f5 a43d 7cf3 a9bd
00000020: e609 d23d 0867 b1bc 417f 72bc 5f04 f5bc
00000030: 285c a1bd 8c4d e4bd 71fd 5e3d 0273 b4bd
00000040: 955f 0dbc d7c2 163b 0ddb cf3c 666f d33d
00000050: d8a6 9a3d 033f d53d 0e66 79bd 51dc 4ebc
00000060: a689 a03b 8987 a2bb 654f 37bd ba24 47bd
00000070: 9366 423d e9ec 9d3c c45f f03d 429e 983d
00000080: 5e73 943d 2159 e5bd 68c4 8b3d 9cae 333d
00000090: 2565 873d c573 d1bd 2e4c edbd 8ce4 e13d
000000a0: 1804 a0bd cd08 5cbd e392 ce3d 1861 b6bd
000000b0: 15cc d73c c5ec bb3d 677d 2fbb 1343 83bc
000000c0: 14a1 83bd 813e 863d 4dde e83d 2dcf 42bd
000000d0: 2281 76bd 8b77 02bc 3b4e 3f3d b48e 5d3c
000000e0: 2c22 073e b671 ed3c 3e4b a2bd f82e b33c
000000f0: 819a d7bd 8168 783d 08fb 353d 70af fc3c
00000100: 9b7d 6fbd 44c6 75bd 4c3b 18bc bf92 303a
00000110: 5fcd ea3c fdf7 1cbd 614b e53b 065f b7bd
00000120: 41ab ae3d feee 7fbd 86da 733d 2c31 e63c
00000130: 28e7 91bd d090 7d3d dbd1 e2bd 56d3 fabc
00000140: 3afc f63d 1b00 513d 14a8 893d d681 b1bd
00000150: cbca 8dbd afbc 093d 8bcc ed3c a789 c3bd
00000160: 2d33 1c3d 7b2d 6ebd 2849 e2bd 2738 b03d
00000170: 3ca5 3b3b d31d bfbd 7d99 b5bb 5e75 aabd
00000180: ffd2 653d 2d53 0ebd 487f dbbc ec4e a6bd
00000190: d6f6 cabd b4f1 a43c 1d5f adbd 28c4 a5bd
000001a0: 9327 e7bb 1a55 9ebd 73d8 e7bd 1060 173d
000001b0: f137 393d bec1 debd dc88 b6bd 17c8 96bd
000001c0: 5bf5 cc3d 996c 2b3d f72e cf3b 4f77 2c3c
000001d0: 63f5 113d b5c2 3f3c 97ef 013e d9d6 15bd
000001e0: be06 90bc 6ba2 ca3d ffb7 37bc 746c 7bbd
000001f0: 9bbc eb3d ea2e e83d 1485 61bd 2f5e 4fbd
00000200: b231 85bd 10ad c9bd 376c 993d 09c6 dabd
00000210: 184f 033e d339 31bc 57a7 e53c 08cd 68bd
00000220: 70b3 00be b02c bb3c d2a0 e83d d069 c13d
00000230: bf26 073e f0ea bb3d 5d89 043e 5755 be3d
00000240: 8e3a 8ebd 3bc7 97bd edc9 e1bd 8074 68bd
00000250: 4239 b4bc 46be 9bbb 9fd0 2b3d a19b 9bbd
00000260: cfa5 68bb 3b81 d23d 6da2 f43c b162 643d
00000270: 1475 d63d 464c 09bd 3488 dfbc ec59 4a3c
00000280: 4185 abbc dd9f 14bd 62cb 22bd e9c3 95bd
00000290: b1a4 f6bd 56c6 2c3d 2906 b93d aad2 2b3d
000002a0: b0d1 acbd 60a4 d1bc c338 84bd 586f 583d
000002b0: 8a8a 8b3d df74 383d 6987 b2bd f537 c53d
000002c0: 50dc 073d 93ab 223d fd23 523c 19b8 00be
000002d0: b25b ab3d 5178 0ebc df81 d5bd 34d0 c0bd
000002e0: 7b92 a03d a075 cbbd c95d edbd 461b 70bd
000002f0: 46c6 1b3c 4bba a03d 246f 6abd d7fb 3abd
00000300: 3131 3ebd f9b3 d3bc fc9e 9f3d 1702 9b3d
00000310: c8e4 6e3d 17c8 59bc 7823 d13d c6be 32bb
00000320: bc46 c43c 12ed 32bd 1025 0abd 7ca3 44bd
00000330: 1de2 63bb 48fc d6bc 6ce2 7b3d d34d e03d
00000340: c4fc 823c 47cf 39bd 75db babd 470d 4bbd
00000350: 941e 7a3d cfdb e0bd bf9b 5d3d 9a25 e7bd
00000360: 005f fa3b ff76 4cbd c164 d43d 85e5 ce3d
00000370: c392 d1bd b6be ca3d 45c3 aa3d d5a7 b8bc
00000380: 9140 f83d b404 b63d de94 363d cb2c 73bb
00000390: 4047 23bd 60c4 1e3d 61ea c13c ea16 5bbd
000003a0: 57ce 4dbd 2f10 afbc 8dd0 433d b43e 1abc
000003b0: ca76 b6bd c80b e9bd 98f1 ba3d 70fe 92bd
000003c0: af6f 89bd defe 96bd 7c0a c4bd 062c e73d
000003d0: 5c78 883d c52d fd3c 66fb 4c3d 4417 cbbd
000003e0: c2b7 373d 3d44 893d 926e 9b3c 8fb1 b63d
000003f0: f318 7bbd eb8d de3d 3df0 913c f015 e2bd
0.023039345 0.058079667 0.037849586 0.13216719 0.0032666642 0.08578658 0.08054704 -0.08298394
0.10255794 -0.021655574 -0.0148008475 -0.02990931 -0.078789055 -0.111476034 0.05444092 -0.088109985
-0.008628746 0.0023004317 0.025373006 0.10323982 0.07551354 0.10412409 -0.060888343 -0.01262577
0.0048992215 -0.0049600047 -0.04475345 -0.04861901 0.047461104 0.019278007 0.11737016 0.0745206
0.07248567 -0.111986406 0.06824571 0.043867692 0.06611089 -0.102271594 -0.11586796 0.1102992
-0.07813281 -0.05371933 0.1008661 -0.08905238 0.026342431 0.091760196 -0.0026777626 -0.016023194
-0.064272076 0.065548904 0.113705255 -0.04756086 -0.060181744 -0.007963072 0.046705466 0.013522793
0.1319663 0.028984886 -0.079245076 0.021872982 -0.10527516 0.060646538 0.044428855 0.030845374
-0.058469396 -0.060003534 -0.009291481 0.0006735734 0.028662382 -0.038322438 0.0069975113 -0.08953671
0.08528758 -0.06248378 0.059534572 0.028099619 -0.07124168 0.061905682 -0.11075183 -0.030618351
0.12059827 0.05102549 0.067215115 -0.08667342 -0.06923445 0.03362721 0.029028198 -0.095477395
0.038134743 -0.058148842 -0.1104911 0.0860446 0.0028632423 -0.093318604 -0.005541979 -0.08323167
0.056109425 -0.03474729 -0.02679409 -0.08120522 -0.099103615 0.020134784 -0.08465407 -0.080940545
-0.007054278 -0.077310756 -0.11320581 0.036956847 0.045219366 -0.10876797 -0.089128226 -0.07362383
0.10007735 0.041851614 0.0063227373 0.010526492 0.03563441 0.011704137 0.12689053 -0.036581848
-0.01758134 0.0989426 -0.011213302 -0.061382726 0.11510583 0.11337073 -0.055058554 -0.05062693
-0.06503619 -0.09847462 0.074913435 -0.106823035 0.1282314 -0.010817009 0.028033895 -0.056836158
-0.1256845 0.022848457 0.11358799 0.0944401 0.13198374 0.0917567 0.12943025 0.09293621
-0.06944762 -0.07411047 -0.110248424 -0.056751728 -0.021999959 -0.004752907 0.041947003 -0.07598043
-0.003549922 0.10278555 0.029862607 0.055758182 0.1047155 -0.033520006 -0.027286626 0.012350541
-0.020937564 -0.03628527 -0.039744742 -0.073127575 -0.12043131 0.042181335 0.09034378 0.04194895
-0.08438432 -0.025591075 -0.06456139 0.05284056 0.068135336 0.045033332 -0.08717234 0.096298136
0.03316909 0.039714407 0.012825963 -0.12570228 0.08367099 -0.008695678 -0.104251616 -0.094147116
0.07840439 -0.099345446 -0.11590154 -0.05861976 0.009507721 0.078480326 -0.0572349 -0.04565033
-0.04643363 -0.025842654 0.07793996 0.07568758 0.05832365 -0.013292334 0.10211843 -0.0027274354
0.02395951 -0.04368312 -0.03372675 -0.048007473 -0.0034772225 -0.026243344 0.06149523 0.10952344
0.015989669 -0.04536369 -0.09123889 -0.04957321 0.061064318 -0.10979425 0.05410361 -0.11286469
0.0076407194 -0.04991817 0.1037078 0.10102371 -0.10233071 0.098996565 0.08338026 -0.022540966
0.1212169 0.08887616 0.044575565 -0.0037105556 -0.03986287 0.038761497 0.02367133 -0.05348865
-0.05024561 -0.021370022 0.04780631 -0.009414364 -0.08909376 -0.113792 0.091281116 -0.07177436
-0.06710755 -0.07372831 -0.09572312 0.11287694 0.06663582 0.030905614 0.05004444 -0.09916547
0.04485298 0.067024685 0.018973622 0.08920585 -0.06130309 0.108669125 0.01781475 -0.110393405
