models/ETH_USDT_1h_model.pth (torch, 215461 bytes, 9 tensors)

lstm.weight_ih_l0 f4 [256, 10]
000000 42 92 80 3d 44 7c ed bd 3b dc 2b 3d 50 af cb 3c
       0.062778965 -0.115959674 0.041958075 0.024863869
000010 93 4c c2 bd a5 ea e9 3d 89 a4 ee bd 3a 7d 3f 3d
       -0.094872616 0.11421708 -0.11652476 0.046750285
000020 5d 76 49 bd 96 f5 aa bd cf 30 91 bd 1b 44 39 bd
       -0.049185146 -0.08347623 -0.070893876 -0.045230966
000030 00 0d 78 bd 73 28 bb bd 80 c9 ca bd 83 cc 8d 3d
       -0.060559273 -0.091385745 -0.09901714 0.06923773
000040 a2 f8 d2 bc 61 70 fe bd f4 71 3a 3d 1c 07 c6 3d
       -0.025753323 -0.12423778 0.04551883 0.09669325
000050 49 d9 4b bd 6a 8a a6 3d 26 72 28 bc fd 6f c6 3a
       -0.049767766 0.08131869 -0.010281121 0.0015139576
000060 67 01 0f bd 8e 99 1a bd 19 5f 6e bc 8f 5a 02 3e
       -0.034913447 -0.037744097 -0.01454904 0.12729858
000070 63 f2 90 bd 59 e7 07 bc d0 aa ac 3d 0d d7 85 3d
       -0.070774816 -0.008294904 0.084310174 0.06535158
000080 2a 0a ce bd 20 65 fc bd b5 a3 8a 3d 82 68 e9 bd
       -0.100605324 -0.123239756 0.06769506 -0.113968864
000090 a6 1a 89 bd 21 77 56 bc a9 be 8f 3d 50 34 59 bd
       -0.06694536 -0.013089926 0.070187874 -0.053028405
0000a0 90 59 9e bc 9a 40 c8 3d ae f4 1f bc 7d c7 c0 3d
       -0.019329816 0.09777947 -0.009762926 0.09413049
0000b0 81 cf 90 bd 06 da 0c bd cb f3 d8 bc 23 d0 8f bd
       -0.07070828 -0.03438761 -0.026483437 -0.07022121
0000c0 f8 86 cc bd 63 c1 62 bc d3 0c ae bd a8 b1 e7 3d
       -0.09986681 -0.013840052 -0.0849854 0.11313182
0000d0 25 53 de 3d 3c 17 92 3d e6 a6 ae bd ef 29 6e 3d
       0.10855702 0.07133338 -0.08527927 0.05814546
0000e0 15 88 ac bd e9 f7 dd bd c3 1b e7 bd c3 f4 59 bd
       -0.08424393 -0.10838301 -0.11284592 -0.05321194
0000f0 da 89 ca bd c3 d6 ff bd d4 3b a3 bd 94 1f bc bd
       -0.09889574 -0.124921344 -0.07970396 -0.091857105
000100 2e af c1 bc 7a 09 e0 bd 18 a5 3b ba bd 89 05 bc
       -0.023643102 -0.109393075 -0.0007158085 -0.008150515
000110 b7 91 c2 bd 19 05 9a bc 10 12 00 3d a5 22 a9 3d
       -0.09500449 -0.018801259 0.031267226 0.08258561
000120 ff 8d 10 3d 66 89 bf 3d 8f a1 f5 3c 58 66 ff 3d
       0.035291668 0.093523785 0.029984264 0.124706924
000130 5a 71 66 bd c1 fc 79 3d 9d 99 7e 3b 8b 0f 0a 3b
       -0.056260444 0.06103206 0.0038848885 0.0021066393
000140 a5 2a c6 3d 63 7b b1 3d 1f f5 be 3d 7b a9 5e bd
       0.096761025 0.08666112 0.09324097 -0.054360848
000150 14 5a 01 bd 39 10 b2 bd e7 b4 8c 3c 1e 4e bf bd
       -0.031580046 -0.086945005 0.017176105 -0.093410715
000160 49 6c aa bd a1 f2 f6 bc 12 41 bd bd 5c 64 bf 3d
       -0.08321435 -0.030144991 -0.09240927 0.09345314
000170 4d 73 d1 bd 21 6e c1 3b c5 bc 93 bb 62 ee 7f bd
       -0.1022707 0.005903021 -0.004508587 -0.0624832
000180 15 56 61 bb ec 4b c6 bd 47 83 49 bd f1 d0 65 bc
       -0.0034383584 -0.0968245 -0.04919746 -0.014026866
000190 45 dc f0 3d 46 67 cb bc 01 6c eb 3d 2e b2 04 bd
       0.11760763 -0.024829518 0.114952095 -0.032396488
0001a0 0e f4 f7 3a fe f3 87 3d 04 8c 81 bb e7 c3 a0 bd
       0.0018917338 0.06638335 -0.0039534587 -0.078498654
0001b0 77 8e d5 3d 09 64 07 3e dd 7d 23 bd 22 5a b8 bd
       0.10427564 0.13221754 -0.039914954 -0.090015665
0001c0 ef 9a ab 3d 27 89 c6 bb 27 a1 8d 3c a8 0e 03 3e
       0.083791606 -0.0060588303 0.017288757 0.1279856
0001d0 73 4c 25 3d ba fe cf bd 5b 80 a6 bd 79 3a 9b bb
       0.04035611 -0.10156007 -0.081299506 -0.004737195
0001e0 eb 31 4b 3d 71 a1 fd bc 6e ad 09 3d 15 08 ff bc
       0.049608152 -0.03096077 0.03361266 -0.031131784
0001f0 cd 40 92 bb 68 36 f1 3d 5e 08 ef 3c 10 ca f7 3c
       -0.0044632913 0.11777955 0.029178794 0.030247718
000200 e9 b4 74 bd 07 ad ec bd a8 1f af bc b3 5f 9e 3d
       -0.059742842 -0.1155644 -0.0213774 0.07733097
000210 04 99 ab 3c bb 6a d0 3d 21 94 7e bc 52 f3 42 3b
       0.020946987 0.10176607 -0.015538246 0.002974708
000220 0e dd 88 3c 93 fc 97 bd ac 40 e8 bc 10 79 00 be
       0.01670697 -0.074212216 -0.02835115 -0.12546182
000230 80 b7 b7 3d b6 85 fa bd d6 41 f4 bd 3d fd a6 bc
       0.08970547 -0.122325346 -0.1192662 -0.020384425
000240 62 9f af bd ae 0f 1a bd 6a a2 b3 bb 7b 5d 86 3d
       -0.08575322 -0.03761261 -0.0054820077 0.06560799
000250 52 d0 2f bd 23 5a 8f 3d 29 f5 91 3d ab 54 7c bd
       -0.04292328 0.06999614 0.07126839 -0.061604183
000260 40 9b 82 bd d7 c1 e1 bc 1c bf 7f 3d 73 b2 c0 3d
       -0.06377268 -0.02755825 0.062438115 0.094090365
000270 dd b2 f3 bd 95 18 d8 3d a3 ca 85 bd 4e ca 2f 3d
       -0.1189935 0.10551564 -0.065327905 0.042917542
000280 21 b7 a0 3d f6 af b2 3b a1 e8 b3 bd b5 37 a2 bb
       0.07847429 0.005453105 -0.08784605 -0.0049504885
000290 fe e8 67 bb 2a a1 54 3d cd 94 a7 3d 7b eb da 3d
       -0.0035386677 0.05191151 0.08182678 0.106894456
0002a0 f7 14 c7 bd c4 23 4d 3d 50 0c 41 3d ac 6f bc bd
       -0.097207956 0.050082937 0.047130883 -0.09200987
0002b0 85 ca ae 3d 32 04 98 3d 6c 63 df bd 99 70 2f bd
       0.08534721 0.07422675 -0.10907635 -0.04283199
0002c0 15 4e 9f bd 90 d4 ce bd a9 91 e2 bd 64 18 ba 3d
       -0.07778565 -0.10099137 -0.11062939 0.090866834
0002d0 d6 36 3b bd 25 3e fa 3b 0e d0 4f 3d 2e 88 f0 3c
       -0.045706593 0.0076368027 0.050735526 0.02936181
0002e0 83 04 88 3d 9c 46 b8 bc e4 17 7e 3d d9 f5 b7 3d
       0.066414855 -0.022494607 0.062034503 0.089824386
0002f0 75 a6 90 3d 90 41 88 3d e8 99 35 bd 74 80 41 bd
       0.07062999 0.0665313 -0.04433623 -0.047241643
000300 75 31 c8 3d df b1 d5 3d 77 a1 96 3d 9e 98 b8 3d
       0.09775058 0.10434317 0.07355016 0.090134844
000310 30 c0 9a 3d 81 d2 c1 bd d0 5a e8 3d 9f 07 f8 bd
       0.07556188 -0.094639786 0.11345446 -0.121108286
000320 5f 88 94 3d e9 3a ae bd 2f 82 73 3b aa a9 b1 bd
       0.07252573 -0.0850733 0.0037156453 -0.08674939
000330 fa f6 b4 3d 9d a8 16 bd a5 7d 02 bc 24 b6 d4 3d
       0.088361695 -0.036781896 -0.007964526 0.10386303
000340 1f 3d ca bd c5 91 6d bd dd 06 ad bc 0e b0 94 bd
       -0.09874939 -0.058000345 -0.021121437 -0.07260142
000350 29 e2 c2 3d 54 0e eb 3d 30 ca d8 3d be 3a 03 3e
       0.09515793 0.11477342 0.10585439 0.12815377
000360 68 dc 0d 3d 01 fc 42 3d fd 34 94 3c 6d c6 00 3d
       0.034634024 0.04760361 0.018091673 0.031439234
000370 e0 6e b9 b7 2f 23 36 3d d6 91 ae bd b3 c5 92 bd
       -2.2105349e-05 0.044467147 -0.0852391 -0.071666144
000380 49 fc a2 3d d8 71 8b 3d b1 bf 2c 3d 0a fb ad bd
       0.07958276 0.06808823 0.042175 -0.084951475
000390 c5 b7 da bd 28 fc 9a bd 6f 47 37 bc db 4a be bd
       -0.106795825 -0.07567626 -0.011186465 -0.09291621
0003a0 6f d1 86 bd 50 30 d0 3d ae c3 b4 bd 2e a3 5c 3d
       -0.06582915 0.10165465 -0.088263854 0.053866558
0003b0 b5 e8 e4 bd 1d 51 ee 3c 4d 41 96 bd d2 08 d3 bc
       -0.11177198 0.029091412 -0.07336674 -0.025761042
0003c0 08 06 43 3c ce fc dd bd b1 5c 04 3d f1 62 99 bd
       0.011903293 -0.10839234 0.03231496 -0.07489575
0003d0 5e d9 d1 bd 66 63 a9 bd 54 43 db 3d 17 6a 17 3d
       -0.102465376 -0.08270912 0.10706201 0.03696641
0003e0 fa 97 84 3c 87 29 94 bd c2 be 86 3d 67 ff c5 3d
       0.01618575 -0.07234483 0.06579353 0.09667855
0003f0 0f e0 86 bc 49 d9 39 bd 8e fb 80 3d d0 c7 9d 3c
       -0.016464261 -0.045373235 0.0629798 0.019260317

lstm.weight_hh_l0 f4 [256, 64]
000000 a0 12 81 bd 2a f2 ed 3d df 28 b9 bd ed eb 1c bd
       -0.063023806 0.11618455 -0.09040999 -0.038310934
000010 48 fa 9a bd f1 e5 2e 3d e2 b6 c5 3d c8 08 88 3d
       -0.075672686 0.042699758 0.09654023 0.066423
000020 78 6e ee bd 4c 5e cb 3a 19 b9 c0 bd b9 0e 21 3d
       -0.11642164 0.0015515774 -0.094103046 0.03932068
000030 40 89 e7 bd 55 8c f2 bc c1 22 14 3d f0 6a 53 3d
       -0.11305475 -0.029607931 0.036165956 0.051615655
000040 d7 32 ed bc f0 3c b3 bc 73 b0 d0 3d ef f2 2f 3b
       -0.028954906 -0.021879643 0.10189905 0.002684768
000050 0f dc d9 bd e5 93 9c 3d a0 4a e7 bd 20 41 ff 3d
       -0.10637676 0.07645396 -0.112935305 0.124635935
000060 82 3f 6b 3c dd de 98 bd 46 a4 8a bd e6 df 3c bd
       0.014358403 -0.07464383 -0.06769614 -0.046111964
000070 0d a9 30 3d 7a 54 9b bd e6 93 52 bd 13 4e b3 3b
       0.04312997 -0.07584472 -0.05141058 0.0054719537
000080 8e f2 3d 3d 5c 48 c8 bd 89 42 01 be 03 cc 6c 3c
       0.046373896 -0.097794265 -0.12623037 0.014452937
000090 5a b6 3d bd 07 ea 00 3e 38 7c cc bd 13 5e d1 3d
       -0.046316482 0.12589274 -0.0998463 0.10223021
0000a0 0d d8 d2 bc 80 a1 45 bd 5b 7f 53 3d 3f 8b 7f 3d
       -0.025737787 -0.04824972 0.051635128 0.062388655
0000b0 47 fd 6d 3d 57 c2 2d 3c 75 fa b2 3d d8 84 42 3d
       0.058102872 0.010605416 0.08739177 0.04748997
0000c0 c5 3d 31 3d 2c 51 f3 bd ae b9 5b 3d 6d 0d a7 bd
       0.0432718 -0.11880717 0.053643875 -0.08156858
0000d0 d9 45 8e bd 42 cf 42 3b 79 8f 16 3d 73 42 69 3d
       -0.06946916 0.0029725586 0.03675792 0.056948137
0000e0 c2 40 51 3d dd ca 66 3c 9f cf 0f bd c1 a8 d2 3d
       0.05108715 0.014086452 -0.035110112 0.102860935
0000f0 8d 84 fb 3d dd e3 23 bd 35 ad c4 bd b4 ec 99 bd
       0.122811414 -0.04001223 -0.09603349 -0.07515851
000100 12 59 f2 bd ba 43 36 bd 54 a0 18 3b b2 78 72 3d
       -0.11833395 -0.044498183 0.0023288922 0.059197135
000110 9d 18 f4 3c 46 53 33 3d 9e 48 66 3d 86 03 c0 3c
       0.029796893 0.043780588 0.056221597 0.02343918
000120 8d 31 e2 bd 5b 1d 6f bd 57 0c 95 bd a5 60 a0 bc
       -0.11044607 -0.058377605 -0.07277744 -0.019577334
000130 7b 25 bd 3d 85 a8 22 bb 84 02 dc 3d 96 99 00 3e
       0.092356645 -0.0024819684 0.10742667 0.12558588
000140 ed 89 6f bd 0d 23 f1 3c eb 31 be bd 31 12 23 bd
       -0.058481146 0.029435659 -0.09286865 -0.03981227
000150 f4 a6 31 bd 79 96 c9 bd ff b4 05 be 8a 52 0a bd
       -0.04337211 -0.098431535 -0.13057326 -0.03377012
000160 42 b2 ef bd 7c 85 98 bd 81 1a b7 3d c9 d8 ea bd
       -0.11703922 -0.07447335 0.08940602 -0.1146713
000170 53 92 23 3d ad 1c b5 bb be f6 d9 bd f2 6f bf bc
       0.039934468 -0.0055271 -0.106427655 -0.02336881
000180 34 00 e0 3c c3 35 1b 3d a0 2c 8a 3d 9c 9d 80 bd
       0.027343847 0.037893068 0.06746793 -0.062800616
000190 4e a4 f8 bd 20 c8 7e 3b 19 e6 8a bd 86 af bc 3d
       -0.12140714 0.0038876608 -0.06782169 0.09213166
0001a0 99 af a6 bd 3d 0b 54 bd 33 9f f5 3d ff c4 9b bd
       -0.08138961 -0.05176853 0.119932555 -0.076059334
0001b0 74 c1 a2 3d 9c b0 dd bd fa 00 ef bb 5f 5f 92 bd
       0.079470545 -0.10824701 -0.0072938176 -0.07147097
0001c0 1d 35 06 be 6e 2b bb 3d 6b 86 12 3d 05 ec 8a 3d
       -0.13106199 0.09139143 0.035772722 0.067832984
0001d0 42 cd ee bd 07 4a 15 bd 1d ba c0 3d 6b 00 1c bd
       -0.116602436 -0.03644755 0.09410498 -0.038086336
0001e0 4b f2 e0 bc a5 19 c3 bd 39 53 20 bd 7b 37 7d 3d
       -0.027459284 -0.09526376 -0.039141867 0.06182049
0001f0 47 29 8d 3d a3 9c c7 3c 2a 74 b6 bd 24 2c d6 3d
       0.06892639 0.024366682 -0.08908875 0.10457638
000200 6c 44 bc 3d dd fa 97 3d a0 c0 a8 bd b3 15 89 bb
       0.09192738 0.07420895 -0.08239865 -0.004183495
000210 95 a9 9e 3c 45 60 b7 3d 44 5c 12 bd 40 78 1c 3c
       0.019367972 0.08953909 -0.035732523 0.009550154
000220 0f ae 8c 3d 8e 6c 01 3b fc 2d 53 bd ea 27 24 3d
       0.068691365 0.0019748542 -0.051557526 0.040077128
000230 1d b9 f2 bd 18 43 c4 bd 04 7e cb 3d 9b f4 e9 bc
       -0.11851714 -0.095831096 0.09936145 -0.02855902
000240 17 fb 3c 3d ba 63 92 bd 27 3e 21 3d e8 bd 1b bd
       0.046137895 -0.071479276 0.039365914 -0.038022906
000250 53 90 72 3c 84 e5 3f 3d e7 32 28 bd 16 6e 7a 3d
       0.014804917 0.046849743 -0.04106417 0.061140142
000260 23 d9 65 3d 3e 8c f2 3d 81 6c c3 3d 86 1b 84 3c
       0.05611528 0.11843155 0.0954218 0.016126405
000270 3b 96 95 3c 71 1b ac bb b3 08 8b bd 37 4c 3f bd
       0.018260112 -0.0052522947 -0.067887686 -0.046703544
000280 93 af 92 bd d4 38 3c bd 69 16 f2 3d ea ec 73 bd
       -0.071623944 -0.045952633 0.11820681 -0.05955211
000290 8c 96 2b bd 02 2c 1e 3c f9 bd 81 bd b5 65 25 3d
       -0.04189162 0.009654047 -0.063350625 0.0403802
0002a0 f6 f8 3e 3d 5f 0d 53 3d 0e 60 49 bc 42 ef e8 3d
       0.046624146 0.051526424 -0.012290968 0.1137376
0002b0 47 d5 79 bd 3e 52 22 bd 2d fe 51 3c 4a 35 36 bc
       -0.060994413 -0.039629214 0.012816948 -0.011121104
0002c0 3b e1 d7 3d f7 10 31 bd b1 c5 a3 bd e7 a4 b2 3b
       0.10541006 -0.04322907 -0.07996691 0.005451787
0002d0 31 34 c3 bd fa 2d 36 bd b5 f9 76 bd 9a 1a 0c bc
       -0.09531439 -0.04447744 -0.060296733 -0.008551264
0002e0 2d cf 74 bd 3c 75 84 bd 6a 55 63 3d f1 38 f7 3a
       -0.05976789 -0.06467673 0.05550138 0.0018861574
0002f0 a5 6d eb bd fb e0 04 bc 2a b7 45 3d b4 96 c3 bd
       -0.114955224 -0.00811028 0.048270382 -0.09550229
000300 97 68 88 bd 9b ee 03 3d 43 5a cf bd 6d dc 01 be
       -0.06660574 0.032209974 -0.10124638 -0.12681742
000310 7b 1f 3a 3d 33 4f 7d 3d c3 84 89 bd 80 10 70 3d
       0.04544018 0.06184311 -0.067147754 0.058609486
000320 e7 fb 8b 3c 28 f4 14 3d 04 d2 65 3d 64 52 aa bd
       0.01708789 0.036365658 0.05610849 -0.08316496
000330 c6 1b f6 3c f8 60 f5 bd 41 81 d0 3d b2 2c ba 3d
       0.03004254 -0.11981386 0.10180903 0.09090556
000340 ac ae e8 3c a7 e6 ca bd b0 19 1d 3d f7 f2 e8 3d
       0.028403603 -0.09907275 0.038354576 0.11374467
000350 a9 ea 31 3d 56 9e 9d bb 13 74 58 bd 04 f1 d6 bd
       0.04343668 -0.004810135 -0.052845072 -0.10495189
000360 df 5c 9b bd 51 4a e6 bc e1 90 c2 3d c7 8a 88 3d
       -0.07586073 -0.028111609 0.0950029 0.06667095
000370 fe f8 83 3d a4 e5 b6 3d 01 5c b1 bd 41 ee e2 3d
       0.06443976 0.08930519 -0.086601265 0.110805996
000380 e6 76 6e bd 64 4a be 3d 2f cb c0 3d d2 e1 6a 3d
       -0.05821886 0.09291533 0.09413754 0.057344265
000390 53 41 ba 3d 79 77 13 3d e7 00 f8 3c b6 fe db bc
       0.09094491 0.03600261 0.030273868 -0.026854854
0003a0 53 d5 d3 3d 3d 71 9e bc e6 cc 2a 3d 5c 6e db bd
       0.10343423 -0.019341106 0.041699313 -0.10714409
0003b0 36 11 ef bd 9e fc 01 be c6 a2 a3 bd 89 71 e3 3d
       -0.116732046 -0.12694022 -0.07990031 0.111056395
0003c0 c2 83 e9 bd 21 53 89 3d 35 f0 39 3d 93 80 aa bd
       -0.11402084 0.06705309 0.045395095 -0.08325305
0003d0 09 a9 1d bb ca 4a e5 bd 10 77 48 3c 79 c0 5a bd
       -0.0024057052 -0.111959055 0.012235418 -0.053406212
0003e0 e0 35 18 3d 30 02 7c 3d ea e2 14 bd cb ed a4 3c
       0.037160754 0.061525524 -0.036349215 0.02013292
0003f0 f8 25 4b bd bf 80 fe 3d 00 a4 7f 3d b9 63 df 3d
       -0.049596757 0.124269 0.062412262 0.109076925

lstm.bias_ih_l0 f4 [256]
000000 db 13 85 3d a7 56 68 bc a7 c8 09 3d 95 f4 d5 bd
       0.06497928 -0.014180816 0.033638623 -0.10447041
000010 ce c4 c1 bd 1b b5 65 bd fe 40 e7 3d 83 56 7f bc
       -0.09461366 -0.05608092 0.11291693 -0.015584591
000020 3c 9b 0b 3c 75 93 23 3d 89 26 43 bd 0f 3b 48 3d
       0.0085208975 0.039935548 -0.047644172 0.048884448
000030 57 12 71 bd 04 d9 18 bd 77 9d 1e 3d db fe 7c bc
       -0.05885538 -0.037316337 0.03872439 -0.015441622
000040 a5 e7 04 3d 47 d1 c2 bd 26 29 92 bc d1 17 f4 bd
       0.032447476 -0.09512573 -0.017841887 -0.11918605
000050 27 b0 f7 b9 04 c8 10 3d 0e e0 44 bd ca 4f af 3d
       -0.00047242755 0.035347 -0.048065238 0.085601404
000060 9a 0b c9 bd 20 ab 59 3b bf f0 e4 3d 4b 90 04 be
       -0.09816666 0.003321357 0.11178731 -0.12945668
000070 8e a4 7f 3d a9 be f5 3d f8 63 08 3d 78 f8 b0 3c
       0.06241279 0.11999256 0.033298463 0.021602854
000080 60 87 65 bd ff bc 63 3d 17 40 d4 3d 4b 1f a1 3d
       -0.056037307 0.055600163 0.10363787 0.07867297
000090 fe 98 1a bc 67 df bf bd a3 c6 c5 3c 86 fd c6 3d
       -0.00943589 -0.093687825 0.024142569 0.097163245
0000a0 0e 7c 6f bd bd 49 e8 bd f9 a7 e8 bd ba 48 ac bd
       -0.058467917 -0.113421895 -0.11360163 -0.08412309
0000b0 6b c4 7b 3c 48 cb c4 bd 24 56 be 3d 6d 75 c9 bd
       0.015366654 -0.09609085 0.09293774 -0.0983685
0000c0 48 42 c4 3c a5 75 bb bd cb 90 d3 bd 2e c9 5f bd
       0.023957387 -0.09153298 -0.103303514 -0.05463522
0000d0 79 77 c9 3c 57 d5 c5 bb f1 d9 f8 bd 7f 2d 13 3d
       0.024593102 -0.006037395 -0.12150944 0.03593206
0000e0 5e f1 34 3d 8e fd 9f 3d 84 40 f3 bb bd d4 c0 3c
       0.0441755 0.078120336 -0.0074234623 0.023538942
0000f0 b3 97 3c bd e6 2d c8 3d 65 06 b5 3d 2d 94 d9 3d
       -0.04604311 0.097743794 0.0883911 0.106239654
000100 2c 65 d0 bd fe 13 9b 3d 0b 2c bb 3c f7 39 b8 3b
       -0.10175547 0.075721726 0.02284815 0.0056221443
000110 35 79 eb 3d 9c fd 00 3e 6b 74 fb bd f3 8a 11 3d
       0.11497728 0.12596744 -0.12278064 0.035532903
000120 52 be d8 bd 14 42 d1 bd 9e 5c 8f 3d df 02 ef bc
       -0.10583176 -0.102176815 0.07000087 -0.029176174
000130 9a 73 e7 3d f5 eb ca bd 60 3c c6 3d 38 6e 04 3e
       0.11301346 -0.099082865 0.09679484 0.1293267
000140 5f 9b b0 bd c9 e0 12 3d 22 7a 9c bd dd 99 e7 bb
       -0.08623385 0.035858903 -0.076404825 -0.0070679025
000150 e4 7e f2 bc 52 61 22 3d 83 ff c3 bc 9d 6d 5d 3d
       -0.029601522 0.039643593 -0.023925548 0.054059613
000160 8f a4 be 3d 7a 6b 9f bd 9b c3 ee bd 39 b9 49 bd
       0.09308731 -0.077841714 -0.116584025 -0.049248908
000170 14 e9 1a 3d a4 0f e4 3d 13 1e d8 bd 31 50 ae bd
       0.037819937 0.11135796 -0.10552611 -0.08511389
000180 8c 9f 99 3c fd 51 c1 bd cf 8a 4c bd dc b0 49 bc
       0.018752836 -0.09439466 -0.049937066 -0.012310233
000190 c3 ac eb 3d e1 0a d2 bd 3c 59 f0 bb cc 33 31 3d
       0.11507561 -0.10255981 -0.0073348563 0.043262288
0001a0 6b e1 fd bd d3 95 92 bd 14 f9 17 3d 49 1c d1 bd
       -0.12396511 -0.07157483 0.037102774 -0.10210473
0001b0 4a fc bb bd ed b0 aa bc 39 52 c2 3c 77 d6 8f bd
       -0.0917898 -0.020836318 0.023720847 -0.07023328
0001c0 41 a8 9c 3d 1b 1d 96 bc ef 47 2e 3d 66 ff 95 3d
       0.076492794 -0.018324425 0.04254907 0.07324104
0001d0 ac 7c cd bd e7 e3 04 3e 31 84 ee bc 76 01 a7 3d
       -0.10033545 0.12977563 -0.029115768 0.081545755
0001e0 05 e4 ed bd 53 b3 c1 bd c3 e0 a8 3d 20 43 8f 3c
       -0.11615757 -0.094580315 0.08245995 0.017488062
0001f0 90 45 44 3d 3d 8e 0a 3c f2 83 a6 3a 42 c6 ef 3d
       0.047917902 0.008456764 0.0012704118 0.117077366
000200 e6 35 86 3d d3 ca 9f 3d 76 15 e1 3d 64 06 c5 3d
       0.06553249 0.078023575 0.109904215 0.096203595
000210 b4 48 3a 3d 41 fa 63 3d 16 f3 20 bc bc 36 e9 3d
       0.04547949 0.055658583 -0.009823581 0.11387393
000220 e0 5c b1 bd 84 8d 0a 3c a5 cc d2 bc bf 98 d9 bd
       -0.086602926 0.0084565915 -0.025732348 -0.10624837
000230 30 84 7b 3b 4b a5 5a 3d a7 65 87 3b 8b bd 80 bd
       0.003837835 0.053380292 0.004131991 -0.062861525
000240 d3 ee d5 bd 42 12 4a bc 86 18 0d 3c 31 fa e2 3d
       -0.10445943 -0.012333455 0.008611804 0.110828765
000250 c1 66 69 bc bf 5b 9a 3d 8d 9a e8 3d ea 29 ea bd
       -0.01424569 0.075370304 0.11357603 -0.11433776
000260 32 9b 95 3d 5f e5 8c bd 50 9c ae 3c 2f 61 01 bd
       0.07304992 -0.068796866 0.02131477 -0.031586822
000270 a7 92 d9 3d 70 a1 47 3d 11 eb 82 bd b1 27 b3 bd
       0.10623675 0.048737943 -0.063924916 -0.08747805
000280 13 20 1e 3d 83 17 d5 bd 19 67 a0 3d 90 c8 97 bc
       0.038604807 -0.10404875 0.07832164 -0.018528253
000290 02 6e cb 3d fe 08 85 3d 59 59 b5 bc fd 03 ef 3d
       0.09933092 0.06495856 -0.02213733 0.116706826
0002a0 e9 d8 ae 3d 2d 41 9d bd 90 b8 12 bc 54 d7 d8 bb
       0.08537466 -0.07678447 -0.008955136 -0.006617466
0002b0 62 7d 86 3d 79 af 2b bd 65 0d 94 3c a7 58 52 bd
       0.065668836 -0.04191539 0.018072793 -0.051354077
0002c0 72 5f 96 3c b4 2e 2e bb be 2e a4 bd 86 64 06 bd
       0.018356059 -0.002657813 -0.08016728 -0.03281071
0002d0 0d d7 3b bc f7 d0 e8 3d d7 cd 30 bd af d6 19 3d
       -0.011464846 0.11367982 -0.043165054 0.037558254
0002e0 63 91 79 3d cf 75 18 3d 99 e9 fe 3c 87 44 25 bc
       0.060929667 0.037221726 0.031117247 -0.010087139
0002f0 fc 32 65 3d fc de 9c 3d bc c4 2f bd 6d 1b 4d bd
       0.055956826 0.076597184 -0.04291223 -0.050074983
000300 f5 8e 80 bd 79 dc de 3d b4 03 06 3e bc 99 8f bd
       -0.06277267 0.108818956 0.1308735 -0.070117444
000310 b5 1f 06 3e 9f 8e eb bd cb 27 8f bc c3 1c 21 bd
       0.13098033 -0.11501812 -0.01747503 -0.03933407
000320 cd b2 7d bd 96 5c e0 bd 0c 73 c9 3d 13 03 e9 3d
       -0.061938096 -0.10955159 0.098363966 0.113775395
000330 b0 7f 84 bd e0 5f 3f bd 6e ea 29 3d a6 ab 42 ba
       -0.06469667 -0.046722293 0.041483335 -0.00074260903
000340 f8 48 a9 bd 14 d2 b1 bd 0b 22 c9 bd 32 68 e7 bd
       -0.08265871 -0.08682647 -0.09820946 -0.112991706
000350 14 54 22 bd 10 5d aa bd e3 96 f4 bd 06 eb d3 3d
       -0.039630964 -0.083185315 -0.11942842 0.103475615
000360 00 ef eb 3d 86 e7 8a 3d 20 8f 15 3d 0d d9 f0 bd
       0.11520195 0.06782441 0.036513448 -0.11760149
000370 97 b1 ce 3d 19 3d d8 bd 0c e1 bd bc 33 b1 b1 3d
       0.10092466 -0.105585285 -0.0231786 0.08676376
000380 f8 51 2e bc a1 4f ec bd 7d 99 91 bc 22 de 40 3c
       -0.01063966 -0.115386255 -0.017773384 0.011771711
000390 e2 10 43 bd 88 b7 8c 3d 5e 5b c6 3d 92 dd 96 3d
       -0.047623523 0.06870943 0.09685396 0.0736648
0003a0 8a b0 94 3d 81 b9 78 3d a5 6d a7 bd 2c cd 84 3d
       0.07260235 0.060723785 -0.0817521 0.06484446
0003b0 29 23 4f bd f8 e1 c0 bc fb fd cc bd fc 34 db 3c
       -0.05057064 -0.02354525 -0.100093804 0.026758663
0003c0 de 9e eb bc 01 cf e1 3d b4 99 20 3d ec 89 2e 3d
       -0.028762277 0.11025811 0.039209083 0.042612
0003d0 c9 2a d5 3d 35 8c ad 3d a7 75 4b bd d1 80 f8 3c
       0.10408551 0.08474008 -0.04967275 0.030334862
0003e0 d3 bf 31 bd 60 46 cd bd 0e c6 c5 3d d8 9c 8f bd
       -0.04339583 -0.100231886 0.096569166 -0.070123374
0003f0 5f 33 4c bc 9e 75 a4 bc 32 7f ca bd 04 aa 8e bd
       -0.01246342 -0.020075615 -0.09887542 -0.06966022

lstm.bias_hh_l0 f4 [256]
000000 cd 37 8c 3d 4a fd 38 3d 88 a1 fa 3c d3 cf e5 bd
       0.06846581 0.04516343 0.030594602 -0.1122128
000010 f6 79 e7 3c 2c d0 a8 3d 68 5b ae bd d3 a9 be bd
       0.028256398 0.08242831 -0.08513528 -0.09309735
000020 8b e3 af 3d a3 1a be bd e3 fa 46 3d 53 aa e1 3d
       0.08588322 -0.09282424 0.048579108 0.11018815
000030 65 70 f7 bc 9d 2f 8e bc 7b dd b0 bd 8c 7b b6 bd
       -0.030204961 -0.017356688 -0.08635994 -0.089102834
000040 9d 74 8d 3d f3 06 1c 3d 80 02 9e 3c 74 6a dd 3c
       0.06907008 0.038092565 0.019288301 0.0270283
000050 62 90 19 bc 71 ff f4 3d ee 3f c8 3b 94 2a b3 bd
       -0.009372802 0.11962784 0.0061111366 -0.087483555
000060 e0 30 e3 3d 8d 82 04 bd 99 43 c8 3d a1 ca b1 bd
       0.110933065 -0.032351065 0.09778518 -0.086812265
000070 9e 15 90 3d 6c 0d 29 3d 07 8f be bd c1 71 a7 3b
       0.07035373 0.041272566 -0.09304624 0.005109996
000080 7e e0 ce 3d ab cf cf bd 67 78 d3 bd af 2b a6 bd
       0.10101412 -0.101470314 -0.10325699 -0.08113801
000090 0d f3 64 bd a5 ee ab 3d 35 86 d5 3d 64 9d b8 3d
       -0.055895854 0.08395127 0.104259886 0.09014395
0000a0 41 15 fc 3d a5 3c ae bc 58 cb 04 be 2a 44 de 3d
       0.12308741 -0.021269152 -0.12968194 0.10852845
0000b0 af b8 8f bd 16 32 c7 bd 62 96 99 3c 37 01 d7 3d
       -0.070176475 -0.0972635 0.018748466 0.104982786
0000c0 64 01 86 3d dd 7f 8d bd 2f 93 c8 3d 29 98 ea bd
       0.06543234 -0.069091536 0.09793698 -0.114548035
0000d0 d7 4e ab bc 84 6f 1d 3d ad e9 0d bd f2 e4 d9 3d
       -0.020911617 0.038436428 -0.03464668 0.10639371
0000e0 86 bd 38 3d 60 71 fc bc c1 a1 d5 3d 0a 6c db bd
       0.04510262 -0.03081578 0.10431243 -0.10713966
0000f0 31 ed 0f 3d e0 ee a2 3d 3a f1 80 3d 7d 14 18 bd
       0.035138313 0.07955718 0.0629601 -0.037128914
000100 32 0d 87 bc 6d 89 bf bb d9 c4 f5 3d e6 b7 27 bc
       -0.016485784 -0.00584524 0.12000436 -0.010236716
000110 29 da 6d bd 31 87 c4 3c 91 6a eb 3d 0b 22 80 3d
       -0.058069382 0.023990246 0.11494935 0.06256493
000120 4e ca 34 bd 5a 57 ca 3d 0c ee f3 3d a0 69 c9 3c
       -0.044138245 0.09879942 0.11910638 0.024586499
000130 98 bd ec 3d 2d fe 9a bd 46 7c b6 bd 0c 2d a9 bc
       0.115596 -0.075680114 -0.08910422 -0.020651363
000140 c5 5a e1 3d f2 2e 8c 3d fd 5f 10 3a f1 89 64 3d
       0.11003641 0.068448916 0.00055074674 0.055795614
000150 14 db 9e bd 1b 1c bd bd e8 d9 01 be c6 8a a9 3d
       -0.077566296 -0.09233876 -0.12680781 0.08278422
000160 97 42 e5 bd 3a 25 d7 bd 61 98 92 ba b7 55 1f 3d
       -0.11194342 -0.10505147 -0.0011184328 0.038900103
000170 37 38 8a bd dc 4a eb bd b4 24 be bc 9b 82 d8 bd
       -0.067490034 -0.11488888 -0.02321086 -0.10571786
000180 9d c1 2a 3d 5d 37 88 bd d7 29 32 3c 2b cf f8 bd
       0.04168855 -0.06651185 0.010874233 -0.12148889
000190 8b df 9a bd c0 41 58 bd 04 6e 0d bd 70 96 90 bc
       -0.07562169 -0.05279708 -0.034528747 -0.01764986
0001a0 f6 65 81 bd fe 6b 03 3d cc d2 8c bd a3 b5 b2 bd
       -0.06318276 0.03208541 -0.06876144 -0.08726051
0001b0 db 02 0d 3d 8e 4d eb 3d ef 73 b3 3d 65 cd bc 3d
       0.03442655 0.11489402 0.08762347 0.092188634
0001c0 a7 46 5a 3d 47 67 ae bd dd fb 72 bd 11 95 17 bd
       0.053290036 -0.08515792 -0.059322227 -0.037007395
0001d0 1c 7a 97 3d a8 72 ce 3d 0b e9 7c 3d c2 23 75 bd
       0.073963374 0.10080463 0.061745685 -0.059848554
0001e0 0a 14 f6 bb 5c 2c c4 3b 08 ac 31 bc 29 de e5 bc
       -0.007509713 0.0059867334 -0.010844238 -0.028060036
0001f0 82 a9 b0 bd a9 7d 92 3d a5 fd ce 3d 56 da e9 3d
       -0.08626081 0.07152874 0.101069726 0.114185974
000200 c5 29 42 3d c1 d8 dc bd dc 24 d4 3d ce 57 cd bd
       0.047403116 -0.1078353 0.10358593 -0.10026513
000210 82 cd b8 bd 4e 10 bb bd 40 ae d2 3d e4 21 14 bd
       -0.090235725 -0.09133969 0.10287142 -0.036165133
000220 5e 9c 8e bd 38 ea ab 3d 9f cc 9e 3d ab c7 1f 3d
       -0.069634184 0.08394283 0.07753872 0.039008778
000230 fd 30 bd 3c b3 ce 8e 3d 75 0a 7d 3d 5f e4 4e bd
       0.023094648 0.069730185 0.06177755 -0.05051076
000240 7c c0 6a 3c 67 f1 1d 3d 2c 0c 75 bd ba bf 7f bd
       0.014328118 0.038560297 -0.05982606 -0.062438704
000250 38 80 b7 3d d7 0b dd bd 33 b7 2d bc e2 7d 8a bd
       0.08960003 -0.10793274 -0.01060276 -0.067622915
000260 aa c5 61 3d d1 41 c4 3c 50 54 4d bc 58 03 f7 bb
       0.055120148 0.023957165 -0.012532309 -0.0075382404
000270 8b 22 b9 3d ca 6b 34 bc ce 51 df 3c 84 62 1a 3d
       0.09039792 -0.011012027 0.027260687 0.037691608
000280 7c 79 07 bd 7b 9a 3e 3b 66 fb 64 bd 09 60 12 3d
       -0.03307484 0.0029083777 -0.055903815 0.035736118
000290 3a 1b e4 3d ba 51 c0 3d 49 42 85 bc 0b 8a 8d bd
       0.111380056 0.09390588 -0.016266959 -0.06911095
0002a0 33 f0 06 bd da 36 2f bd 08 af e6 bd df 54 92 bd
       -0.032943916 -0.04277692 -0.11263853 -0.07145094
0002b0 e6 f3 ff bd c5 7e f7 3d 59 0e ea bd ab ec 4a bd
       -0.12497692 0.12084726 -0.11428518 -0.04954211
0002c0 69 97 3e bd 12 7f 52 3c 9e a7 b8 bd d4 ad ed 3c
       -0.046531115 0.012847679 -0.090163454 0.029013552
0002d0 cd 30 26 ba 7f b5 cf 3d 4c 4b c6 bd 39 98 80 3d
       -0.00063396693 0.101420395 -0.096823305 0.06279034
0002e0 35 d5 39 bd 26 09 fa 3c cd a6 9a 3d 7a 09 7b bd
       -0.045369346 0.03052194 0.07551346 -0.061288334
0002f0 0a ca c1 bd c2 c0 9c bd c4 b4 7e bd fe c2 39 3c
       -0.09462364 -0.07653953 -0.06218411 0.011337994
000300 b9 b6 b2 bd ea 56 27 bd 6f ca 9a 3d 71 aa 67 3d
       -0.08726258 -0.040854372 0.075581424 0.05655903
000310 cb 5e 8d bc 10 d9 48 3d f9 ec 90 bd 22 2e c8 3d
       -0.017257115 0.049035132 -0.07076449 0.09774424
000320 21 8f cb 3d e4 7f be bd a9 a0 56 bd 61 5a a1 3d
       0.09939409 -0.09301737 -0.05239931 0.078785665
000330 bb 0f 5f bc 01 3f 9f 3d 86 7c 30 3c 31 11 07 3d
       -0.01361459 0.07775689 0.010771876 0.03297538
000340 0a 1a 87 3d 62 d4 ff 3c a9 7b c4 bd 24 18 ac 3d
       0.065967634 0.031229202 -0.09593899 0.08403042
000350 99 66 ee bd c9 d0 b7 bc df f2 ef bc ec 7e ee 3d
       -0.11640663 -0.022438424 -0.029290615 0.11645302
000360 8c fe 4c 3d 07 11 72 3d f0 41 e2 ba 4d a4 e3 bd
       0.050047442 0.05909827 -0.0017262083 -0.11115322
000370 53 f0 99 bd 7f ef 7e 3d 20 82 83 bd 97 cf 03 3d
       -0.07516541 0.06224012 -0.06421304 0.032180395
000380 78 8d 03 3e 7d e1 16 bd 36 c9 25 3d 82 07 ad bd
       0.12846935 -0.036836136 0.040475093 -0.084486976
000390 4c c2 92 3b 58 7b 70 3d 65 4e 99 3c 6e aa 94 3d
       0.0044787284 0.05871138 0.01871414 0.072590694
0003a0 9f a4 05 3c 85 3a 3e 3c 1f 06 b9 3d be 87 62 3d
       0.0081569245 0.011610632 0.09034371 0.055305235
0003b0 82 38 36 bc d1 db 03 3c d1 67 ab bd e9 26 7d bd
       -0.011121871 0.008048014 -0.08369411 -0.061804686
0003c0 1a bd 8d 3c 95 42 20 bd 20 1a 96 bb e1 84 f7 3d
       0.017302085 -0.039125998 -0.004580751 0.120858915
0003d0 33 9e a2 3d 67 e0 a5 3d f2 30 05 3b 94 f5 3c bd
       0.0794033 0.08099442 0.0020323363 -0.04613264
0003e0 2b 62 5e bd b4 ed d6 bd bf 53 c4 bc 16 40 e7 bd
       -0.05429284 -0.10494557 -0.023965714 -0.1129152
0003f0 91 7e bf 3d 8c 42 05 3e 06 7c b5 3d 5e 09 e8 bc
       0.093503125 0.13013667 0.08861546 -0.02832478

lstm.weight_ih_l1 f4 [256, 64]
000000 a0 25 b2 bd 67 be 93 bd bc 39 d7 3c a6 11 f6 bd
       -0.08698583 -0.07214051 0.026272647 -0.12015085
000010 1c ca c3 bd 4c 38 ed b9 dc 0a 2a 3d 77 b9 da 3d
       -0.09560034 -0.00045246107 0.041514263 0.10679906
000020 8a 8f 9f bb fd f5 92 3d fb 60 c1 bd d4 e5 c8 bd
       -0.004869406 0.07175825 -0.09442326 -0.09809461
000030 6f f8 cc bd e4 be 90 3d 29 ba c7 3c 63 f9 ed 3d
       -0.100083224 0.070676595 0.02438076 0.11619832
000040 7a 21 fd bd a5 b9 cb bd 12 30 87 bd 94 b0 d7 3d
       -0.12359901 -0.09947518 -0.066009656 0.105317265
000050 e8 fe f7 bd d7 7e 11 3d 59 8e 4b 3d cb 23 c4 3d
       -0.121091664 0.035521355 0.0496963 0.095771395
000060 4e 28 f4 bc 75 b3 ac bc c4 01 24 bd 68 35 0f bd
       -0.029804375 -0.021081666 -0.040040746 -0.03496304
000070 50 63 03 be d5 ae cb 3d bf c6 e1 bd 22 49 81 bd
       -0.12830853 0.09945456 -0.11024236 -0.06312777
000080 61 58 34 bd b8 d6 40 3d f1 f1 d9 3d fc 49 9a 3d
       -0.044029597 0.04707977 0.1064185 0.07533643
000090 22 f0 f7 bd 04 96 1b bd 74 db 00 bd 60 7a d7 3d
       -0.121063486 -0.037984863 -0.031459287 0.10521388
0000a0 c1 32 4f bd 7e 1d a9 3c 6e c4 ba 3d f6 e5 fa 3d
       -0.050585512 0.020643946 0.09119497 0.12250893
0000b0 d9 6b 90 bd b2 a3 32 3d fe 9f a1 bc eb 3f 39 ba
       -0.0705182 0.043613143 -0.01972961 -0.00070667145
0000c0 3d 7a 60 bd fe 90 a8 bd 70 de 92 bd 0e 6d 05 3c
       -0.054804076 -0.0823078 -0.07171333 0.008143676
0000d0 aa 9f b0 3d 2b 9b 5c bd 7a 52 e1 bd 44 40 fe bb
       0.086242035 -0.053858917 -0.11002059 -0.007759126
0000e0 1a 5b 58 bc e4 d8 0d bd db f9 fd 3d e3 25 03 be
       -0.013205314 -0.03463067 0.12401172 -0.12807421
0000f0 a6 4c 29 3d 28 97 51 bd 8a 6e b4 3c 3c 56 33 bd
       0.041332863 -0.051169544 0.022025365 -0.04378341
000100 68 55 55 3c e3 53 f9 bd f2 cb a0 3d 08 db 20 bd
       0.013020851 -0.12174203 0.078513995 -0.039271384
000110 91 86 38 bd 94 d1 28 bc d7 ea 0c 3c d8 8d d7 bd
       -0.045050208 -0.010303874 0.008600912 -0.105251014
000120 94 9d 92 3d 45 08 17 bc af 1a fb 3d 1e 94 a5 3d
       0.07158962 -0.00921828 0.12260949 0.08084892
000130 d4 43 b5 bd 8a 54 53 bd d5 ba a9 bd 8b 52 7e 3c
       -0.08850828 -0.051594295 -0.082875885 0.015522609
000140 68 01 7d 3d 73 10 02 bc 74 c5 49 3d 88 5a 94 3d
       0.06176892 -0.007938492 0.04926057 0.0724383
000150 c4 93 82 3d 57 8a ec 3d 69 82 7b 3d 0a f7 b1 bd
       0.0637584 0.11549824 0.061403666 -0.08689697
000160 ef 63 c8 3b 4e 68 ad 3d 7d b6 03 3d 33 a9 94 bd
       0.0061154286 0.0846716 0.032156456 -0.07258835
000170 24 ce bb bd f3 49 34 3d e5 7c ae bd 77 55 33 3b
       -0.091701776 0.044015836 -0.085199155 0.0027364173
000180 fc cd 75 bd af bd c0 bc 79 5e c2 bb e1 bb ec bd
       -0.060010895 -0.023527948 -0.005931672 -0.115592726
000190 7e 3d b0 bd eb 75 2a bd 12 63 c7 3d 54 08 78 3c
       -0.08605479 -0.04161636 0.09735693 0.015138704
0001a0 c9 43 3f bc 50 19 01 3e f0 fd e7 3d 2d 47 80 bb
       -0.011673876 0.12607312 0.113277316 -0.003914735
0001b0 11 f1 81 3c 6a 71 af bd d6 da 53 bd b9 68 c7 3c
       0.01586202 -0.08566554 -0.05172237 0.024341928
0001c0 f1 0f 0a 3d 1b 2a 97 bc 57 73 9f 3d f8 77 ed bc
       0.03370661 -0.018452695 0.07785671 -0.02898787
0001d0 8f bf c4 3d 8b 9f 39 3d 13 2c 0b bd da cb 95 bd
       0.096068494 0.045318168 -0.03397758 -0.07314272
0001e0 18 9c c7 3d 44 75 dc bd 61 2a d4 bd 81 bd e2 bd
       0.097465694 -0.10764554 -0.10359646 -0.11071301
0001f0 be 0c 80 3b 01 51 d3 bd 46 57 7e bd fe 10 6d bd
       0.003907769 -0.10318185 -0.06209495 -0.057877533
000200 7c b4 1b bd 56 e3 7b 3d dc 13 e0 3d 55 cb ba 3b
       -0.03801392 0.0614961 0.10941288 0.0057005086
000210 1e 51 45 3d 3f fc b8 3c 9e 44 97 3d c3 b7 40 3a
       0.048173063 0.022581218 0.073861346 0.00073516014
000220 90 58 a8 bd 67 83 c4 bd 91 38 12 bd f5 9b bd bd
       -0.08220017 -0.095953755 -0.035698477 -0.09258262
000230 2a 9e ce bd 17 3b 13 3d b2 1f fb bc 53 1f e4 bd
       -0.10088761 0.035945024 -0.030654762 -0.11138787
000240 7f b7 ac 3c d1 a8 b5 3d 1b fa 43 bd e5 ff cc 3d
       0.021083592 0.0887009 -0.04784594 0.100097455
000250 ef ef b0 bd d4 9c d8 3d 33 4f f0 bd 62 f0 27 bc
       -0.08639514 0.105767876 -0.11733856 -0.010250183
000260 e5 43 d1 bd f1 da bb 3d e3 3c 87 3d 32 70 78 bd
       -0.10218028 0.09172619 0.0660341 -0.060653873
000270 28 fa de 3a a9 47 fd 3c 63 03 fb bd d4 ca 84 3c
       0.0017011808 0.03091796 -0.12256505 0.016209997
000280 7e 0a 46 3c 57 69 c4 3d d6 68 d9 3c 1f a9 8a bc
       0.0120874625 0.095904045 0.026539247 -0.016926346
000290 a3 ce 17 3c fa 62 6e 3d aa 81 ea bd ca 6b ea bc
       0.009265575 0.05819986 -0.11450513 -0.028615851
0002a0 2b 4b 1d 3a 19 f2 39 bd 52 1a 17 bd f1 57 79 3c
       0.00060002756 -0.045396898 -0.036890335 0.015218721
0002b0 af ae 69 bd 23 a3 44 3d f8 74 a3 b8 ed 6a 45 bd
       -0.057051357 0.04800714 -7.794233e-05 -0.048197675
0002c0 9e fc 7f bd d2 31 46 3d 5c 78 c4 bc a1 e6 31 bd
       -0.062496774 0.048387356 -0.023983173 -0.043432835
0002d0 b7 3a b8 bd ea 27 17 3c 80 f1 e7 bd 95 65 f9 3c
       -0.08995574 0.009225825 -0.11325359 0.030443946
0002e0 d4 cd 3f 3d 9d 28 c0 bd e4 1b 0e bd 56 dc 37 3a
       0.046827152 -0.09382746 -0.034694567 0.00070137286
0002f0 2b b7 84 bd 2e bc d4 3d ef a2 41 bd 53 9b a7 bd
       -0.06480249 0.10387455 -0.047274526 -0.081839226
000300 ed 0f 74 3c 5b 2a 10 3d a4 5d 46 3a 49 93 7e bd
       0.014896375 0.035196643 0.0007567054 -0.06215218
000310 f9 dc c8 3d fb a2 ee bd 92 8f 1f 3d a5 8e 48 3c
       0.09807772 -0.1165218 0.03895528 0.01224104
000320 c9 b0 be 3c 19 10 cf 3d 78 cc 03 3d 32 f3 f7 b9
       0.023277657 0.10110492 0.03217742 -0.00047292706
000330 cc 54 52 bd 27 f8 f8 bd 3d 91 c1 3d 50 02 b4 3c
       -0.0513504 -0.12156706 0.0945153 0.021973759
000340 2c 23 63 bd 8a 9e 20 bd f3 54 42 bd 2e ea 40 ba
       -0.055453464 -0.039213695 -0.047444295 -0.0007359114
000350 05 1f da 3d 75 9a d9 bd c6 7a e7 bc e5 17 1b bc
       0.10650448 -0.106251635 -0.028256785 -0.009466146
000360 26 95 56 3d c3 37 48 bd 3e 5a b5 3d 75 f1 4d 3d
       0.052388333 -0.048881304 0.08855103 0.0502791
000370 85 d0 48 3d 25 7b 04 be 1a d0 03 3d 53 21 5d bd
       0.049026985 -0.12937601 0.032180883 -0.05398686
000380 94 62 d2 3d 87 5e 75 bd bb b5 fb bd a8 59 68 bd
       0.102727085 -0.0599046 -0.12290522 -0.056726128
000390 35 b2 a5 bd ad 08 e3 bd 3c 9b ab 3d bd 03 ad bd
       -0.08090631 -0.11085639 0.08379218 -0.08447979
0003a0 c3 09 3b 3d 65 6e d1 bd 0a 9b 76 3d d9 8b f3 bb
       0.045663606 -0.10226134 0.06020645 -0.0074324426
0003b0 78 f0 4f bd b6 48 9d 3d eb f1 da 3d 91 ce 40 3d
       -0.05076644 0.07679884 0.106906734 0.047071997
0003c0 c5 23 9c bd aa ee da 3d bc df 04 3e ba 20 10 3d
       -0.0762401 0.10690053 0.12975973 0.03518746
0003d0 28 b3 d3 3c 11 49 7b 3d ba 63 54 bd 23 6a c2 bb
       0.025842264 0.06134898 -0.05185292 -0.0059330626
0003e0 42 1b ed 3d 04 a0 98 3c 1a ef 6b bd bc 25 01 be
       0.11577465 0.018630989 -0.057601072 -0.12612051
0003f0 e7 41 e9 3d de 74 4c 3b 8c 5f 9b bd 39 9f 38 3d
       0.11389523 0.0031197588 -0.075865835 0.04507372

lstm.weight_hh_l1 f4 [256, 64]
000000 1d 92 8c 3d c8 38 01 3e 57 25 d8 bd 53 2a 98 bd
       0.068638064 0.12619317 -0.10553997 -0.07429948
000010 14 6e b7 bd 2e ac 26 3d 25 2c 8a bc c5 3c 10 bd
       -0.089565426 0.040691547 -0.016866753 -0.035214204
000020 51 ab f9 3d 7f 3d 07 be e7 35 f9 bd f0 c8 6a 3d
       0.12190879 -0.13207053 -0.12168484 0.057320535
000030 b6 fd cd 3d ff 56 bb 3d a2 17 c2 bd e6 a3 a1 3d
       0.10058157 0.091474526 -0.09477164 0.07892589
000040 a1 96 a2 3d fa 36 8f bd 20 29 1d bd d2 1b 35 3d
       0.079388864 -0.06992908 -0.038369298 0.044215985
000050 46 c3 9b 3d 58 ec e9 bd 5f 50 c9 bd 33 1e 31 bc
       0.07605605 -0.11422032 -0.09829783 -0.010810423
000060 b0 d4 2c bb ed 60 29 3d f0 ab d2 bd d8 3a 9d 3d
       -0.0026371889 0.0413522 -0.10286701 0.07677239
000070 b7 09 a9 bd 16 7a a4 3d c8 6f 96 3d 9d 0d 1e 3d
       -0.08253806 0.080310985 0.07345539 0.0385872
000080 b4 48 d5 bd 7b 98 bb 3d 55 85 f1 3c 45 13 4d 3d
       -0.10414258 0.09159943 0.029482523 0.050067205
000090 2f be 20 bb e0 cc 78 3d 8f 31 2a 3b 9b 3e 00 be
       -0.002452742 0.06074226 0.002596948 -0.12523882
0000a0 ca b8 ab 3b 72 d0 2d bc 63 db e8 3c b0 23 cd bd
       0.0052405344 -0.010608779 0.028424924 -0.100165725
0000b0 ad 27 b5 bd 60 60 23 3d a7 2b af 3b de 08 f6 3d
       -0.08845458 0.039886832 0.00534578 0.1201341
0000c0 cf 2e ad bd 1b 2a 3a 3d 9c cc 5d 3d 02 50 b6 bd
       -0.08456194 0.04545031 0.05415021 -0.08901979
0000d0 81 a8 b8 3d ce 76 6d ba f8 61 e9 bd 7b 1d fe bd
       0.090165146 -0.0009058536 -0.11395639 -0.12407967
0000e0 0c b7 c0 3d 38 31 28 3c 1b e4 89 bd 27 77 bc bd
       0.094099134 0.010265641 -0.06732961 -0.09202414
0000f0 20 86 d7 bd 3b 08 53 3d 55 69 d3 bd ed 7d 81 3d
       -0.10523629 0.05152152 -0.10322825 0.063228466
000100 cd 88 bc 3d f5 5c 8d 3c 4c 4d b7 3d 81 d7 5c bb
       0.0920578 0.01725624 0.0895029 -0.0033697786
000110 bb ce ae 3d 1e c9 f3 3d 77 aa 91 bc 3a 18 48 bd
       0.085355245 0.119035944 -0.01778148 -0.04885123
000120 3d 3c 38 3d 7b 19 d6 3d 70 cb 25 3c 98 ce 80 bc
       0.044979323 0.10454079 0.010119304 -0.015723512
000130 19 1a 97 bc 6a 18 8b bd 88 ca 8a bc 45 79 41 3d
       -0.018445062 -0.06791766 -0.016942278 0.047234792
000140 d5 c7 9c 3d 65 98 c1 3c ec 0c f3 39 65 3f 7f 3d
       0.076553024 0.023632238 0.000463582 0.062316317
000150 0e e6 dc bd 0a f0 5e 3d a9 6f a4 3c 5b 85 84 3c
       -0.10786067 0.054428138 0.020072775 0.01617687
000160 6f 4c 36 bd 3c d5 f9 bd c2 42 dd bd c9 b2 e8 3d
       -0.044506487 -0.12198874 -0.10803749 0.113622256
000170 48 ad e6 3c 42 b5 9d 3d d1 87 ea 3d f5 d6 9e bd
       0.028158799 0.07700588 0.11451686 -0.077558435
000180 5e 1c da 3b 46 73 ba bd 14 e4 3d 3b 57 b6 c4 bd
       0.0066562137 -0.09104018 0.0028975056 -0.09605091
000190 6e f1 98 3d 69 09 d4 bd f6 d8 d8 3d d4 29 12 3d
       0.07467924 -0.10353357 0.10588257 0.03568442
0001a0 7b f7 8d bd f0 07 d9 3d 4d 75 33 3d 51 4d b9 3d
       -0.06931969 0.10597217 0.04381304 0.0904795
0001b0 2e 12 c6 3d bc 13 c3 bb c6 89 6a bd 17 f0 eb bd
       0.09671436 -0.0059532803 -0.057260297 -0.11520403
0001c0 0c fe 98 bd d3 a2 ab bc 68 5c f1 3d 37 11 b2 ba
       -0.074703306 -0.020951664 0.11785203 -0.0013585453
0001d0 b6 21 92 3d 31 1b c3 bd 0b 1d 99 bd 6a 1e c8 3c
       0.07135336 -0.09526671 -0.07476243 0.024428565
0001e0 db a0 34 3d b9 c2 06 3d 03 51 74 bd 76 65 72 bd
       0.044098716 0.032900546 -0.05964757 -0.059178792
0001f0 69 bc 22 3d 1a 5e cb bd 23 e9 a4 3d 8f 75 c9 bd
       0.039730463 -0.09930058 0.0805228 -0.09836876
000200 62 21 e1 bd c9 71 69 3c 6e da ef bd 01 27 2f 3d
       -0.109926954 0.01424832 -0.11711584 0.042761806
000210 1a 12 07 3c 51 08 94 3d 34 67 a7 bd 9a d2 bb bd
       0.008244062 0.07228149 -0.08173981 -0.091710284
000220 8f f3 1d 3d 38 8d 0a bd e0 82 2a 3d b0 6e b9 3c
       0.038562354 -0.033826083 0.04162872 0.022635788
000230 49 d7 cc bd d5 cf 01 bc e8 52 97 3d 7e 87 58 3d
       -0.10002 -0.007923086 0.0738886 0.05286359
000240 49 ea dc 3d 70 a5 b7 bc 3e f4 5b 3d 73 93 11 bd
       0.10786874 -0.022417754 0.053699724 -0.03554101
000250 4d 46 54 3d 6c 42 9e bd 9d d4 b6 bc 7a 63 eb bb
       0.051824857 -0.07727513 -0.022318179 -0.0071834894
000260 09 ac 37 3d 08 07 7b 3d 53 3e 26 bc 13 c4 bd 3d
       0.0448418 0.061286002 -0.010146695 0.09265914
000270 d2 ae bc 3d 56 d8 82 bd 01 63 3c 3d a3 28 c9 3d
       0.09213032 -0.06388919 0.045992855 0.09822204
000280 f6 41 ad bd 44 87 d7 3c b0 98 1a 3d fe 60 ac 3d
       -0.08459847 0.026309617 0.03774327 0.08416937
000290 b0 af f9 bc 76 fd e6 bd 0f 78 fe bc 18 a1 66 3c
       -0.030479282 -0.112788126 -0.031063108 0.014076494
0002a0 a5 22 b0 3d c8 ac 99 bd 06 64 14 3d 97 e1 0c bd
       0.08600358 -0.075036585 0.036228202 -0.034394827
0002b0 1f ad 6c bd 1b 65 e6 bd 26 ab f9 3c 4d 0e 31 bd
       -0.05778229 -0.11249753 0.030477118 -0.04322653
0002c0 21 d3 02 3d a4 13 a3 bc b4 14 07 bb a2 e0 3d 3b
       0.03193963 -0.019906826 -0.0020611705 0.0028973003
0002d0 30 a5 c3 bc 57 bf b0 3d 71 ab a7 bd 58 b4 07 3d
       -0.023882478 0.08630245 -0.08186997 0.033130974
0002e0 80 55 d0 bd b8 06 78 3d 79 cb 01 bc 83 47 36 3c
       -0.10172558 0.060553282 -0.007922047 0.011125448
0002f0 69 ca 98 bd 3b 1e 52 bd cb 9b f6 bd e7 6f f4 3d
       -0.07460482 -0.05129836 -0.12041434 0.11935406
000300 01 1e 1e 3c 4b 2b 1f bd 53 80 94 3d ff 35 33 bd
       0.009650708 -0.038859647 0.072510384 -0.043752667
000310 73 0e 35 3d 50 ef 46 bb f6 94 5d bd 59 b1 9b bc
       0.044203233 -0.0030355044 -0.05409714 -0.019005464
000320 e1 0f 8e 3d ca 7f 69 3d 8b 14 47 bc 94 c1 01 be
       0.069366224 0.057006635 -0.012150894 -0.126715
000330 4e 23 04 bd 2c 27 a2 3d 22 3d 15 bc ea 01 91 3d
       -0.03226023 0.07917628 -0.0091088135 0.07080443
000340 6d 31 8d bd 32 4e 84 3d 55 6c 06 bd f6 0a a4 bd
       -0.06894193 0.06460227 -0.032818157 -0.08009903
000350 b8 a5 1c 3c dd 66 68 bd fb 2e a4 3d e0 56 03 bd
       0.009560995 -0.056738723 0.08016773 -0.032065272
000360 43 46 ea 3d f0 f3 c0 3d cf 52 eb 3d af c2 28 bd
       0.114391826 0.094215274 0.11490404 -0.04120129
000370 5e bf 25 3d ba 84 11 3d ff 64 b9 3d 60 80 f2 3d
       0.040465705 0.03552697 0.090524666 0.11840892
000380 63 97 6b bd a6 ef b6 bd 04 25 47 3d ed 90 78 bc
       -0.05751742 -0.08932428 0.048619285 -0.015171272
000390 85 3d 23 3d c4 2f a4 bd 02 c9 de 3d 81 90 6d bd
       0.03985359 -0.08016923 0.10878183 -0.057999138
0003a0 0b 65 40 3c 91 81 96 3d 89 e4 38 bc 29 cd e7 3d
       0.0117428405 0.073489316 -0.011284956 0.11318428
0003b0 fd e1 9f 3d 0c 40 93 3d ac 10 58 bc 69 db 6e bd
       0.07806776 0.0718995 -0.013187569 -0.058314715
0003c0 1b 96 c9 3d 12 0d e1 bd 05 b4 14 3d d8 b0 d4 bd
       0.098430835 -0.10988821 0.036304493 -0.10385293
0003d0 61 b5 c0 3d f3 9b 5c bd be 99 84 bb b4 34 af bd
       0.09409595 -0.053859662 -0.004046648 -0.08554974
0003e0 2e f7 b7 bc fa 0e 6f 3d 25 ac 62 bd 81 df 41 3d
       -0.022456732 0.058363892 -0.05533995 0.04733229
0003f0 5b 7f 0f bd c9 74 b8 bd 1b 57 e1 bd 23 23 3b 3d
       -0.035033565 -0.0900665 -0.11002942 0.045687806

lstm.bias_ih_l1 f4 [256]
000000 5e 5c 4e 3b b8 99 be bd 63 cf 02 bd 2f da a1 3d
       0.003148816 -0.09306663 -0.03193606 0.07902943
000010 05 ce 4a bd ff fd dc bc 6c 51 df 3d f2 a1 23 bd
       -0.04951288 -0.026976584 0.10904202 -0.039949365
000020 bf 95 b0 bc 76 8d e4 bc 08 ef 7b 3d ab d4 16 3d
       -0.02155578 -0.027899485 0.061507255 0.03682391
000030 d5 ff 3d bd 4a 1b fe bb 4a b5 79 3b bf ab 4d 3c
       -0.04638656 -0.007754718 0.0038102441 0.0125531545
000040 f0 32 e4 3d b0 ea 86 bd 26 e4 af bd a9 f6 94 bd
       0.11142528 -0.06587732 -0.08588438 -0.07273609
000050 b9 a8 6b 3d bf 37 00 3e d4 f6 d5 3d 73 d6 80 3d
       0.057533953 0.12521265 0.10447469 0.06290903
000060 d6 be e8 ba e7 c8 10 bd 2a 65 aa 3c 11 04 f4 3c
       -0.0017757069 -0.035347845 0.020800192 0.029787095
000070 fc 52 26 bd 4a 31 1d bd c5 bc 96 bd 5f e7 59 3d
       -0.040606484 -0.038377084 -0.07360224 0.05319917
000080 c7 12 bb 3d f5 56 bf ba b8 29 11 bd a4 ff 9c bc
       0.09134441 -0.0014598059 -0.035440177 -0.019164868
000090 bb 28 fe bc 1e 52 bc bd 06 87 62 3c 42 23 25 3d
       -0.031025281 -0.0919535 0.013826137 0.040316828
0000a0 6b 5b 42 3c fc d4 86 bb 21 ed 6c 3d 44 39 4f bc
       0.011862616 -0.004114745 0.05784333 -0.0126479305
0000b0 55 5d a4 3c 73 26 e6 3d 29 4f 10 3d 47 2f aa bd
       0.020064035 0.11237802 0.035231743 -0.08309799
0000c0 af 78 a4 bd a2 6b 9f 3d cd 3e a2 3d 75 86 d0 bd
       -0.08030831 0.07784201 0.079221345 -0.10181896
0000d0 e9 c8 95 bd 03 3a 09 3d 1e 82 d2 3d 37 1f 36 bb
       -0.07313711 0.03350259 0.10278724 -0.0027789602
0000e0 07 6f c2 3d 98 ff 05 be 06 d4 04 bd b8 ba c2 bd
       0.09493833 -0.13085783 -0.032428764 -0.0950827
0000f0 3f f0 00 bd 69 09 cc bd 07 1e 6e 3d a8 1d 3c bd
       -0.031479117 -0.09962732 0.058134105 -0.04592672
000100 77 f7 ec ba 22 80 a5 bd 54 32 e3 3d d6 ab a8 bd
       -0.0018079121 -0.0808108 0.11093584 -0.082359
000110 90 bb aa bd e4 1b 01 be 9d 41 ca bd ca 77 a9 3d
       -0.08336556 -0.12608296 -0.09875796 0.08274801
000120 f8 eb 9a 3d d6 0f e2 bd a1 5d 7c 3d 95 2c f2 bd
       0.07564539 -0.11038177 0.06161273 -0.118249096
000130 2c ec 64 3d 82 2f e3 bd aa 18 99 3d 54 4c be 3d
       0.055889294 -0.11093046 0.074754074 0.09291902
000140 a7 ac 12 bd 4e 3b 44 3d 33 9e c1 3b 5e e5 c4 bd
       -0.035809185 0.04790812 0.0059087514 -0.09614061
000150 aa 59 a3 bd bd 4f f1 3d 02 f3 48 3d 9f d7 18 3d
       -0.079760864 0.11782787 0.049059875 0.037315007
000160 75 fb d6 bd ae 7d f4 3d 36 7c 9c bd 0a 1a b8 bd
       -0.1049718 0.11938034 -0.07640879 -0.089893416
000170 8b af da 3a da f6 e8 3d d4 d5 ac 3d 00 a0 92 3b
       0.0016684396 0.11375208 0.08439222 0.00447464
000180 20 23 00 3e 9d ed 00 3e cb c0 11 3b 95 fe 33 bd
       0.12513399 0.12590642 0.0022240158 -0.04394396
000190 3c 8e c0 bd 08 c3 ea bb e1 4f b4 bc 1b e7 c7 bd
       -0.09402129 -0.007164363 -0.022010745 -0.09760877
0001a0 b6 18 57 bc 98 da 26 3d 88 a6 8c 3d a0 b0 f5 3c
       -0.01312845 0.04073581 0.06867701 0.029991448
0001b0 cc 30 ca 3d 0c 48 0d bd 85 22 5b 3d 3e 82 de 3d
       0.098725885 -0.034492537 0.053499717 0.108646855
0001c0 0b a8 80 3d 4b 34 3d bc aa 7c d7 3c b0 b2 03 3c
       0.06282052 -0.011548112 0.026304562 0.008038208
0001d0 fe a1 90 3d 07 81 95 3c 4b 14 bc bd 3f ce ad bd
       0.070621476 0.018250002 -0.09183558 -0.08486604
0001e0 78 e5 9f bd db cf 74 3d 43 74 ff 3d 6e 7d 4c bc
       -0.078074396 0.05976854 0.12473347 -0.012481077
0001f0 4d c5 57 3d df ad b6 bd c7 8d 90 3d 00 da 91 bd
       0.052678395 -0.08919882 0.07058292 -0.07121658
000200 74 ea fc ba c4 b6 13 3c 47 15 23 3d 46 6d b9 3d
       -0.0019295947 0.009015743 0.039815214 0.090540454
000210 b2 07 a5 bb f2 0f 64 3d 21 11 61 bd 76 cb 5c bd
       -0.0050363177 0.05567927 -0.054947976 -0.053904973
000220 c2 6c e0 bd 9e 1b a7 3d 83 e4 c0 3d c8 cf d8 bb
       -0.10958244 0.081595644 0.09418585 -0.0066165663
000230 13 be b5 bd e8 fc 38 3d 08 c5 f4 3d cd 3b 9d 3d
       -0.088741444 0.045163065 0.11951643 0.07677422
000240 f6 e1 e7 bd 4d 2b c3 3c 12 13 bf bb 5a 9c 59 bc
       -0.113223955 0.023824358 -0.005831131 -0.013281906
000250 98 03 0c 3d 56 54 47 bd 51 6c 78 3c 4e 46 ee 3d
       0.034183115 -0.048664413 0.015162543 0.11634503
000260 bb 51 1d 3d 7f a0 a5 3d 40 79 b6 3c d7 d0 94 3c
       0.038408022 0.08087253 0.022274613 0.018165989
000270 15 3c 6a bd ba d8 f7 bd 63 c2 3c 3d 32 67 62 bd
       -0.057186205 -0.12101884 0.04608382 -0.055274196
000280 0b ea 8c bd bf 41 8b bd ac a8 69 3d ca 9a 8b 3d
       -0.06880578 -0.067996494 0.057045624 0.06816633
000290 d9 3c 93 3d a2 bd 96 3d 50 aa f0 3d 22 ed c6 3d
       0.0718934 0.07360388 0.117512345 0.09713198
0002a0 e7 60 18 bd 02 4b f0 3b 58 92 2d bc 5f b9 96 bd
       -0.03720179 0.0073331604 -0.010593973 -0.073595755
0002b0 07 4c 0c 3d 2f 64 82 bd bb 9a ea bd 0b c0 89 3c
       0.034252193 -0.06366765 -0.11455294 0.016815206
0002c0 93 1b d7 3d f1 b1 a1 3d 02 1e 83 3d 20 f3 18 bd
       0.10503306 0.07895268 0.06402208 -0.037341237
0002d0 bc 5c af bd df 11 5a bd 67 31 d8 3d 77 48 04 bd
       -0.085626096 -0.0532397 0.10556298 -0.03229567
0002e0 2e 1b 0b 3c 5f e3 d0 3d 1b f9 db 3c c6 0b 6b bd
       0.008490367 0.101996176 0.026852181 -0.057384275
0002f0 2d 1a 89 bd dc 17 fc bd c0 ea d0 3c 3c 21 30 3d
       -0.06694446 -0.12309238 0.025502563 0.043000445
000300 9c 7d b7 bd d6 dd 3e bd 44 eb db 3d b6 0d bc bb
       -0.08959505 -0.046598278 0.10738233 -0.005738939
000310 93 33 a1 3d 2b ba 85 bd b9 ff a8 bd fd c8 52 bd
       0.07871165 -0.06529649 -0.082519 -0.05146121
000320 1a 41 53 bd 64 c6 2e bd ff 48 99 3d 61 a7 1c bc
       -0.051575758 -0.04266967 0.07484626 -0.009561391
000330 f9 6d d3 3d 35 da 49 bd ae 64 e5 bd 3e ce f7 3b
       0.1032371 -0.049280364 -0.11200844 0.007562428
000340 a2 9f 60 bd fb 2e 83 3c fe ac c0 3d 31 0c f7 3d
       -0.054839738 0.016013613 0.09407996 0.12062872
000350 0c 1e e8 3d fd 64 83 bd c6 6f a1 3c 55 9d b7 bc
       0.11333856 -0.06415746 0.019706618 -0.022413889
000360 56 b7 17 3a ca 9d 29 bd 46 67 d7 3c 18 ed b1 3d
       0.0005787512 -0.041410245 0.026294362 0.086878
000370 95 ca ce 3c 4f af fd bc 7e b9 c2 bc 76 fa 75 3d
       0.025243083 -0.030967383 -0.02377009 0.06005331
000380 57 c4 a9 3c 4c 95 3d bd 38 65 99 bd 85 15 80 3d
       0.020723505 -0.04628496 -0.07490009 0.062541045
000390 9e c9 3c bc 90 75 24 bd d5 48 bc bd 73 2d ae bd
       -0.011522679 -0.04015118 -0.09193579 -0.085047625
0003a0 07 3d e2 3d dc b2 a6 3d a0 de 7b bd d9 45 69 bd
       0.11046796 0.081395835 -0.06149161 -0.056951378
0003b0 ba fc 0b 3c 10 9f 84 3c 34 60 b9 bc c2 1b 37 bc
       0.008544141 0.016189128 -0.022628881 -0.011176052
0003c0 f0 01 83 b8 f3 1a 21 3d 56 32 80 bd 43 0c 71 bc
       -6.246928e-05 0.03933234 -0.06259601 -0.014712396
0003d0 4a f1 08 bd 07 7f 10 bd c1 f3 78 3d c1 6d 8c 3b
       -0.033433236 -0.035277393 0.060779337 0.0042855446
0003e0 3d 08 e4 bc f7 ec 91 3d 10 68 59 bd b2 8e fa bd
       -0.02783596 0.071252756 -0.053077757 -0.12234248
0003f0 90 9f 3c 3b 2b aa fa bc 80 ad 90 bd b9 02 14 3d
       0.002878163 -0.03059872 -0.070643425 0.03613541
