models/ETH_USDT_15m_model.pth (torch, 215477 bytes, 9 tensors)

lstm.weight_ih_l0 f4 [256, 10]
00000000: 752b 98bd 22da 99bd e256 3cbd b8f7 84bb
00000010: bea3 afbd 1e73 d6bd 3bc5 b1bc b2cc e93d
00000020: 4a1f cf3d 9725 d3bd 38f5 9a3c 7542 b5bd
00000030: 82eb a03d 4a7c 513c 8c7d 4f3d 2e11 e13d
00000040: 2dc5 03bd a062 f53b eec8 363d 1aaa 0e3b
00000050: ef6a ef3d 99e8 e8bc e1bb c83d c35c bb3d
00000060: c4f9 de3c 3055 41bd dd72 efbc 4a1b edbd
00000070: aee4 2e3d eba2 d43d d421 83bd a789 93bb
00000080: 1355 8fbd e28f b73d 34a0 83bd bdce 73bd
00000090: b420 5a3d 5b54 813c 29f3 5d3d a3ed cb3d
000000a0: cd78 a43d 56f9 843b c0db 2abd 84ec d03d
000000b0: 54a1 1fbd 05a0 9b3d ad01 81bd 384f 223d
000000c0: 857d 373d 725c d4bb 0f40 b83d c239 223c
000000d0: 3f2c 0a3d 8836 8bbd 67c0 e6bd e3fe 1c3d
000000e0: 4dd6 ccbd 0e80 123d a108 ea3c 72c6 623c
000000f0: 3ab5 8b3d 9454 68bd bd4f 803d 3348 633d
00000100: d73e 3bbd d3ab d13d 1b5c 14bc d105 2b3c
00000110: ff3b 5cbd 1b78 d1bd 48dd 813c af79 f93d
00000120: b3c9 843d 476f 283c b7f0 223d 28e7 2cbb
00000130: 9311 8bbd 40b7 b33d a624 8f3d 7282 e93d
00000140: 9421 91bb 7c03 6cbc f59a 833d e2ab 023e
00000150: b67c 35bd e957 a9bd f0b5 2f3d d19f 8a3d
00000160: 5e92 693d 1572 f0bc 1580 933c b87f 203b
00000170: 4b99 273d 7859 d03d b1fc 083e df42 2ebc
00000180: 7825 b1bd 001c 3a3d da49 65bc aaa3 b0bd
00000190: 996d db3c 5ab7 973d fbee 023e 8b71 e0bd
000001a0: c5a5 cbbd 223e 32bb f257 b2bc 4b37 313d
000001b0: 180b 843d 2e2b 13bd 4e2a 3b3c 4237 a33d
000001c0: d139 80bc 805e 92bd 579e 2fbd 1dd5 11bd
000001d0: 2550 0b3d cc31 e9bd 80e6 72bc ab16 873d
000001e0: 8dfd 4b3d 56f8 443d d79f f73d 8398 5ebd
000001f0: 6517 84bd 0d33 c0bc 6cd7 ce3d 67ea 0a3d
00000200: 9639 9bbd 83a9 c43c 8fd1 293d 3e06 ecbc
00000210: 39ae c43c 30a0 1a3d 5667 423d 1301 ee3d
00000220: de37 b6bd e930 6d3d abda 1e3d b8b9 1c3b
00000230: a7e0 adbd e9f0 f7bd bde3 e83d 9527 8ebd
00000240: d8ab 23bd bc47 073d 9b73 e8bd d439 663d
00000250: 0c81 913c 3d59 873d 6896 90bd e269 3abd
00000260: 7ff0 86bd c8ea fd3c 2c1c a9bb 90e5 35bd
00000270: 93de aebd 52bc f93d 346b bebd e79f e9bd
00000280: b43d ad3d 0294 80bb 8306 bdbd e59f 2fbc
00000290: 935a e73d bbf7 de3d 88ff b23d 4d17 be3d
000002a0: e63b 6fbd faa7 893d fcbb babc f213 933c
000002b0: 8231 85bd 84d6 82bd 4591 933d 0ea5 533d
000002c0: 6469 bd3d 93af 343c 6ac4 74bd 493f 983d
000002d0: 4622 a2bc 0776 0cbd 17d3 cd3d da4b 8dbd
000002e0: af72 f93d 3cd2 63ba 17f8 14bd f098 b73b
000002f0: c4e3 49bd 8e2a 8ebd 8008 443c 6d4a a2bc
00000300: 9bcb 203d 5800 803d 6eb5 023e 1d3d c6bd
00000310: 6e2c d8bd faf3 433d b1e1 c5bd 6bcd a2bb
00000320: 3714 583d 3b5d dcbb 31e0 26bc 920f de3d
00000330: 7e01 cf3b 7520 9dbd 7c9a a73c 5c2c d4bd
00000340: d0cb f93d 74c7 b0b9 d36f 603c 2de5 4ebd
00000350: 62dc 8b3b 5b47 da3d 2a02 a3bc 76a7 57bc
00000360: 511e e63d c287 f5bc 8d5f 563c 2c50 dabd
00000370: c72b e53d f7c3 85bc baee c4bd 41d2 4b3d
00000380: 01e0 953d 62ee 8d3b f688 0f3d 62de d8bd
00000390: f3d2 033e 8259 f9bb d600 c53c 3a07 b1bd
000003a0: 9459 b13c 24fd e63d 5789 5b3d 0d14 413d
000003b0: 3d9a 03be 2198 acbb 1a11 e03d d997 edbd
000003c0: 4e42 49bc c04c e63d 714c ecbc d85b aa3d
000003d0: d8e6 f63c 7c8e 71bd 5738 d3bd 8c02 d13d
000003e0: 6402 9abd 08cf c1bd 6cc6 a2bd fa3a ec3d
000003f0: c6c0 abbd a3e8 9cbd ae2a 763b 0ed8 a9bd
-0.07430164 -0.07512309 -0.045981295 -0.0040578507 -0.08576153 -0.104711756 -0.021700492 0.11415996
0.1011339 -0.10309904 0.018915758 -0.08850566 0.078574196 0.0127859805 0.05065684 0.10989605
-0.032170463 0.0074885637 0.044625215 0.002176887 0.11690318 -0.028431224 0.0980146 0.09148552
0.027218707 -0.04720038 -0.029229576 -0.115774706 0.042698555 0.10382637 -0.064029366 -0.0045024934
-0.069986485 0.0896299 -0.06427041 -0.059523333 0.053253844 0.015787294 0.054186974 0.09957435
0.080308534 0.0040580435 -0.041713476 0.10201362 -0.038972214 0.07598881 -0.06299148 0.03962633
0.04479744 -0.006480747 0.08996593 0.009901466 0.033733603 -0.067975104 -0.112671666 0.038329016
-0.10001812 0.035766654 0.028568568 0.013841258 0.068216756 -0.056721285 0.06265209 0.055488776
-0.045714226 0.10237851 -0.009055163 0.010438398 -0.053768154 -0.102279864 0.015852585 0.121814124
0.064837836 0.010280437 0.039780345 -0.0026382897 -0.067904614 0.087751865 0.06989412 0.114018336
-0.0044290517 -0.014405128 0.0642604 0.1276088 -0.044308387 -0.08268721 0.04289812 0.06768764
0.057024352 -0.029351274 0.01800541 0.0024490189 0.040917676 0.10173315 0.13377644 -0.0106360605
-0.08649725 0.04543686 -0.013994658 -0.086249664 0.026785659 0.074080184 0.12786476 -0.109591566
-0.099437274 -0.0027197679 -0.021770451 0.043265622 0.064474285 -0.03592985 0.01142366 0.07969524
-0.015652569 -0.07146931 -0.042875614 -0.03560363 0.03401198 -0.11386451 -0.014825463 0.065961204
0.04980235 0.048088394 0.12091034 -0.054344665 -0.06449775 -0.023461843 0.10099682 0.03391495
-0.07579343 0.02400661 0.041459616 -0.02881157 0.024008857 0.037750423 0.04746183 0.11621299
-0.088973746 0.057907972 0.038782757 0.0023914408 -0.08490115 -0.12106497 0.11371563 -0.069411434
-0.039958805 0.033027396 -0.11350175 0.056207493 0.01776173 0.06608818 -0.07059938 -0.045511134
-0.0658884 0.030995741 -0.005160829 -0.04440838 -0.085385464 0.121941224 -0.09297791 -0.11407452
0.084590346 -0.003923894 -0.09229758 -0.010719274 0.112965725 0.108870946 0.08740145 0.09281788
-0.058406733 0.06721492 -0.022794716 0.017953847 -0.065035835 -0.06388572 0.07205442 0.05167108
0.09248617 0.011028188 -0.059757628 0.07433946 -0.019791733 -0.034292247 0.10050028 -0.06899233
0.12180077 -0.000869069 -0.03636941 0.0056029484 -0.04928948 -0.069417104 0.011964917 -0.01981088
0.039256673 0.062500656 0.12764522 -0.09679625 -0.10555349 0.047840096 -0.09662188 -0.0049683354
0.052753653 -0.006724981 -0.010185287 0.108428136 0.0063173166 -0.07672206 0.020459406 -0.103600234
0.12197077 -0.0003371794 0.013698536 -0.050511528 0.004268215 0.10658141 -0.019898493 -0.013162484
0.11236251 -0.029971961 0.0130843045 -0.10659823 0.111899905 -0.016328795 -0.09615846 0.04976106
0.07318116 0.004331396 0.035042726 -0.10589291 0.1287344 -0.007609547 0.02404825 -0.086439565
0.02164916 0.112787515 0.053597774 0.047138263 -0.12851806 -0.0052671586 0.10940762 -0.11601228
-0.012283875 0.11245108 -0.028845044 0.08318299 0.030139372 -0.058973774 -0.1031348 0.10205564
-0.07519987 -0.09463316 -0.07948002 0.115346864 -0.08386378 -0.076615594 0.003756206 -0.08293162

lstm.weight_hh_l0 f4 [256, 64]
00000000: d274 c9bd 468f 4cbd 0733 68bc 83d7 d8bb
00000010: 145a 92bd f1a4 f43d 673c ad3d ebef dfbc
00000020: 7793 08be 52dc 143d 6c25 a8bd b6d9 573d
00000030: b949 b7bd a4aa 093d 46cc c03d f22c 07be
00000040: 80c0 97bd e533 823c 03ef 7cbd 7b2f 843d
00000050: c29b 1bbc 0db6 2a3d fd8c 273d 7006 c73d
00000060: fd93 e7bc c73b 2d3c 34f9 0bbd 8a79 dabd
00000070: 186a d53d 968e 713d a1ed d43c ac66 fd3c
00000080: ba6a 973c 5841 573d 0a09 85bd 46cd 073e
00000090: 6741 9e3d eba9 153d 73a9 d23d 53f0 393d
000000a0: 8af1 e23d a23f 403c d8dd 16bd 0796 dc3d
000000b0: 53e1 76bd 1cba b53d 58a8 493d 9c41 b3bc
000000c0: 83fa fd3d b838 71bd 9b87 e5bc 7faa e6bc
000000d0: 39aa 853d b7f5 03be ff39 bebc fc71 b1bd
000000e0: ef8c 86bc 37b5 023d 160f a8bc dfda 14bd
000000f0: 7e67 ccbd 395d a3bd 033e d03c 6c9d 9a3d
00000100: 9f80 e13d 18a2 ae3d 1114 b43c 7332 503d
00000110: 749a 85bd 52fb 473d 3ef4 533b ca31 c43d
00000120: 7aa2 493d 2fed 713d d8a5 2c39 ca28 f8bd
00000130: 25f1 edba ac33 d7bc 1786 c73d 192d b0bd
00000140: a1b7 b13b d029 ac3b 966c d6bd be5d a1bc
00000150: 16cc 663d cfed eabd 37fd 063e 25e8 903d
00000160: 15f8 463d 9343 6c3c 147e 933d c4d8 2d3d
00000170: 1ea9 633d 7912 ef3d 3c42 883d 285c ad3c
00000180: e18e 243d 84f3 ea3d 9881 de3d b384 a33d
00000190: 85ea 94bd f5d7 a13d 6d03 a3bd 128e c43d
000001a0: e33f 8c3d c753 abbd 3993 283d 86b0 acbd
000001b0: 38e2 a5bd 788b a6bd bb04 5cbc 093f f53d
000001c0: a1dd 283d a46f cdbd 742c 8f3c 6a69 bf3d
000001d0: b3af a9bd 79fa a83d 4900 74bc a648 e6bd
000001e0: 6ad6 96bd 66e2 cabd de8c 4c3d 46a8 ee3c
000001f0: 12c3 003e a13c a5bd a84b 813d 9aea 8c3d
00000200: de2e d2bd d76c 253d 9d51 ac3d 527f e9bc
00000210: 808e d9bd e05e fcbb 898a f1bd e9ca d13d
00000220: 7dd7 d33d d598 0f3d afdd bfbd 949e 8e3d
00000230: 9b22 c43d 69e8 9b3d 30ff 5d3d 8e3d d3bc
00000240: 08ce a93d 93b6 f53d fbc7 d6bc c62c 8ebc
00000250: 73e6 69bd 16e5 3d3d f811 143d 880a 133d
00000260: 278a a53d 559c e13d 5d2a 13bd 1db3 d43d
00000270: 8509 313c ec63 b0bc 87fc b73c a9ec c63d
00000280: 60d8 993c 2f70 16bd f065 e23d 6028 e0bd
00000290: 102f 043e fce4 273d 5636 9f3d 9c67 853d
000002a0: 0c37 d8bd 0939 b8bd d7b1 b13d b2e5 4bbd
000002b0: 749d 9a3d 1e83 da3d 3077 28bc 4dd9 3e3d
000002c0: 06a1 d93d 9ad0 b9bd e7e1 c2bd 6aec 55bd
000002d0: 3bcd 723d 4be8 f3bd c9c0 d7bd 9e90 bb3d
000002e0: 081b aabd c081 9bbc a87f f3bd ac2c 3dbd
000002f0: eb69 0e3d 2f8d c83d 1540 9c3d e3b3 8e3d
00000300: 5424 143d 44a9 1a3d f39f fc3c f12a 7dbc
00000310: e101 8e3c dda6 893c 2a3d ec3d 4bcd 67bd
00000320: 33d8 a03d b5d8 d6bd 2b9a 673d 9ce3 0fbd
00000330: 1580 8fbd c8a9 3a3c 7083 eabd ad46 e33d
00000340: 5819 e3bd 450b 133d 795d d93d ba25 b93c
00000350: e565 573d d286 33bd 3134 7c3d c189 8bbd
00000360: 433f 30bd 340c f83d 2719 d0bc cf47 e9bd
00000370: f7d9 b3bc 8678 a8bc 7ac2 e6bd 4819 e3bd
00000380: a472 803d 0816 9bbd 4d51 a33d 3a63 c2bd
00000390: 855a 1bbd 818e a8bd 1cf6 19bd cba6 6abd
000003a0: 6925 ddbd 5703 263c 88e1 713d ff54 493d
000003b0: 1469 bd3d 13d5 f1bc 42b6 42bd 86a6 28bd
000003c0: 67f6 a1bb f666 e6bd 6873 01be a2c3 a8bd
000003d0: 9ae6 6b3d ee2a 833d a557 a83d 8b42 8fbd
000003e0: 0d8b 8f3d 5481 19bd bb3a 533d 4ccd 8ebd
000003f0: 64fa ffbc 0e91 da3d f3ec dd3d a620 d2bb
-0.09836735 -0.049941324 -0.014172322 -0.006617488 -0.07146087 0.119455226 0.084587865 -0.027336081
-0.13337503 0.036342926 -0.08210263 0.05269786 -0.08949608 0.03361 0.09413962 -0.13200739
-0.07409763 0.015893886 -0.061751377 0.06454369 -0.009497585 0.041677523 0.04090594 0.09718025
-0.028268808 0.010573334 -0.034173205 -0.10667713 0.104206264 0.05897387 0.025992217 0.030932747
0.018483508 0.05255255 -0.06495865 0.132619 0.07727318 0.036539 0.10286226 0.045395207
0.11081226 0.011733921 -0.03683266 0.10770803 -0.06027348 0.08873388 0.04923281 -0.02188187
0.12401297 -0.05889198 -0.028018763 -0.02815747 0.06526608 -0.12886702 -0.023221014 -0.08664319
-0.016424624 0.0319111 -0.020515006 -0.036341544 -0.09980677 -0.07976765 0.025420194 0.07549557
0.11010861 0.08527011 0.021982225 0.050829362 -0.065236 0.048823662 0.0032341625 0.09579809
0.049227215 0.059064087 0.0001646498 -0.12117155 -0.0018153532 -0.026269756 0.097423725 -0.08602352
0.0054235016 0.005254008 -0.1046993 -0.01969802 0.056346975 -0.1147114 0.13182531 0.07075528
0.048576433 0.014420408 0.07201782 0.042443052 0.055581205 0.11673445 0.06653258 0.021162108
0.040175322 0.11472228 0.10864562 0.07984295 -0.072712936 0.07902519 -0.07959638 0.0959741
0.06848123 -0.08365589 0.041156027 -0.08432107 -0.080997884 -0.0813207 -0.013428862 0.119749136
0.041226987 -0.100310594 0.017477252 0.09346278 -0.08285465 0.08250899 -0.014892646 -0.11244325
-0.07365115 -0.09906463 0.04993903 0.029132973 0.12574413 -0.08068205 0.063132584 0.06880684
-0.102628455 0.040387 0.08414004 -0.028503094 -0.10622883 -0.0077017397 -0.117940016 0.1024378
0.103438355 0.03505786 -0.09368455 0.0696384 0.09576913 0.07612688 0.054198444 -0.025786187
0.082912505 0.11997714 -0.026218405 -0.017355334 -0.05710454 0.04636105 0.03614995 0.035898715
0.08082991 0.11016146 -0.035929073 0.10385726 0.010805492 -0.021532021 0.022459282 0.09713108
0.018779933 -0.03672808 0.11054599 -0.10945201 0.12908578 0.04098986 0.07774036 0.065139025
-0.10557374 -0.089952536 0.086764984 -0.0497796 0.07549563 0.1066954 -0.010282323 0.046593953
0.10626416 -0.09072991 -0.09515744 -0.052227415 0.059277754 -0.11909541 -0.10534818 0.09158443
-0.08305937 -0.018982768 -0.11889583 -0.04618518 0.03476898 0.09792554 0.0762941 0.069679044
0.036167458 0.03775908 0.030837988 -0.015452133 0.01733488 0.0168032 0.115351036 -0.056592267
0.07853737 -0.10490552 0.05654351 -0.035129175 -0.070068516 0.011393018 -0.11450851 0.11097465
-0.11088818 0.03589942 0.106135316 0.022600997 0.05258741 -0.043829747 0.06157321 -0.06813384
-0.04302908 0.121117026 -0.025402619 -0.113906495 -0.02195452 -0.020565283 -0.11267562 -0.110888064
0.06271866 -0.075725615 0.07974491 -0.09491582 -0.037928123 -0.082303055 -0.037588224 -0.057287972
-0.10798151 0.010132632 0.059052974 0.049153324 0.09248558 -0.029520547 -0.047537096 -0.041174434
-0.0049427035 -0.11250107 -0.1264168 -0.08240439 0.057592966 0.064046726 0.08219842 -0.06995114
0.07008944 -0.037476853 0.05156968 -0.06972751 -0.031247325 0.10672198 0.1083621 -0.0064125834

lstm.bias_ih_l0 f4 [256]
00000000: 6e4f 34bc e54f e6bd f08a e23d 93ce f03d
00000010: 4d24 c53d a5c7 d7bd d757 c8bd 06ac df3d
00000020: 361f 67bd 407f 843d 3139 5a3c dc87 db3d
00000030: b959 893d aaee cabd e8fb e83d 1d73 fd3d
00000040: 6c40 87bd abd0 db3d d733 d2bd 22b1 823d
00000050: bc41 be3d 62e7 9d3c a454 033e 337f b3bd
00000060: 2028 bdbd 5e25 a3bb 25bd 56bb 26ac d2bd
00000070: 3885 03be dbcf 943d 47a8 77bd eee5 00be
00000080: 7e99 183d 1992 e6bd fbe1 0dbd 6918 f9bc
00000090: bdf7 443c d32a a9bd e81c f13d bf9b 063d
000000a0: 7b56 c4bd 8419 97bd 9bbe 2bbd 03fa f4bd
000000b0: 0e53 6dbd ced6 c63d 99fd 873d c0cd dfbd
000000c0: 5835 5cbd f499 c3bb d7ad a23d d717 05bc
000000d0: 147c ed3d a29a e9bd 16bd 9abd 7a31 e53d
000000e0: c0b1 f83b 0762 c13c 7f7b 393d 47d9 aa3d
000000f0: befe 8b3d f44b d8bd 567e 933c 633b c93d
00000100: 5a73 1cbd ec23 e53d d412 553d 9153 b9bd
00000110: 147c 36bd b921 5c3d e5a9 6c3d 9368 96bd
00000120: c9a8 3fbd 400b 17bd 92e9 b63d f0e7 eebd
00000130: 5443 b33d d095 5ebb 9ed1 b23d 907c b6bd
00000140: f189 0c3d bf18 a2bc 8aa6 1cbd a04f 8dbd
00000150: bca8 03bc ba55 fbbd 332b 8a3c 243b 043d
00000160: ffa8 a9bd 90d7 e03d ce07 dc3d 66b6 24bd
00000170: 3c7a 023d 186e de3d ca0e 953d 70cc 843b
00000180: 945f 8bbd b425 42bd fce9 d83d 8a8e 903d
00000190: 3f70 cdbd 6568 f03d 40f0 933d be1f e3bd
000001a0: 67b8 81bd b70e 7c3d 6e99 d03d dded a5bd
000001b0: d0df dbbc 24f4 b1bc d478 ac3d bc83 e73d
000001c0: f0ba 36b8 26f1 37bb d110 623c 241d 713d
000001d0: e2f4 00bd 4d06 70bd bdf3 98bd 1efc e03d
000001e0: 2031 94bd 9ee5 0d3d 0b85 b43c 5d38 a63d
000001f0: 6b8e b43d e84e 283d de36 debd eb9d a33c
00000200: f8cf 2abd a656 a3bd 51cc c23d 1626 43bd
00000210: f8e9 bebd e6d1 c23d 90e4 7cbd 0b0b 13bd
00000220: 5d8b a3bd 5f7d 3fbd 5d12 a23d 9a4c 84bd
00000230: 9143 a6bb c623 003e 177c ce3d 3672 9fbd
00000240: 9cad d2bd b234 f93d 1891 40bd 7df5 1e3c
00000250: a9af ffbd e20c d9bc 763d b33d 2cab b0bd
00000260: f266 ae3d 9cb2 e7bd 6ea2 f33b 81f2 693d
00000270: ddba 053e f325 e93d 13c1 8c3c ae35 b63d
00000280: 1724 523d b715 00be 75dc 9cbd 392e b3bd
00000290: b912 e1bd 6505 9c3d 47ae 80bd 6064 ee3d
000002a0: 4544 053e 4a89 6dbc 0ff7 94bd e1a0 203d
000002b0: aa5d a2bd 79a0 ac3d ce18 d2bd 4570 6dbd
000002c0: 8c5d e3bc ea98 65bd 3fff cbbd 1006 5a3d
000002d0: ff1f dc3d daa2 a93d 1a05 f0bb f0e8 b13d
000002e0: 61a1 1bbd 69fb c13d f172 323d 7508 69bd
000002f0: d8ea bd3d 1fa6 bd3d c377 30bc 2a3a 43bd
00000300: 4c6b 1d3c b84f 6dba c0de e2bd d4d0 debd
00000310: ae08 1e3d 9bfc 8f3d 3b06 0fbd 7fb9 023e
00000320: 60ef d53d bfdc 0d3d 2cd0 af3d 18bf 20bd
00000330: d456 b9bd d5c7 92bd bb91 08bd 9b3d c6bd
00000340: aa9e f1bd 5e8c c93d 93c4 00bd 3cdb 6ebd
00000350: 5d25 c43d 1b98 fcbd 0114 1cbd 65b8 e13d
00000360: 4a1e e8bc ef1f dabc 85cf aa3d f5ea 44bd
00000370: 9575 d6bd 00bf 1abd c3fc eabd 2003 cebc
00000380: 61e4 a2bd ff50 863d 4fb8 b13d 2357 3a3d
00000390: 4a69 91bd 94d2 a5bd 7184 45bd feb8 b2bd
000003a0: 344a eabd fdd0 9e3d 9b82 ecbc c28b 803d
000003b0: 42bb 84bd 8205 9c3c ed8e 043d 2463 c5bd
000003c0: 8d4e debd 646a cfbd 7e33 a23b 2beb b53d
000003d0: d326 b9bc ce04 0ebd ea58 f93c 4a65 7bbd
000003e0: f3d3 dbbc 43c7 cbbd a33e bf3d c756 cabd
000003f0: dad8 1ebd 0cb9 ee3d 23fd bdbc 851c 0c3c
-0.011005266 -0.112457074 0.110616565 0.11758151 0.096260644 -0.10536126 -0.09782379 0.10921483
-0.05642625 0.064695835 0.0133193 0.107192725 0.06706566 -0.09908803 0.11376172 0.12375472
-0.06604084 0.1073316 -0.10263794 0.06381442 0.092898816 0.019275371 0.12825257 -0.08764496
-0.09236169 -0.0049788198 -0.0032766548 -0.10286741 -0.12843788 0.07266208 -0.060463216 -0.12587711
0.037255757 -0.11258335 -0.03463934 -0.030407147 0.012021956 -0.08260121 0.117730916 0.032863375
-0.09586807 -0.073779136 -0.041929822 -0.119617485 -0.057940535 0.097089395 0.06640167 -0.109279156
-0.05376181 -0.0059692804 0.079433136 -0.00812336 0.11595932 -0.11406447 -0.075555965 0.111910775
0.007589549 0.023606313 0.04528379 0.083422236 0.068356976 -0.10561362 0.018004578 0.0982578
-0.038195945 0.11188492 0.05201991 -0.09049142 -0.044551924 0.053743098 0.05777921 -0.07344165
-0.046791825 -0.036875963 0.08931269 -0.11665332 0.08753076 -0.0033963807 0.087313876 -0.08910477
0.03431124 -0.01978719 -0.03824476 -0.06899953 -0.008035835 -0.122722104 0.016866302 0.032282963
-0.082841866 0.10978615 0.10743676 -0.04021301 0.031854853 0.108608425 0.072782114 0.004052691
-0.068053395 -0.047399238 0.10591504 0.07058437 -0.10031175 0.11738662 0.072235584 -0.11090039
-0.06334 0.06153747 0.101855144 -0.081020094 -0.02684012 -0.02172286 0.08421484 0.11304423
-4.356628e-05 -0.002806732 0.013797955 0.05886568 -0.03148354 -0.05859976 -0.074683644 0.109855875
-0.07235932 0.03464281 0.022036096 0.08116219 0.088162266 0.041090876 -0.10850309 0.019972762
-0.04170224 -0.07975511 0.095116265 -0.047643743 -0.0932197 0.09512691 -0.06174141 -0.035899203
-0.07985566 -0.046750423 0.07913659 -0.06459923 -0.0050739725 0.12513646 0.10082262 -0.07785456
-0.102870196 0.12168254 -0.047013372 0.009702084 -0.124846764 -0.0264954 0.08751957 -0.086263984
0.08515729 -0.11313364 0.0074351346 0.057116035 0.13059564 0.11384191 0.017181909 0.08896957
0.05130395 -0.12508284 -0.07659236 -0.08749051 -0.10989899 0.076182164 -0.06283241 0.11640239
0.13014324 -0.014498064 -0.07273685 0.039215926 -0.07928021 0.08429045 -0.10258637 -0.057968397
-0.027754568 -0.056054033 -0.09960794 0.053228438 0.1074829 0.082830146 -0.007324827 0.086870074
-0.0379957 0.09471781 0.043566648 -0.05689283 0.092733085 0.09260201 -0.010770741 -0.04766289
0.009608101 -0.00090527115 -0.110776424 -0.108796746 0.038582496 0.070306025 -0.03491805 0.12766074
0.10446048 0.034634348 0.085846275 -0.03924474 -0.09049764 -0.07167021 -0.033342104 -0.09679719
-0.11797841 0.09841226 -0.031437468 -0.058314547 0.09577439 -0.12333699 -0.038105015 0.110214986
-0.028334755 -0.026626555 0.083403625 -0.048075635 -0.10471646 -0.037779808 -0.11473992 -0.025147974
-0.07953716 0.065584175 0.08677732 0.045493256 -0.071001604 -0.08096805 -0.04822201 -0.08726691
-0.114399344 0.07754705 -0.028870871 0.06276657 -0.06481029 0.019045595 0.032362867 -0.0963805
-0.10854826 -0.10127714 0.004949986 0.08882745 -0.02260152 -0.03467255 0.030437905 -0.061375894
-0.026834464 -0.099501155 0.09338119 -0.09879833 -0.038781025 0.11656389 -0.023191994 0.008551721

lstm.bias_hh_l0 f4 [256]
00000000: 7ad6 023e 6872 973c 5bb5 3dbd 1cd6 6a3d
00000010: fdb5 8b3d 7859 77bd ea1b b7bc 3f72 68bd
00000020: 780b 31bc 3396 8dbd fe7d b5bd 6612 013d
00000030: 8290 63bc fb6d 213d 6afd babd f8ef 5a3c
00000040: ef0b a53d 3b24 d73d b583 ad3d a1b2 10bd
00000050: 70aa 6c3d 453b c73d ad2f a9bd b03d e73c
00000060: 1592 043d 698c eabc 3689 aebd 2693 9c3c
00000070: 9d5d b6bd 3c18 2fbd 6a7f 6bbc bbe7 00be
00000080: 1540 c43d 6013 3b3d 421f bb3d e993 663d
00000090: 2ec2 aebd 5d65 883d 7e53 e33d 9f2a 7ebd
000000a0: 5d43 293d f2c2 d9bd 7fcc 2cbc 765e fc3d
000000b0: c101 d03c cc5c b1bd 560b 163d 4bca 71bd
000000c0: 0e1b 8d3d 350d 0fbd a9f4 ad3d 9164 783d
000000d0: 571f 0f3c e748 0a3d 19f3 1a3d 0268 92bc
000000e0: 5fd0 0dbd dcc1 6f3d 4c15 c2bd 1ffb dcbd
000000f0: d35c 443d b4f3 a83d 1383 d63d bde0 d53d
00000100: c2ca 533d a038 c23d a1fa c93d aff1 7bbd
00000110: afbb efbd 9b45 a2bd a4b1 9fbd 5aee 2ebd
00000120: 45d4 813d 84b4 673d 2c70 503d 86b5 423d
00000130: c69e cfbd 561d c53d d053 02be b4f8 843d
00000140: e114 0b3d 073c c33d e606 60bd 244d 023e
00000150: dd3b aa3d ec78 ae3d e6b1 093d 975c f6bd
00000160: 62fa 02be 272f bebb aafe af3d 5548 ed3c
00000170: 9f77 873d 81dc 343d 4c5d d8bc 11d4 d9bb
00000180: e867 353d a078 bdbb d653 fa3d f226 633c
00000190: e3f5 673d efb9 efbd a4d4 a3bd a4f9 7fbd
000001a0: 7dd5 6d3d 91a2 043e 7891 a53d 1b47 13bc
000001b0: d631 883d 291e d9bd 11de 5d3d ae3c 81bd
000001c0: 13bc 803c c6da 0ebd 6969 1d3d a934 cebc
000001d0: c801 2cbc 30a7 bbbd 08b3 f0bc ad46 d73c
000001e0: 84cc 8d3d 1a74 51bc bb48 d03c 45dd 64bd
000001f0: dd1f 883d e369 c0bd 5884 f53b 10e9 d2bd
00000200: 1a77 f13c 5665 083e 672d e4bd 7216 5bbd
00000210: 6ce7 fb3d 8c70 08bd 7ecc b9bc 2ac9 d23c
00000220: af35 3b3d 86d1 a1bc 8748 98bd 6ba2 753d
00000230: 917a f4bd f90f 9c3d ee13 2d3a b2e0 d5bd
00000240: 2c11 d73d 4e7b fd3d d7d6 9e3d 7397 1cbc
00000250: 4181 75bd d330 efbd 5788 07bd 0b3b 68bd
00000260: 6544 e1bb 12c3 fdbd 8639 d93d 027b a83d
00000270: 23d6 9abd 28ad 613b dadf d43d b67a b43d
00000280: 5239 04bc 061c 3a3c e9ea 18bd 4776 503d
00000290: 720f 5d3c 9aca e8bc 2cfb 87bb 6ada d13d
000002a0: 6b42 5fbd be2b e0bd 04f2 f03b 4215 aabd
000002b0: 610d e4bb 97c6 a4bd 80cd a93d 8efa e8bc
000002c0: 3f72 db3d 1398 b53c bb14 913d a4dd 5e3d
000002d0: 5c5a 53bc 228f d83d 98b7 3dbd 6827 9fbc
000002e0: 495e 0abd cb1b c73d 34a6 08be 8d44 72bd
000002f0: d83b b6bd cc90 3d3d 6056 923d c9ba 8ebd
00000300: 78db 503d f29a 77bd 4233 f53d 245c ccbd
00000310: 3281 f93c 2b3c 97bd 22e6 d83d 6cdc c0bd
00000320: 76e3 303d 0890 663d 2200 e6bd fc37 793d
00000330: 3a8c b1bd 3941 b3bd 3f1a acbd c7e9 1cbd
00000340: ccac 3bb8 8bc9 f4bc 064b f63b 4705 013e
00000350: e0e0 5bbd 8c85 11bd d1e3 be3b 5d4e b1bd
00000360: b806 883d 01df c83c 5b6a fa3a 1930 03bd
00000370: 54cf 78bd 2a2b 8dbd 7188 493a 7c50 a33d
00000380: 014a 2cbc db24 68bd 67e9 2a3c 5c05 f6bd
00000390: 1635 96bd 1a4e 3a3d fa9f 9e3d 30e4 ab3c
000003a0: 9e8b b43d 831f 6abd 2228 253d c721 3d3d
000003b0: 209e 89bd a14b 0f3d 274c 29bd 22f2 163d
000003c0: 08e5 1b3d 7e89 b93b 57ad 40bd 499c cdbd
000003d0: d0b8 98bd 21cf 9b3d cdee 163d 21cc 8cbd
000003e0: e6cd 73bc 54ae 7ebc 23cb a3bd ea95 53bd
000003f0: fa25 dd3d 0807 dfbd 0ed2 083e 02f2 33bd
0.12777129 0.01848717 -0.046315532 0.057333097 0.06821821 -0.06038806 -0.022352178 -0.05674958
-0.010805957 -0.06913414 -0.08861922 0.031511687 -0.013889434 0.039411526 -0.09130366 0.013362877
0.08058917 0.10504957 0.08472387 -0.035326604 0.05777973 0.09728102 -0.082610466 0.028227657
0.032365877 -0.028631406 -0.08522265 0.019113135 -0.08904574 -0.04274772 -0.01437364 -0.12588398
0.09582535 0.045672774 0.09136821 0.056293402 -0.085331306 0.066599585 0.11099909 -0.062052365
0.04132401 -0.10632886 -0.010546803 0.123227045 0.025391461 -0.08660278 0.036631905 -0.059030812
0.06889926 -0.034924705 0.08493931 0.060642783 0.008735499 0.03376093 0.037829492 -0.01787186
-0.034622546 0.058534488 -0.09476718 -0.10790085 0.047940087 0.08249608 0.10474219 0.10443256
0.051707037 0.094834566 0.09862257 -0.061509784 -0.1170572 -0.079234324 -0.07797554 -0.04270778
0.06339315 0.056568637 0.050888225 0.047536395 -0.101377055 0.09624736 -0.12727284 0.06492749
0.03395546 0.09532934 -0.05469408 0.1272474 0.08312199 0.08519158 0.033616923 -0.12029379
-0.12790826 -0.005803961 0.08593495 0.028965155 0.06614613 0.0441556 -0.026411675 -0.0066475947
0.044288546 -0.005782202 0.12223022 0.013864266 0.05663098 -0.11705386 -0.07999542 -0.062493935
0.058064926 0.12952639 0.080843866 -0.008989121 0.066501305 -0.10601456 0.054166857 -0.06310402
0.01571468 -0.034876607 0.038430605 -0.025171595 -0.010498472 -0.09162748 -0.029382244 0.026278818
0.06923774 -0.012784028 0.025425306 -0.05587508 0.066467024 -0.09395196 0.0074925832 -0.102983594
0.029475737 0.13319907 -0.11141472 -0.053488202 0.122999996 -0.033310458 -0.022680517 0.025730688
0.045705494 -0.019753229 -0.074357085 0.059969347 -0.1193744 0.07620234 0.0006602396 -0.10443248
0.10501322 0.12377034 0.07755821 -0.009557593 -0.05993772 -0.11679234 -0.03308901 -0.056696933
-0.0068746083 -0.12390722 0.10606675 0.08226587 -0.075603746 0.0034435485 0.10394259 0.08812468
-0.008070307 0.01135922 -0.037333403 0.050894048 0.013492452 -0.02841692 -0.004149815 0.10246737
-0.0545067 -0.10945843 0.0073530693 -0.08304836 -0.0069596027 -0.080456905 0.08291149 -0.028439786
0.1071515 0.022167241 0.07084032 0.05441059 -0.012899961 0.105741754 -0.046317667 -0.01942797
-0.033781324 0.09722098 -0.13344651 -0.059147406 -0.08898133 0.046280667 0.07145381 -0.0696922
0.05099055 -0.0604505 0.11972667 -0.09978512 0.030457113 -0.07384523 0.10590769 -0.09417042
0.043185674 0.056289703 -0.11230494 0.060844406 -0.08669324 -0.087526746 -0.084034435 -0.038308885
-4.4745204e-05 -0.02988126 0.0075162677 0.1259967 -0.053681254 -0.03552775 0.0058254977 -0.08657525
0.066419065 0.024520399 0.0019105183 -0.03202829 -0.0607446 -0.068929985 0.0007687873 0.079743356
-0.010515691 -0.056675773 0.010431624 -0.12012741 -0.07334344 0.04548464 0.07745357 0.020982832
0.08815692 -0.05715896 0.040321477 0.04617479 -0.06719613 0.034984235 -0.04133239 0.03685201
0.038060218 0.0056621423 -0.04704031 -0.10039575 -0.07457125 0.07607866 0.036848832 -0.06874872
-0.014880633 -0.015544493 -0.0799773 -0.05165664 0.10798259 -0.10890013 0.1336138 -0.04393197

lstm.weight_ih_l1 f4 [256, 64]
00000000: 476c d6bc 9f05 23bd a082 4bbd e880 9ebd
00000010: 32bd 30bc eeb5 823d fc96 76bd 4b83 26bd
00000020: f250 0d3d 8854 cb3d 27c7 9c3d 7a16 b8bd
00000030: 0e8b e3bd 3577 46bd 4e01 063d d3ec d5bd
00000040: 3289 d63c f8df 12bc 7bd7 813d e0aa cf3c
00000050: 32d4 96bc 46c6 123c 6268 e0bb 677f a23d
00000060: 5759 aa3d 2dbe cbbd 1f1a 84bd 8d4f ba3c
00000070: 822f 06bc 49f8 d13c a575 363d 6654 bd3d
00000080: 0c5c e9bd 8df0 c1bd 2461 133d 4fa1 b23c
00000090: 15e4 af3d 93cc 99bc c63d aebd a6ca d9bd
000000a0: 6efa cfbc 7361 a5bc 8c10 53bc f376 ddbd
000000b0: bfe0 9dbd 46dc d2bd 54b7 063c 2c88 843d
000000c0: 9820 7939 83fb de3d 0572 17bd 1500 33bd
000000d0: 9f52 cebd 02c6 b03d 2ee7 0f3d 4c97 093d
000000e0: 5a71 593d 3a7d 1abc 950c 113d 1835 8d3d
000000f0: 90df 853c c119 e83d 8387 c03d e419 5dbc
00000100: 8f7b acbd 027f 1ebd 5331 f33d 967e 20bc
00000110: b164 b73d c555 eb3d 3e8f f8bc 5f16 e03d
00000120: d0cd 3abc 403c 8c3d fa0e e13d 035f 953c
00000130: c404 7cbb 0989 86bd a029 34bb 2e7d 85bc
00000140: f6a9 4abd e0bf d23d a06f a93c 7e32 083e
00000150: 8653 c2bb 130c 1d3d f1b7 c4bd 9abe 913d
00000160: d58d b03d baa9 f3bc d839 f33d de9d 5b3d
00000170: a226 a6bd 1910 dd3d 78b6 f73d 191c e73c
00000180: af1d 973d 6c9e c13b 7a47 33bd b13a b43d
00000190: 118b d3ba e9b0 bfbd dcc9 23bc b478 523d
000001a0: 051a b9bd 69e7 79bd b8e3 99bc 5b0f 933d
000001b0: cd2e a1bd 71ac 273d ca3a bf3d b15e 6bbd
000001c0: 7fdf babd bd33 6fbc 5298 873d 2211 753d
000001d0: 53f4 bcbd 0d39 d63d c9ce b0bd 789d 8dbd
000001e0: d3ca 8c3c 98df e53c ad35 643c 19d5 05be
000001f0: 81b2 d4bd 898d 8f3b 4302 313c 04bb 913d
00000200: 2122 e4bd 05aa 88bd be16 3a3d 9398 1abd
00000210: 5980 c03d 9655 873d 169f e9bd 0dee d23c
00000220: de48 29bb fc9c 983d 83eb 2bbd 754e 8abd
00000230: f746 87bc a16b d3bc d278 13bd b1cb cebd
00000240: b425 2a3d c188 71bd cb5d a8bd a156 9e3d
00000250: a632 c23d 55f0 453d bd24 e3bd 633d 61bd
00000260: 5e26 d83d d88a 3c3d b7ef 603d efe5 d1bd
00000270: f868 ee3d 8f20 c73d db30 01be 0fe1 c73d
00000280: f0ce edbc 23d9 fd3d a12f 953c c2c1 8abd
00000290: 6b19 a2bd 92db b33d a871 df3c aad0 c4bd
000002a0: e9b0 6f3d 8fa8 e0bd 8c72 6cbc 2806 deb9
000002b0: 27de 07be d39b 033e cbe3 9d3d 0a78 8f3c
000002c0: dc4d e03c b864 6b3d f190 ebbd 9a55 7abc
000002d0: 6729 9ebd a0b6 073d 38fe 13bd 696b a43d
000002e0: da9b e2bd e026 09bd fcec de3d ba20 ef3d
000002f0: 5fd3 a43a eb15 85bb 565b 99bd ab0a 7ebd
00000300: bc52 adbd c00b 6fbc e4eb 97bd d109 653b
00000310: 4414 ac3d d3fa 07bd f98a c23d 450d 673b
00000320: 5a1c c23d b2ee 003d e906 8b3d b8c0 aa3d
00000330: 1786 b63c d1eb 823d c7b3 93bd b2a1 c63c
00000340: 63c9 3f3d 2465 82bd 537f 7bbd 0d66 c03c
00000350: 739a 733d 5e55 b1bd 782c d9bd e188 a33d
00000360: 8011 50bd 9a15 2bbc f557 96bc 3c5e 8abd
00000370: a0c6 bb3d 3292 a4bd 2305 f2bd 460a 863d
00000380: 6322 c6bd 9361 173d f6c6 82bc bed7 493c
00000390: dcc9 b73d a64a c23c 1649 3c3d 0f35 b63d
000003a0: 767b f0bd f517 053d 9fd2 79ba 087d 033e
000003b0: 684b a93c ebac f3bd 1cd7 91bd f260 dc3c
000003c0: e23e b7bd 7fb4 523d d863 1a3d d5a4 633d
000003d0: 016b ff3d b9d0 f3bd ea49 b03d 8304 dbbc
000003e0: 0150 60bd 5b2c 93bc 5708 c5bd 9dbd dfbd
000003f0: 2002 a03d 1229 04bd cf81 e53d 2a59 c23d
-0.026174678 -0.039800283 -0.04968512 -0.07739431 -0.010787295 0.063823566 -0.060202584 -0.040652554
0.034501024 0.099282324 0.07655173 -0.08988662 -0.11110507 -0.04845353 0.032716088 -0.10445561
0.026188467 -0.008964531 0.06339928 0.025350034 -0.01841173 0.008958405 -0.006848381 0.07934456
0.083178215 -0.099483825 -0.06450295 0.02274301 -0.008190038 0.025631087 0.04454579 0.09244613
-0.1139451 -0.094697095 0.035981312 0.021805434 0.08588425 -0.018774306 -0.08507876 -0.10634355
-0.025387969 -0.020188069 -0.012882363 -0.108137034 -0.077088825 -0.1029592 0.00822242 0.06471285
0.00023758633 0.10887816 -0.036973972 -0.04370125 -0.100743525 0.08631517 0.03513258 0.033591554
0.053086616 -0.00942927 0.03541239 0.068948925 0.016341954 0.11333037 0.09400847 -0.013494942
-0.084220044 -0.038695343 0.11874642 -0.009795805 0.08954752 0.114909686 -0.03034174 0.10941767
-0.011401609 0.06847429 0.10989185 0.018233782 -0.003845499 -0.06569106 -0.002749063 -0.016295042
-0.049478494 0.102905035 0.02068311 0.13300511 -0.005930367 0.038341593 -0.096053965 0.071164325
0.08620802 -0.029744018 0.11876267 0.05361735 -0.081128374 0.10794086 0.1209535 0.02821164
0.073787086 0.005908778 -0.043769337 0.08800257 -0.0016139467 -0.09359915 -0.0099968575 0.051384643
-0.09038166 -0.061011706 -0.018785343 0.07180663 -0.07870255 0.040935937 0.09337385 -0.05746335
-0.0912466 -0.014599738 0.0662085 0.059830792 -0.09226289 0.104601 -0.08633191 -0.069148004
0.017186558 0.02806072 0.013928813 -0.13069572 -0.103856094 0.004380886 0.010803762 0.071157485
-0.11139322 -0.06673054 0.045431845 -0.037743162 0.093994804 0.06608121 -0.11407296 0.025748277
-0.0025830786 0.074518174 -0.04197265 -0.06753246 -0.01651333 -0.025808157 -0.036003895 -0.10097445
0.041539863 -0.05896831 -0.082210146 0.07731367 0.09482317 0.0483249 -0.11090992 -0.054990184
0.10554193 0.04603085 0.05491611 -0.102489345 0.11641115 0.09723007 -0.12616293 0.097597234
-0.02902934 0.12394931 0.018211188 -0.067752376 -0.07915004 0.08782114 0.027275875 -0.09610112
0.058518324 -0.1096965 -0.014431607 -0.00042347726 -0.13268338 0.12852411 0.07709464 0.017513294
0.027380876 0.0574691 -0.11502255 -0.015279198 -0.077227406 0.03313315 -0.036131114 0.08028299
-0.110648826 -0.03348434 0.10885045 0.11676164 0.00125752 -0.0040614507 -0.07488124 -0.062021893
-0.08463046 -0.014590204 -0.074180394 0.0034948478 0.08402303 -0.03319819 0.09499163 0.0035255712
0.09478064 0.031477638 0.067884274 0.083375394 0.022280736 0.06392635 -0.07212024 0.024247024
0.046822917 -0.06366947 -0.061400723 0.023486162 0.059473466 -0.086588606 -0.10604185 0.07985092
-0.05079794 -0.010442162 -0.018352488 -0.06756255 0.09168744 -0.08035697 -0.11817386 0.06544928
-0.096745275 0.03695829 -0.015964013 0.012319503 0.089740485 0.023717236 0.045968138 0.08896839
-0.11742298 0.03249355 -0.0009529981 0.12840664 0.02066584 -0.11898216 -0.07121107 0.026901696
-0.08947541 0.051441666 0.037692875 0.055577118 0.12471581 -0.11905045 0.08607848 -0.02673555
-0.054763798 -0.017965486 -0.09620731 -0.10924838 0.07812905 -0.03226573 0.112064 0.09489663

lstm.weight_hh_l1 f4 [256, 64]
00000000: 80ea 49bd 7303 02be 9e97 dc3b 575d adbd
00000010: 6ae1 f23d 27de 53bd 8fdf dd3d 3a76 9a3d
00000020: 5cbf e23d c045 d43d 2820 c6bd 4314 3d3c
00000030: b5bf d3bd e1df b6bc 3cd1 90bc 887c ff3b
00000040: aa6c 9bbd e9e7 903c f430 c23d 3240 f0bd
00000050: 8c8b cf3d 5ec4 22bd a472 f6bd 221c 6e3d
00000060: 5653 97bd 674b 9e3d e202 48bd 68b4 a33d
00000070: fadd 8f3d 4eb6 81bd b640 ec3d b255 6cbd
00000080: 3185 10bd eb6f ff3d a7c6 673d 1266 953d
00000090: ead7 abbd 4100 b6bd 3a18 953d 9394 c0bc
000000a0: da5b c33d 23a6 03be b4a6 90bc 7034 87bd
000000b0: 074d 893c 11fa 37bb d936 953c c28f 23bd
000000c0: 0cd6 ed3d d08f 233d d354 e5bd a6f4 c73b
000000d0: 40ff 04be 5366 ce3b fed6 a43c 0e45 f2bc
000000e0: 3576 123d b519 34bd d9bd 923d e848 8abc
000000f0: 60d8 6b3d 5c26 ca3b fba6 a53d 4965 ddbc
00000100: a5b3 a83b 66ea 183d 901b d3bd 69b1 853d
00000110: 9432 aebc f5c9 d2bd e0f6 c63d ac29 4c3d
00000120: 72fd a9bd 3b7d f83c 54b5 f43c 62f1 9fbd
00000130: 680b c0bd f304 a53d 1a73 c23c 8b0e 23bd
00000140: 3391 36bd 9092 4abd 9f88 c7bd 6a3b d63d
00000150: d95d b83c 50bb 66bd 232a cb3d 2d45 b83d
00000160: d5c6 b0bd ec8c ee3d f349 49bc 06a8 80bd
00000170: 9cdc 92bd 24ed 833d ec7b 1bbd 90fb c9bd
00000180: 07ed 9dbd 010f 063e a5b1 f2bd 2e17 383c
00000190: bba7 8d3d adbb d7bd 1e8f d0bd 45ce 273c
000001a0: be26 003e 8c7b ddbd d895 e8bd f58a 0cbd
000001b0: 0a59 eabd bc85 653d a83d b1bd 52dd 44bd
000001c0: b45b 483c 4e96 a1bd bf78 91bd c3ba c0bd
000001d0: aa0c 0dbd 35f9 abbd 8920 c33b d95d d63d
000001e0: 5c34 763d dfe1 4a3d 3f47 b4bd 0c54 c8bd
000001f0: 59eb bc3d fec5 bfbc 8af9 39bd 985a 38bd
00000200: 3ed6 5d3d 72db 59bd 56c7 a63b fb79 e3bd
00000210: abb0 c53d f444 aebd 243c 08b9 20af 053c
00000220: 11e8 abbd 9be5 2fbd 1e9b cf3d 205e 7b3d
00000230: a2b8 a3bd d797 cabd 8093 eebd fead 91bd
00000240: 2bbe 01be adcb ca3d c4db 8fbc 56db 22bc
00000250: ca44 c2bd 6ca2 8a3d ff3c a63d 9c11 07bd
00000260: c853 ff3d 85b8 9d3d f8a7 81bd 6e2a f73d
00000270: b5a4 26bd 4f8a 13bd 91e5 fcbc bcb9 233d
00000280: a2ca 973d f893 b63d 27cf 3cbd 5222 803d
00000290: 651e 0fbd 222e 763d 6481 07bc 330a c3bd
000002a0: 00a1 dbbd 7d1f f93c 5954 683d 31a2 bebd
000002b0: 7c27 a63d 7755 47bc e931 7d3c 2c0d 9dbd
000002c0: 179a dd3c f480 72b9 4b5c 2b3c a00f aa3d
000002d0: 46a2 9b3d 71c5 30bd 734f e03d 817d 4fbc
000002e0: 46a3 e23b a315 8dbd 60a9 20bd 5ba6 aebd
000002f0: b97d 76bd 8dcc bdbd 1e04 823b d3a9 96bd
00000300: e0d5 14bd b1fb d7bd 6c01 51bb 2805 92bd
00000310: 6c5f 88bc c58d 31bc 20d4 273d 3d26 95bd
00000320: 6c05 76bd 81e7 1b3d 0c28 bbbc 274e aabd
00000330: 2f41 e5bd 24fd 2dbd cb06 2ebd 2940 b23b
00000340: 237d 103d e6b4 983d 2c25 023d 0908 d03d
00000350: 924c ce3d b39c b63d 37ed 8ebd 114a b63b
00000360: 0e3e 343d de53 e9bc f8f7 1fbd c1db c83d
00000370: 9c00 7ebc 9ac0 eb3d 903c dc3d e4c0 b0bd
00000380: b327 7dbd de2d c8bd a239 b03d b5b4 ef3d
00000390: e8e2 bcbc 44e5 80bc 5e15 b83d 822d c63d
000003a0: ef59 163d fbea 803d e264 44bd 7b7e ccbd
000003b0: ce64 9abd eef2 f4bd 38b2 ac3d b1b8 36bc
000003c0: b888 a43d 7600 b03d d01d 6dbd 5f7b 683d
000003d0: fe5a a53d 1486 91bc 2536 543d eed1 b93b
000003e0: 1ba3 2d3d c21c afbd 3928 963d 2c04 a8bd
000003f0: c4d6 a23d 1da5 44bd 50f6 b03b e3b3 bf3d
-0.049295902 -0.12696628 0.0067319414 -0.08465069 0.118594006 -0.051725533 0.10833656 0.07542081
0.11071655 0.10364866 -0.09674102 0.011540475 -0.103392996 -0.02232355 -0.017677896 0.0077968277
-0.075890854 0.017688708 0.09481993 -0.11730994 0.10134038 -0.03973805 -0.12033585 0.0581323
-0.07388942 0.077292256 -0.048830874 0.07993394 0.070247605 -0.063336 0.1153578 -0.057698913
-0.03528327 0.124725185 0.056585934 0.07294859 -0.08390792 -0.08886767 0.072800115 -0.023508346
0.09539004 -0.12856345 -0.017657615 -0.066017985 0.016760362 -0.0028072635 0.01821463 -0.03993202
0.11613092 0.039932072 -0.111978196 0.0061021624 -0.12987995 0.006298819 0.020122048 -0.029573943
0.035757262 -0.04396983 0.07165117 -0.016880468 0.0575794 0.0061691236 0.080884896 -0.027025836
0.0051483684 0.037332915 -0.103079915 0.06527979 -0.021264352 -0.102924265 0.097150564 0.04984443
-0.08300294 0.030333152 0.02987162 -0.07809712 -0.093771756 0.080575846 0.023736525 -0.03980879
-0.044572067 -0.04945618 -0.09742855 0.10460551 0.022505688 -0.05633098 0.09920146 0.08997569
-0.08631674 0.116479725 -0.012285697 -0.06282048 -0.07170984 0.06441715 -0.037959978 -0.09862435
-0.07711225 0.13091661 -0.11850289 0.011235995 0.06916758 -0.10533843 -0.101835474 0.01024205
0.12514779 -0.1081458 -0.113567054 -0.034312207 -0.11442764 0.056035742 -0.08654338 -0.04806263
0.012228895 -0.078899965 -0.071031086 -0.09410622 -0.034435906 -0.08397142 0.005954806 0.10467119
0.060108528 0.049531814 -0.088026516 -0.09781656 0.092245765 -0.02340984 -0.045403995 -0.045008272
0.054159395 -0.053187795 0.0050896807 -0.1110725 0.09652837 -0.085092455 -0.00012992375 0.008159429
-0.083938725 -0.04294358 0.10137008 0.06136906 -0.079942 -0.098922424 -0.11649227 -0.071132645
-0.126702 0.09902129 -0.017560847 -0.009939989 -0.09485777 0.06769261 0.08117103 -0.032975778
0.12467152 0.0770121 -0.063308656 0.1206864 -0.04068442 -0.036020573 -0.030871185 0.039972052
0.07411696 0.089149415 -0.046095993 0.06256546 -0.034941096 0.06010259 -0.008270595 -0.0952343
-0.10724068 0.030410523 0.056721065 -0.09308279 0.08113 -0.0121663725 0.015453794 -0.07668528
0.027051015 -0.00023126957 0.010459016 0.083037615 0.075993106 -0.043157045 0.10952654 -0.0126642
0.0069164364 -0.068888925 -0.03922403 -0.085278235 -0.060178492 -0.092675306 0.003967776 -0.0735661
-0.03633678 -0.10546053 -0.0031891717 -0.0712989 -0.016647063 -0.010837023 0.040973783 -0.07282684
-0.060063764 0.038062576 -0.022846244 -0.083156876 -0.111940734 -0.04247774 -0.042486947 0.0054397774
0.03527559 0.07456379 0.03177373 0.101577826 0.100731984 0.08916607 -0.06978839 0.0055630286
0.044004492 -0.028482374 -0.03905484 0.0980754 -0.015503075 0.11511345 0.10753739 -0.08630541
-0.06180544 -0.097743735 0.086047426 0.11704389 -0.023057416 -0.015734322 0.089884505 0.09676649
0.03670686 0.06294819 -0.04794777 -0.09985062 -0.07538758 -0.11960398 0.0843243 -0.011152432
0.080338895 0.08593838 -0.05788976 0.05675828 0.08073996 -0.017764129 0.05180945 0.0056707775
0.042391878 -0.08550407 0.073318906 -0.08203921 0.079511195 -0.048009027 0.0054004565 0.093604825

lstm.bias_ih_l1 f4 [256]
00000000: babb 923d 9766 a63d be1e 923d d204 433d
00000010: 20b5 1bbd 5522 d5bd 2290 143d 6957 b93d
00000020: 9e3e 423d 515b 643b 9032 f3bd f710 cabd
00000030: 86c5 203d 4d7d 9a3c da55 8a3d 91d7 2f3d
00000040: 41c2 26bd 7529 e3bd c1e1 bdbd 8f5e e73d
00000050: b2b3 8d3d 7cbb fe3c f7c7 a33d fbba 28bb
00000060: 2056 573d 19a8 0dbd d4e5 ae3c f1c9 2f3b
00000070: 6745 4abd b90f b33c 9ef3 85bc 2a94 9e3c
00000080: 9e24 ffbc e42f 013e ccc4 dbbd 34c2 a8bd
00000090: 2a60 163d 883b 4639 0e7e 28bd 91bd cfbd
000000a0: b989 5fbd 47f6 813c 3959 49bc 5ab4 7ebd
000000b0: c889 a9bc 624f ce3d e294 b93d 2aab 8ebc
000000c0: 4eb5 b1bc 4784 f13d 6c77 cf3d deec 60bc
000000d0: 35ee 0cbc ff65 b6bd 74ec dc3d 13de f63d
000000e0: d082 ca3d c835 d63d f047 2838 deeb be3c
000000f0: c159 e4bd d6c0 f8bd 9f56 7cbd 6ac1 9e3d
00000100: 4dff 71bd 7113 e7bc a301 ec3d b259 2dbd
00000110: 3a9d 00bb f7c2 65bc 6ac0 8abc aa74 293d
00000120: 61d1 b73d 9fe5 e0bc 7f98 283d 86a4 4c3d
00000130: b854 c9bd 9ef2 843d befe 7aba 309c b7bd
00000140: d000 b7bb 991c 553c 6774 be3d 5bc0 513d
00000150: 8712 acbd 4ce1 64bd b7e6 6e3d f9f4 e03c
00000160: b70d 553d 1700 c43d 9691 83bb 7f2b aabd
00000170: 4091 3cb7 a2ce 7fbc c315 9d3c c0ac 15bc
00000180: 0f45 4cbd 8ce5 40bd b969 dcbc 4400 c33d
00000190: 52b5 05bb a8ec 11bd 87c4 5ebd 4ce9 bd3c
000001a0: b3ce e63d 1bc0 e9bb 96dd bebb f5f9 04bd
000001b0: 18a5 93bb a0cf 243d 73d7 a9bd cd41 f53d
000001c0: c565 e8bc b792 dabd 8c9b cb3d 215e f23d
000001d0: fc9a a3bd a22e 07be a69f ccbd 9938 e7bd
000001e0: 2cb5 9abd f5e9 febb c48a 7bbd 83b5 903c
000001f0: dc6b 913d f87d c9bd cbea 083e 7150 e8bc
00000200: 3f0f 333d 746d 4e3c e82d babd 2032 5a3d
00000210: 0aed 943d 3a46 b3bd cc1a 293c 1361 fdbd
00000220: 754b d0bd c1e6 ae3c 09b6 73bb 2558 8ebd
00000230: d702 f83d 3569 a9bd f9a5 cabd 643b 05bd
00000240: dddb 7e3d ab37 1fbd d3ca 923d f7ce 01be
00000250: 49ed 9fbd b4af 4abd 1e55 ccbd 08b8 a5bd
00000260: ea4a 02be 9a49 b93d 2bfb 9d3d 91e1 a23d
00000270: e3ca c53d d0bf a93d c7be 353d 3245 e23d
00000280: a61e dfbd 77d0 f93d e021 cabd 22c0 963d
00000290: 0937 913c f37e 46bd d3cb 27bc 8df5 7bbc
000002a0: 1270 a1bd 4ca6 f9bd 6091 d73d 54f4 80bd
000002b0: a300 a3bd 83d9 4bbd eb4e 7a3c 6ec4 463d
000002c0: 2b6f 923c d46f aabc cf6c edbc 3aeb e9bd
000002d0: d2a3 7fbd f302 a4bd 00ce adbc 9c71 b13d
000002e0: 221e a7bd a043 c93d 1358 f53d fa41 aebb
000002f0: d17f a0bd 0848 bc3d 17f6 013e c194 03be
00000300: d722 4cbd 835d 593d b522 dd3d 1246 95bc
00000310: c9e2 f53d 64ff c63c 32fe ccbd 37ae f73d
00000320: c87d 8fbd 8a01 853c 1432 46bd 6e3b cb3c
00000330: 72fc 33bd 2360 d8bd 13d8 e6bd 39ce 1f3d
00000340: c03d eebd 1ada c7bd 1db3 babd 98af 023d
00000350: 327a 153d 7b45 d23d 6d82 273d 87f6 19bc
00000360: 60b6 ce3d 6407 c3bd 0002 e93d 61bd c13d
00000370: ec2e d03b 3279 d93a 7af7 003e 36f0 a73d
00000380: 910f a23c 2de8 e5bd 2830 e43d 2384 903c
00000390: 732e 95bd 7e5c 89bc 880c f93d 3a19 29bd
000003a0: 971f b63c b2ae af3c 4f02 eabd 559e 943d
000003b0: 2634 c93d 9920 adbd e82c d2bc 6dc1 2cbd
000003c0: 3808 a13d fa2a fc3d 3e75 d0bd 11ea b23c
000003d0: a7cc fc3d 5793 503d 8bd2 013e 215d e1bd
000003e0: e8a1 1fbd 41d8 653d e6b0 dd3d bb67 b83d
000003f0: 364f c03b 46e8 f9bc 571e 573d a295 ef3d
0.07164712 0.08125036 0.0713477 0.04761202 -0.03801453 -0.10406939 0.03627027 0.09049875
0.047422998 0.0034844468 -0.118748784 -0.09866517 0.039250873 0.018858576 0.06754656 0.04293019
-0.0407126 -0.11091892 -0.09271575 0.112973325 0.0691904 0.031095259 0.07997125 -0.0025746215
0.05257237 -0.03458414 0.021349825 0.0026823247 -0.049382593 0.021858083 -0.016351517 0.01935776
-0.03114539 0.12615925 -0.107308954 -0.08240166 0.036712803 0.00018904929 -0.04113584 -0.10143579
-0.054574702 0.015864505 -0.012289339 -0.062183715 -0.020695582 0.10073735 0.090616 -0.017415602
-0.021692898 0.11792808 0.101302 -0.013728349 -0.008601715 -0.08906173 0.10787287 0.12054076
0.09888232 0.10459477 4.012132e-05 0.02330583 -0.11149932 -0.121461555 -0.061606046 0.077517346
-0.059081364 -0.028207513 0.1152375 -0.04232187 -0.0019624964 -0.014023534 -0.016937453 0.041371025
0.08975483 -0.027453242 0.041161057 0.04996159 -0.09830612 0.06491588 -0.00095747027 -0.08965337
-0.0055848137 0.0130073065 0.09299546 0.051208835 -0.08401971 -0.055878922 0.058325496 0.027460562
0.052015033 0.0957033 -0.004015158 -0.083090775 -1.1239492e-05 -0.01561323 0.019175416 -0.009135425
-0.049870547 -0.047093913 -0.026905881 0.09521535 -0.0020402265 -0.035626084 -0.05438664 0.023182534
0.112698935 -0.0071334965 -0.005824755 -0.03246494 -0.0045057647 0.04023707 -0.08293047 0.11975441
-0.02836884 -0.10672515 0.099417776 0.1183436 -0.07988545 -0.13201383 -0.09991388 -0.11290092
-0.07554087 -0.0077793547 -0.061411634 0.017664677 0.07100651 -0.0983848 0.13370816 -0.02835867
0.04371571 0.012599338 -0.09090787 0.05327046 0.07271774 -0.08753629 0.01032133 -0.12372031
-0.10170642 0.021350266 -0.0037187359 -0.06950406 0.12109917 -0.0827202 -0.09894938 -0.032527342
0.062221397 -0.03887145 0.07167592 -0.12676607 -0.078089304 -0.04948397 -0.09977172 -0.08091742
-0.1272389 0.090472415 0.07713922 0.0795318 0.09657838 0.082885385 0.044371393 0.11048354
-0.108945176 0.12197965 -0.098697424 0.07360865 0.017726438 -0.048460912 -0.010241467 -0.015378368
-0.07882704 -0.12189922 0.10525775 -0.06296602 -0.07959106 -0.049767982 0.015277605 0.048527174
0.017875275 -0.020805277 -0.028982548 -0.11421819 -0.06241209 -0.08008375 -0.021216393 0.086642474
-0.08160044 0.098273516 0.119796894 -0.0053179236 -0.07836879 0.09193426 0.12691532 -0.12849714
-0.049837913 0.053067695 0.107976355 -0.018221889 0.120061465 0.024291702 -0.100094214 0.12093776
-0.07006413 0.016236085 -0.048387602 0.024808612 -0.043941922 -0.105652116 -0.11271682 0.03901503
-0.11632872 -0.097583964 -0.091161944 0.03190574 0.036493488 0.102671586 0.040895868 -0.009397156
0.10093379 -0.09522894 0.113773346 0.09459949 0.00635325 0.0016591905 0.12594405 0.082001135
0.019782813 -0.11225925 0.111419976 0.017641133 -0.0728425 -0.016767737 0.12160593 -0.041283824
0.02223186 0.021445606 -0.114262216 0.07256762 0.098244 -0.08453483 -0.025656179 -0.042176653
0.07862896 0.12312885 -0.10178612 0.021840127 0.12343722 0.050921764 0.12677972 -0.11004091
-0.038972765 0.05611444 0.10824756 0.0900416 0.0058688177 -0.030506264 0.05251917 0.11698462
