models/ETH_USDT_4h_model.pth (torch, 215461 bytes, 9 tensors)

lstm.weight_ih_l0 f4 [256, 10]
0	0xbccab8f2	-0.024746392
1	0x3d0922e4	0.03348054
2	0xbdddbb98	-0.10826796
3	0xbd2c43a3	-0.04205669
4	0xbd11a9a2	-0.035562165
5	0xbd246120	-0.040131688
6	0xbdc4a6e5	-0.09602145
7	0x3db2eb82	0.08736326
8	0xbd9cbc1a	-0.07653065
9	0xbdae1b0b	-0.08501252
10	0x3cea2479	0.028581845
11	0xbdbc19bb	-0.09184595
12	0xbda5dd0f	-0.08098804
13	0xbc113f7a	-0.008865232
14	0x3c01c617	0.007920763
15	0xbd5fae6f	-0.054609712
16	0xbd7e0e0d	-0.06202512
17	0xbdbfab27	-0.093588166
18	0x3da37f7a	0.079832986
19	0xbd9e8831	-0.0774082
20	0x3d7d21f1	0.061799947
21	0x3e008526	0.12550792
22	0x3cf0bb0e	0.02938607
23	0xbc3f4a1e	-0.011675386
24	0xbde6ac62	-0.11263348
25	0xbde3b4d1	-0.11118472
26	0x3de83852	0.11338867
27	0xbdb41f3b	-0.08795019
28	0xbd8eb658	-0.06968373
29	0xbde0cf47	-0.10977035
30	0x3db34cfe	0.087549195
31	0xbdfead62	-0.12435414
32	0x3c2da307	0.010597951
33	0x3dccb18d	0.099948026
34	0x3d910cdc	0.07082531
35	0x3d7e973c	0.062155947
36	0xbdf38274	-0.11890116
37	0x3db79f5d	0.08965943
38	0x3c9c6384	0.019090421
39	0xbcf3f35a	-0.029779125
40	0xbdd5b62d	-0.10435138
41	0xbd080a5b	-0.033213
42	0xbd985b85	-0.07439331
43	0xbd70a7a6	-0.058753632
44	0x3bd4d7c6	0.0064954488
45	0xbc69d238	-0.014271311
46	0x3d3960df	0.0452584
47	0xbd3397d7	-0.043845978
48	0xbd7777af	-0.060416874
49	0xbdc5ef39	-0.09664769
50	0x3db5d437	0.088783674
51	0xbe039268	-0.12848818
52	0x3d94ab40	0.07259226
53	0x3dd72b47	0.105063014
54	0x3db9a319	0.090643115
55	0xbd65298e	-0.055947833
56	0xbdc1db6f	-0.09465682
57	0xbdecf3ac	-0.11569914
58	0x3a252b00	0.0006300658
59	0xbd5011fc	-0.0507984
60	0x3d7fa298	0.06241092
61	0x3c4a3dc3	0.012343827
62	0x3d643f70	0.05572456
63	0x3ba809e3	0.0051281317
64	0xbc79d48b	-0.015248428
65	0xbdb967c2	-0.09052993
66	0x3d1891b1	0.037248317
67	0xbdd9ad09	-0.10628707
68	0xbd3477c2	-0.044059522
69	0xbe063315	-0.13105424
70	0x3d2c17a6	0.04201474
71	0x3d991f09	0.074766226
72	0x3e0161c2	0.12634948
73	0x3cb95d55	0.022627512
74	0x3cadd55e	0.021219905
75	0xbd41c9ea	-0.0473117
76	0xbd087cf2	-0.033322282
77	0x3db19012	0.08670057
78	0xbceda459	-0.029009031
79	0x3c176d88	0.009242423
80	0xbd2d7ed9	-0.0423573
81	0x3dc1d13b	0.09463736
82	0x3d1b7aeb	0.03795902
83	0x3e068563	0.1313682
84	0xbdab6d97	-0.08370512
85	0xbce823bd	-0.028337354
86	0x3c7ecf80	0.015552402
87	0xbb64f9fc	-0.0034939041
88	0xbd8c4e5d	-0.06850884
89	0xbdc5eca6	-0.09664278
90	0x3d9649ae	0.07338272
91	0xbdbc48f0	-0.09193599
92	0xbd7db0e3	-0.06193627
93	0x3cf1c930	0.029514879
94	0xbce5c562	-0.028048221
95	0x3dce2fa5	0.10067681
96	0xbd9f9f15	-0.07794014
97	0xbdd8c7e8	-0.10585004
98	0xbd6d5a4f	-0.057947453
99	0x3e01283f	0.12613009
100	0xbd1aa186	-0.037751697
101	0x3cefaabf	0.029256223
102	0x3d8f6e69	0.07003481
103	0xbdbb0497	-0.09131735
104	0x3c80d21c	0.015725188
105	0x3d5229bf	0.051309343
106	0xbdbd596e	-0.09245573
107	0xbde320dc	-0.11090252
108	0xbb1a117b	-0.0023508954
109	0x3df9deb6	0.12200682
110	0xbd98fb13	-0.074697636
111	0x3d2154bc	0.03938745
112	0xbcc5d5fa	-0.024149884
113	0x3e09ad79	0.13445081
114	0x3ce461d0	0.027878672
115	0xbd459a50	-0.048242867
116	0xbb1dd7bd	-0.002408489
117	0xbc696119	-0.014244341
118	0xbc0ecb96	-0.008715531
119	0x3de7d676	0.11320202
120	0x3de1278c	0.10993871
121	0xbdab3e2b	-0.08361467
122	0x3d38d23d	0.045122374
123	0x3d221069	0.03956643
124	0xbdab76c7	-0.08372264
125	0x3da51630	0.080608726
126	0xbca2c2c7	-0.019868268
127	0x3d81aaf8	0.06331438
128	0xbdd750f7	-0.1051349
129	0xbc885094	-0.016639985
130	0x3da6ad6e	0.08138548
131	0xbd83d4d6	-0.064370796
132	0x3db1fcdc	0.08690807
133	0x3cc7aa50	0.024373204
134	0x3ddd2461	0.10797954
135	0xbdd90488	-0.105965674
136	0x3de024de	0.10944532
137	0x3d403357	0.04692396
138	0xbd73fa74	-0.059565023
139	0xbd2d6090	-0.042328417
140	0xbbc87cf7	-0.0061184126
141	0x3dcb0767	0.09913521
142	0x3de558e1	0.11198593
143	0xbd6761a1	-0.05648959
144	0x3d1147e9	0.03546897
145	0xbc21c008	-0.009872444
146	0xbd9508be	-0.07277058
147	0x3ccecf39	0.025245296
148	0x3db3b19c	0.08774111
149	0xbd8fb316	-0.0701658
150	0xbc6dda3d	-0.014517364
151	0xbdc13d17	-0.0943548
152	0x3d04bdc3	0.032407533
153	0x3cb7ee82	0.022452597
154	0x3ccaa7a9	0.02473815
155	0xbd90b68c	-0.07066068
156	0xbd640af0	-0.055674493
157	0x3e028a98	0.12748182
158	0xbdb64b98	-0.08901137
159	0x3dede3f1	0.11615742
160	0xbd807bf3	-0.062736414
161	0xbde48342	-0.11157848
162	0xbd626784	-0.0552745
163	0xbc687aac	-0.0141894035
164	0x3cc2d83b	0.023784747
165	0xbdd012d1	-0.10159839
166	0xbd346ad8	-0.044047207
167	0xbca1de1a	-0.019759227
168	0xbd1ca782	-0.038245685
169	0x3d7f0611	0.062261645
170	0x3db94f45	0.090483226
171	0x3df01025	0.11721829
172	0xbcc5d400	-0.024148941
173	0xbdb10afd	-0.08644674
174	0x3c990476	0.018678885
175	0xbd9d9a81	-0.07695485
176	0x3dc58576	0.09644596
177	0xbd74f3e3	-0.0598029
178	0x3e024610	0.12722039
179	0x3c880f28	0.01660879
180	0xbcad1773	-0.021129346
181	0x3dee3024	0.11630276
182	0xbda9ebd2	-0.08296932
183	0x3d9d4b11	0.076803334
184	0x3dc8b175	0.09799472
185	0xbdcf8b3c	-0.10133979
186	0xbc32cda3	-0.010913285
187	0x3ca797d0	0.020458132
188	0x3dbb6d85	0.091517486
189	0x3c89a986	0.016804468
190	0xbbafd548	-0.0053660013
191	0x3d3765a8	0.04477468
192	0xbd658f7b	-0.056045037
193	0xbd9d215e	-0.0767238
194	0x3d23c8f9	0.039986584
195	0x3dfd4d89	0.12368304
196	0x3d8f5dcb	0.070003115
197	0xbde06ff1	-0.10958851
198	0x3cf218d5	0.029552856
199	0xbd0fbbff	-0.035091396
200	0x3bfc3134	0.007696295
201	0x3d942764	0.07234076
202	0xbdd1a3dd	-0.102363326
203	0xbc5ab6d7	-0.0133492565
204	0x3d901ebc	0.07037112
205	0x3da7f02f	0.08200108
206	0x3d9b6e0c	0.07589349
207	0xbae0b229	-0.001714294
208	0x3e039365	0.12849195
209	0xbca5eddd	-0.020255024
210	0x3dc5c74a	0.09657152
211	0x3dfaef44	0.122526675
212	0xbbb5a13e	-0.005542903
213	0xbde94553	-0.11390176
214	0x3daff2ec	0.085912555
215	0x3dbba8f6	0.09163086
216	0x3ae556c3	0.001749717
217	0xbdddf34c	-0.10837421
218	0xbc961743	-0.018321639
219	0xba2b366e	-0.0006531243
220	0x3d6c560b	0.057699244
221	0x3ddc0aaa	0.107442215
222	0x3dd5da6c	0.10442051
223	0xbd31ff95	-0.043456633
224	0x3d0d387b	0.034477692
225	0x3dbf3acf	0.09337389
226	0x3d008986	0.031381153
227	0xbc79dfb8	-0.015251093
228	0xbde29dd8	-0.110652626
229	0xbdc09bd1	-0.094047196
230	0xbdbfe009	-0.09368903
231	0x3d07bf0b	0.033141177
232	0xbd895464	-0.06705549
233	0x3d5f7560	0.054555297
234	0xbdb0506e	-0.08609091
235	0xbd89c020	-0.06726098
236	0x3e07fbd3	0.13279657
237	0xbd976819	-0.07392902
238	0x3e02ecc9	0.12785639
239	0x3c898367	0.01678629
240	0x3cfce76c	0.03087207
241	0xbd9f8285	-0.077885665
242	0x3c9b0ce7	0.01892705
243	0x3d96baa6	0.07359819
244	0x3bdc1569	0.0067164195
245	0xbca66c06	-0.020315181
246	0x3dc59ede	0.09649442
247	0xbc3d62ef	-0.011559232
248	0x3c57a7bb	0.013162549
249	0xbd7025e0	-0.05862987
250	0xbbfd0f1d	-0.007722749
251	0x3dd6ed5e	0.10494493
252	0x3ccb2737	0.024798973
253	0x396438d0	0.00021764939
254	0x3d7bd9af	0.061486896
255	0x3c0fa5a1	0.008767516

lstm.weight_hh_l0 f4 [256, 64]
0	0xbba78d57	-0.0051132846
1	0xbd636058	-0.055511802
2	0x3d8818f8	0.066453874
3	0xbdd5ca67	-0.10438996
4	0x3da28053	0.07934632
5	0xbe0a518a	-0.13507667
6	0x3e03762e	0.1283805
7	0x3da9b90d	0.08287249
8	0x3dd9dc93	0.10637774
9	0x3da5dacb	0.08098372
10	0x3da4b071	0.08041466
11	0xbd893aef	-0.06700694
12	0x3b35528a	0.0027667605
13	0xbe0748fe	-0.13211438
14	0xbd711ede	-0.058867328
15	0xbd856dbd	-0.065150715
16	0xbd6489fd	-0.05579566
17	0x3d94dbab	0.07268461
18	0x3bdd56b8	0.0067547224
19	0x3c878d78	0.01654695
20	0x3d8baf70	0.068205714
21	0x3db22d41	0.08700038
22	0x3df1a1fd	0.11798475
23	0xbdf8d254	-0.12149492
24	0x3cf9caae	0.030492153
25	0xbddeffdd	-0.10888646
26	0x3d3043b9	0.043033335
27	0xbddd7a4c	-0.10814342
28	0xbdcfa62a	-0.10139115
29	0x3dbbd29e	0.091710314
30	0x3dc7cab4	0.097554594
31	0x3e04c67e	0.12966344
32	0xbdde5be6	-0.10857372
33	0xbd33de20	-0.043913007
34	0x3cc03f9f	0.023467837
35	0x3d895aad	0.06706748
36	0xbdf89dc1	-0.12139464
37	0x3d84f626	0.064922616
38	0x3c25327e	0.010082839
39	0x3ce08ad3	0.027409947
40	0x3dd46243	0.103703044
41	0x3dc791aa	0.0974458
42	0xbdecb504	-0.115579635
43	0x3d9cf25c	0.07663414
44	0x3e01b90e	0.12668249
45	0xbd485218	-0.048906416
46	0x3d38ce9a	0.045118906
47	0x3b44167a	0.0029920624
48	0xbdf9cf98	-0.121977985
49	0x3dae3541	0.08506251
50	0x3da6e7bc	0.081496686
51	0x3e0ae890	0.13565278
52	0x3cf9574a	0.03043713
53	0xbd000100	-0.031250954
54	0xbddca6aa	-0.10773976
55	0xbcbbce90	-0.022925645
56	0xbce7747f	-0.028253792
57	0x3b1955f6	0.0023397184
58	0xbdbd6acf	-0.09248888
59	0xbc280d08	-0.010257013
60	0x3d4d0606	0.050054573
61	0xbd81c8d2	-0.063371316
62	0x3d16bb78	0.036799878
63	0xbdf1ee9f	-0.118130915
64	0x3c6311f0	0.013859257
65	0xbcc8cf39	-0.024512874
66	0xbdb3cdcb	-0.08779486
67	0x3ba49bca	0.0050234543
68	0x3da85c00	0.082206726
69	0x3d870998	0.06593627
70	0x3e09b56a	0.1344811
71	0x3c9dcf19	0.01926379
72	0x3dcce650	0.10004866
73	0x3cc8f85f	0.024532495
74	0x3d1f4c11	0.038890902
75	0xbb019ee3	-0.0019778542
76	0x3da91437	0.08255809
77	0xbd43a22a	-0.047762074
78	0xbdb32f45	-0.0874925
79	0xbd011dc6	-0.031522535
80	0x3dac4c1a	0.08412953
81	0xbde7bdbb	-0.11315485
82	0xbd7147ad	-0.058906246
83	0xbda97ffc	-0.08276364
84	0xbc64ed88	-0.0139726475
85	0x3dd85a6f	0.10564124
86	0x3e0737b3	0.13204841
87	0x3caf1758	0.021373436
88	0x3e06750a	0.13130584
89	0xbd997d0e	-0.074945554
90	0xbce5c81b	-0.02804952
91	0xbd0e57da	-0.03475175
92	0x3de67940	0.11253595
93	0xbdcd4732	-0.10023345
94	0x3ca4a107	0.020096315
95	0xbde3f149	-0.11130006
96	0xbd34de8e	-0.044157557
97	0x3e014378	0.12623394
98	0xbcd578c6	-0.026058566
99	0x3da3517a	0.07974525
100	0x3de255d5	0.110515274
101	0xbd4ad14e	-0.049516015
102	0x3df472f1	0.11935986
103	0x3ca89da7	0.020582987
104	0xbe06da43	-0.13169198
105	0x3d95fbff	0.07323455
106	0x3d85572c	0.06510767
107	0x3d2c195e	0.04201638
108	0xbc7922ed	-0.015206081
109	0xbc356866	-0.011072254
110	0x3d23e20f	0.04001051
111	0x3ca7ecf4	0.02049873
112	0xbd132711	-0.03592593
113	0xbd599bf9	-0.053127263
114	0xbdddf051	-0.10836852
115	0x3dd6f20e	0.10495387
116	0xbad19cbe	-0.0015992147
117	0xbd7fe2e6	-0.062472247
118	0x3da70e9b	0.08157083
119	0xbe01c8cc	-0.12674254
120	0xbc67430b	-0.014115105
121	0x3c987975	0.018612603
122	0x3d42ad25	0.047528405
123	0xbd03c6fa	-0.03217218
124	0xbdd5cf56	-0.10439937
125	0xbd9331cc	-0.071872324
126	0x3de91c75	0.11382381
127	0xbda12a8b	-0.078694426
128	0xbde649bd	-0.11244533
129	0x3cc125c9	0.023577588
130	0xbda33f79	-0.07971091
131	0x3dae9826	0.08525114
132	0xbd3219ac	-0.043481514
133	0xbdfea6a5	-0.12434129
134	0xbdab0693	-0.08350863
135	0x3bb213c6	0.005434486
136	0x3d890dc6	0.0669208
137	0x3d24540d	0.04011922
138	0xbde4f79f	-0.111800425
139	0x3d1b4267	0.037905123
140	0xbdaf6605	-0.085643806
141	0x3dc44139	0.09582753
142	0x3c386cfc	0.011256453
143	0x3daf6471	0.085640796
144	0x3d002fe6	0.03129568
145	0x3d6e61cf	0.058198746
146	0xbdb9d96c	-0.09074673
147	0x3dbd7657	0.09251087
148	0x3d02c071	0.031921808
149	0x3c89ce9d	0.016822154
150	0x3d331909	0.043725047
151	0xbdb91ab0	-0.09038293
152	0xbdb0f9c5	-0.0864139
153	0x3d86c3ad	0.06580291
154	0xbd16f8ae	-0.036858253
155	0xbc7a8bd9	-0.015292131
156	0xbd834253	-0.06409135
157	0xbcdf7d1c	-0.027281336
158	0xbc9306f8	-0.017947659
159	0xbd219c86	-0.039455913
160	0xbd002daa	-0.03129355
161	0xbd921999	-0.071337886
162	0x3b6ed8eb	0.003644521
163	0x3af6d695	0.0018832261
164	0xbdbcc7e6	-0.09217815
165	0x3b8d7611	0.004317053
166	0xbde78706	-0.113050506
167	0x3ce16d7e	0.02751803
168	0x3d8a3f1d	0.06750319
169	0xbd6568cc	-0.056008145
170	0xbe0085ae	-0.12550995
171	0x3c9b61b1	0.018967481
172	0xbc8dfa51	-0.017331274
173	0xbb9ff97b	-0.0048820353
174	0x3c65c541	0.01402408
175	0xbdcfeb72	-0.101523295
176	0xbdd2da2a	-0.10295518
177	0x3d8cae57	0.0686919
178	0x3deae359	0.114691444
179	0x3de7a12a	0.113100365
180	0xbdd34ba2	-0.1031716
181	0xbdf73300	-0.12070274
182	0x3d5b986b	0.053612154
183	0x3da0865b	0.07838126
184	0x3d06dc28	0.0329248
185	0x3d0d3e34	0.03448315
186	0x3c13714c	0.00899918
187	0xbb17f49b	-0.0023186568
188	0x3d44ef4d	0.048079778
189	0xbcb19eea	-0.021682221
190	0xbc966d45	-0.01836265
191	0x3d8fa1ed	0.07013307
192	0xbde4f7ec	-0.111801
193	0x3d8cb492	0.068703786
194	0xbd3cf2fa	-0.046130158
195	0x3dad8167	0.08471947
196	0x3dadbc0d	0.084831335
197	0xbde82e7f	-0.113369934
198	0x3de81b60	0.11333346
199	0xbd7b0fee	-0.06129449
200	0xbd0dc21b	-0.03460894
201	0x3dd2e177	0.1029691
202	0x3df391c8	0.1189304
203	0xbc279d78	-0.010230415
204	0xbcdf5ea7	-0.027266813
205	0x3cc80e6b	0.024420938
206	0xbdef1837	-0.116745405
207	0xbca5f80a	-0.020259876
208	0x3da428a9	0.08015568
209	0xbb93e390	-0.0045132115
210	0x3dc78b0e	0.097433195
211	0x3e04fbe5	0.12986715
212	0xbd2c9ae1	-0.04213989
213	0x3cf70a0d	0.03015616
214	0xbcbb82f9	-0.022889601
215	0x3e032503	0.12807088
216	0x3ccd636d	0.025071824
217	0xbd798546	-0.060918115
218	0xbcf0810e	-0.029358413
219	0x3dd8fb29	0.1059478
220	0x3de81185	0.113314666
221	0x3d97bbd3	0.074088715
222	0xbda60894	-0.08107105
223	0xbc2cd8ba	-0.0105497185
224	0x3c10d208	0.008839138
225	0x3d862dda	0.06551714
226	0x3d913bf2	0.07091512
227	0x3d5a01e7	0.05322447
228	0xbb89ef0b	-0.0042094043
229	0x3da62e98	0.08114356
230	0x3d719adc	0.058985576
231	0xba000bc0	-0.00048845634
232	0xbd393c7c	-0.045223698
233	0xbd9af751	-0.07566703
234	0x3e0421be	0.12903497
235	0xbdf5481c	-0.119766444
236	0x3deaaffc	0.114593476
237	0x3d467f91	0.0484615
238	0x3def1f8b	0.11675938
239	0xbd63652c	-0.055516407
240	0xbcb47142	-0.022026662
241	0xbdaadec9	-0.08343274
242	0x3de1edde	0.11031698
243	0xbd5e9d5a	-0.05434928
244	0xbd65ef93	-0.05613668
245	0x3dce5c80	0.10076237
246	0x3d548235	0.051881988
247	0xbd87b301	-0.06625939
248	0xbdda0c7f	-0.10646915
249	0x3df853aa	0.12125333
250	0x3d7964d2	0.060887165
251	0xbd036cf3	-0.032086324
252	0x3e077213	0.1322711
253	0x3c40470e	0.011735691
254	0xbd8e10d9	-0.06936807
255	0xbd2b675c	-0.041846618

lstm.bias_ih_l0 f4 [256]
0	0xbb40f58f	-0.002944324
1	0xbc4ec88b	-0.012621055
2	0xbc0005aa	-0.00781385
3	0xbc115cdd	-0.008872238
4	0x3d9621a0	0.07330632
5	0xbdd40804	-0.10353091
6	0xbd7db283	-0.06193782
7	0x3de73efb	0.112913094
8	0xbc980d03	-0.018560892
9	0x3d7890e5	0.060685057
10	0xbdb707b0	-0.08937013
11	0x3dd905e6	0.10596828
12	0x3d41898c	0.047250316
13	0xbd9cfcb1	-0.076653846
14	0x3df01a1d	0.11723731
15	0x3c80e888	0.01573588
16	0xbb3fc22c	-0.0029260023
17	0xbda5e1de	-0.08099721
18	0x3db672ec	0.08908638
19	0x3d38f8fc	0.045159325
20	0x3e069ff4	0.13146955
21	0xbdd517e0	-0.104049444
22	0x3d554bad	0.052074123
23	0xbc204221	-0.009781391
24	0x3c9c0980	0.019047499
25	0x3cbcff88	0.023071066
26	0x3d88a69a	0.06672402
27	0x3ca02961	0.019550981
28	0x3d9ce162	0.07660176
29	0xbd8c3c61	-0.06847454
30	0xbdd50d8f	-0.10402977
31	0x3c818719	0.01581149
32	0x3dcb9348	0.09940201
33	0xbdcc96f6	-0.09989731
34	0xbd29afdf	-0.04142749
35	0xbd921634	-0.07133141
36	0x3d09a574	0.033605054
37	0xbc3321fa	-0.010933394
38	0x3c7da718	0.015481733
39	0x3cad2ac7	0.021138562
40	0x3d8db7e4	0.0691984
41	0x3d609a7a	0.05483482
42	0xbd847415	-0.064674534
43	0x3dbf8c76	0.09352963
44	0x3d2c7590	0.042104304
45	0xbdb91e8e	-0.09039031
46	0xbbea77d5	-0.0071553984
47	0x3e06cbfe	0.13163754
48	0xbcb66149	-0.022263186
49	0xbd852459	-0.065010734
50	0x3d622fbe	0.05522131
51	0xbc40429c	-0.011734631
52	0xbcca778f	-0.024715213
53	0xbdea31f7	-0.11435311
54	0xbdc1dea4	-0.094662935
55	0x3cbf5607	0.02335645
56	0x3dfbac25	0.12288693
57	0x3b3bc4fe	0.0028651352
58	0xbde368aa	-0.111039475
59	0xbdb21c38	-0.086967885
60	0x3d4f4812	0.05060584
61	0x3d6e9602	0.058248527
62	0x3dec6d4a	0.11544283
63	0xbd585ab2	-0.05282087
64	0x3e012ca9	0.12614693
65	0x3c6a14d8	0.014287196
66	0xbc9e3483	-0.019312149
67	0x3dc15ba0	0.09441304
68	0xbc9315cb	-0.017954728
69	0x3d558405	0.052127857
70	0x3d946170	0.07245147
71	0x3d140a37	0.036142554
72	0x3d71fc84	0.05907871
73	0x3d7d676d	0.061866213
74	0xbc8998b0	-0.01679644
75	0x3dffb19c	0.12485048
76	0xbdaa4fdc	-0.08316013
77	0x3d80925b	0.06277915
78	0xbd90d24a	-0.070713595
79	0xbcf39c13	-0.029737508
80	0xbdb74017	-0.08947771
81	0x3da2e286	0.07953362
82	0x3d64cc01	0.055858616
83	0xbd35e1ee	-0.044404916
84	0xbdcd670a	-0.10029419
85	0x3db50dc4	0.08840516
86	0x3dc976bc	0.098371
87	0x3dd401d3	0.103519104
88	0x3dc2ea2a	0.095173195
89	0xbc648dc6	-0.013949817
90	0x3d3d6509	0.046238933
91	0x3dd6df21	0.10491777
92	0x3d6687b1	0.05628175
93	0x3d838738	0.06422275
94	0x3d26a338	0.040683
95	0x3d642fa4	0.055709496
96	0x3cca6e45	0.024710784
97	0x3d2fb69a	0.04289875
98	0x3d9538e6	0.07286243
99	0x3d1e995a	0.038720466
100	0x3dbffa63	0.09373929
101	0xbd2eddd5	-0.042692024
102	0x3dc4dcdf	0.0961244
103	0xbcf515a0	-0.029917538
104	0xbcaf9335	-0.021432498
105	0xbd3d925c	-0.046282157
106	0x3d8135d7	0.06309097
107	0xbd295220	-0.041338086
108	0x3d007a41	0.03136659
109	0x3da2db11	0.0795194
110	0xbd54544f	-0.051838215
111	0x3c383c69	0.011244872
112	0x3d559026	0.052139424
113	0xbde1ba1c	-0.11021826
114	0x3bd398bc	0.0064574163
115	0x3d557b6b	0.052119654
116	0xbcc6b3ee	-0.024255719
117	0x3d78eec8	0.060774595
118	0xbbcb8c12	-0.006211766
119	0x3d2ac62d	0.0416929
120	0xbb81d877	-0.003962572
121	0xbca04048	-0.019561902
122	0x3d981d34	0.07427445
123	0x3c10e7f8	0.008844368
124	0x3d4ba065	0.04971351
125	0xbd9fb40f	-0.07798015
126	0x3bb98580	0.0056616664
127	0xbdc307e0	-0.095229864
128	0xbd386473	-0.04501767
129	0x3d341797	0.04396781
130	0xbd20f121	-0.03929246
131	0x3e058454	0.1303876
132	0x3d298864	0.041389838
133	0xbd20c932	-0.039254375
134	0xbc50a165	-0.012733792
135	0xbc2fca0e	-0.010729326
136	0x3e00cd2b	0.12578265
137	0xbcc4652f	-0.02397403
138	0xbdbc109e	-0.09182857
139	0xbd997c94	-0.074944645
140	0x3d888389	0.06665713
141	0x3d0b47c6	0.034003995
142	0xbd0d97fc	-0.03456877
143	0x3d669eca	0.056303777
144	0xbdb68223	-0.0891154
145	0x3cc5559c	0.024088673
146	0xbcd49648	-0.025950566
147	0xbdbb5150	-0.091463685
148	0x3be21416	0.006899367
149	0xbdf864b1	-0.1212858
150	0x3d871de3	0.06597497
151	0xbd71a1b9	-0.05899212
152	0xbc4d0f05	-0.012515788
153	0xbdf9452e	-0.12171398
154	0xbd8fbc74	-0.070183665
155	0x3dcd4dd0	0.10024607
156	0xbdac1246	-0.08401923
157	0x3cc6e2f4	0.024278142
158	0x3c3ecf0a	0.011646042
159	0x3dc1173c	0.0942826
160	0xbdbd7b86	-0.09252076
161	0x3df65615	0.120281376
162	0x3db51923	0.08842685
163	0x3d1bfa20	0.038080335
164	0xbdd1a318	-0.10236186
165	0x3ccb8079	0.024841534
166	0x3dbd77a8	0.09251338
167	0x3d2e1c95	0.042507727
168	0x3c42cd53	0.011889773
169	0xbd4f2186	-0.05056908
170	0x3d81153e	0.0630288
171	0x3d75210f	0.05984598
172	0x3ac8638b	0.0015288455
173	0xbdb85eb1	-0.09002436
174	0xbdfd3c59	-0.12365026
175	0xbcce4b0d	-0.025182271
176	0xbdb868b4	-0.090043455
177	0x3c507c39	0.0127249295
178	0x3dec2419	0.115303226
179	0x3ca25dc7	0.019820107
180	0xbde5c4b7	-0.11219161
181	0xbde8f938	-0.1137566
182	0x3d3d674d	0.046241093
183	0x3d7c0c40	0.06153512
184	0xbdbcf2b1	-0.09225977
185	0x3dd452d4	0.10367361
186	0x3dc04c48	0.093895495
187	0xbd5c635c	-0.053805694
188	0xbe05ccd6	-0.1306642
189	0xbd3ea5f7	-0.046544995
190	0xbdc522b4	-0.0962576
191	0x3d525c9d	0.051357854
192	0x3c7f50c3	0.01558322
193	0xbc5e7418	-0.013577484
194	0x3d80c276	0.062870905
195	0xbbbcd77f	-0.005762994
196	0xbd959506	-0.073038146
197	0x3db23b97	0.08702772
198	0x3ddd360f	0.108013265
199	0xbd8a2066	-0.06744461
200	0x3d98fd5d	0.074702
201	0x3dcd5f82	0.10027982
202	0x3b8bc39b	0.0042652613
203	0x3dabb512	0.08384146
204	0xbd96feaa	-0.07372792
205	0xbdf9fd0b	-0.12206467
206	0xbdec57c3	-0.11540177
207	0x3d57c633	0.052679252
208	0xbc09f251	-0.008419589
209	0x3dd71d73	0.10503664
210	0x3d8157ee	0.063155994
211	0x3db74c79	0.08950133
212	0x3da483a1	0.08032919
213	0x3cc9484b	0.024570605
214	0xbd6d70b0	-0.057968795
215	0x3e07cabe	0.13260934
216	0xbd9121c3	-0.07086518
217	0x3e000ddd	0.12505288
218	0x3b39f693	0.002837573
219	0x39ec4211	0.0004506265
220	0x3dc86a99	0.09785957
221	0xbd406b9d	-0.046977628
222	0xbd8a60d3	-0.06756749
223	0x3d38f48b	0.04515509
224	0x3d4e3396	0.050342165
225	0x3da7e7fe	0.08198546
226	0x3cd5b109	0.026085394
227	0xbde81a80	-0.113331795
228	0x3c7cdef1	0.015434013
229	0x3dc4dfe9	0.0961302
230	0xbdcae88f	-0.09907638
231	0x3dc76ec7	0.09737926
232	0x3d218a53	0.039438557
233	0xbde531f7	-0.11191171
234	0xbcfcc177	-0.03085397
235	0x3d802da8	0.06258708
236	0xbda6f015	-0.08151261
237	0xbd542fb4	-0.051803306
238	0xbdb025a5	-0.0860093
239	0x3d4cfb65	0.050044436
240	0x3dbd7573	0.09250917
241	0xbc0e3222	-0.008678945
242	0x3ad42faf	0.0016188527
243	0xbd80c915	-0.06288353
244	0xbd861537	-0.06547015
245	0x3dc8bd07	0.09801679
246	0x3dc99bab	0.098441444
247	0xbbefd969	-0.0073196185
248	0xbd5e1070	-0.054214895
249	0xbda8504e	-0.08218442
250	0x3d0c34cb	0.034230035
251	0xbc7f3e00	-0.015578747
252	0x3d8c154e	0.06840001
253	0x3d9c9d18	0.07647151
254	0x3d894be2	0.067039266
255	0x3de50ac4	0.11183694

lstm.bias_hh_l0 f4 [256]
0	0x3cb29a46	0.021802079
1	0x3a3afb4e	0.0007132784
2	0x3db31fd2	0.087463036
3	0xbcad8c07	-0.021184934
4	0xbdb78452	-0.08960785
5	0xbd587eb0	-0.052855194
6	0x3d11a281	0.035555366
7	0x3cf5a68a	0.029986639
8	0xbd877533	-0.06614151
9	0x3d1f48f1	0.03888792
10	0x3d9dd7d4	0.077071816
11	0xbd772f51	-0.06034786
12	0x3d17878c	0.036994502
13	0xbdab5343	-0.0836549
14	0xbd99f509	-0.0751744
15	0x3d047f8d	0.032348204
16	0x3d74e4b4	0.05978842
17	0x3d5d4daa	0.054029144
18	0xbd99499c	-0.07484743
19	0x3dd0959b	0.10184785
20	0x3df9cf20	0.12197709
21	0x3e063cec	0.13109177
22	0x3c2fccff	0.010730027
23	0xbd2ad60d	-0.04170804
24	0xbd097768	-0.03356114
25	0x3bebaa9e	0.00719197
26	0x3dc408cf	0.095719926
27	0xbbcfd5d7	-0.0063426304
28	0x3de4741a	0.11154957
29	0xbdc2f9f9	-0.09520335
30	0xbde3f355	-0.11130396
31	0xbd1080b3	-0.035278987
32	0x3c42f8ff	0.011900186
33	0xbdadcfc8	-0.08486897
34	0x3db0b79f	0.08628773
35	0xbde3380a	-0.11094673
36	0xbd988cfa	-0.07448764
37	0x3dd79933	0.10527267
38	0x3c9594dc	0.018259458
39	0xbc6962f4	-0.014244784
40	0xbc00e598	-0.007867239
41	0xbe00e37e	-0.12586781
42	0x3cf11374	0.029428221
43	0xbdfbf8b8	-0.12303299
44	0x3d9b5de5	0.07586268
45	0x3ca22e2c	0.019797407
46	0xbcf8d50d	-0.030375028
47	0x3db8e25c	0.090275496
48	0xbd579973	-0.052636575
49	0xbd424e15	-0.047437746
50	0xbca06d0b	-0.019583246
51	0x3c80ba99	0.015713977
52	0x3d59a2a8	0.053133637
53	0xbd1aea2e	-0.037820987
54	0x3c9ff5e6	0.019526433
55	0xbd1c112c	-0.038102314
56	0xbbda598f	-0.0066635082
57	0xbdc78a07	-0.097431235
58	0xbd210988	-0.03931573
59	0x3c8b84f1	0.017031165
60	0x3df251a9	0.11831982
61	0xbc3d02bb	-0.0115362955
62	0xbd3736c0	-0.044729948
63	0xbd0ef67e	-0.034903042
64	0xbd97f9b5	-0.07420675
65	0xbdd93705	-0.10606197
66	0xbb87e7b0	-0.0041474923
67	0x3d86a86a	0.06575091
68	0x3d4bc436	0.04974767
69	0xbb46d4bd	-0.0030339204
70	0x3da8359e	0.08213352
71	0xbda867d7	-0.08222931
72	0xbc9906fe	-0.018680092
73	0x3d48d2e5	0.04902925
74	0xbdd4f8e3	-0.10399034
75	0x3d60345b	0.05473743
76	0x3c05b37d	0.008160469
77	0x3ca2193a	0.01978742
78	0xbd1f3e7e	-0.038877957
79	0x3d14af98	0.03630027
80	0x3d5119f8	0.051050156
81	0x3d9a4fb0	0.075347304
82	0xbd355e13	-0.04427917
83	0x3d0d9f3a	0.03457568
84	0x3d3a8018	0.045532316
85	0xbde375b6	-0.11106436
86	0xbd5d62bd	-0.054049242
87	0x3e062dfb	0.13103478
88	0xbde9d568	-0.11417657
89	0x3d4e918a	0.050431766
90	0xbc446330	-0.011986539
91	0x3cd70b9c	0.026250653
92	0x3d0dda85	0.034632225
93	0x3c7055b1	0.014668868
94	0x3dc4c844	0.0960851
95	0x3d266744	0.040625826
96	0xbdc89923	-0.097948335
97	0xbdbd60c9	-0.09246976
98	0x3db54846	0.08851676
99	0xbe082910	-0.13296914
100	0xbdf13ff3	-0.117797755
101	0xbd8c29c2	-0.06843902
102	0x3d5b79a6	0.05358281
103	0xbc6e2320	-0.014534742
104	0xbc44efeb	-0.0120200915
105	0xbd8a119d	-0.06741641
106	0xbd9f5cc5	-0.07781366
107	0xbde56fc1	-0.11202956
108	0x3d85c49e	0.065316424
109	0x3db4308d	0.08798323
110	0x3d37c7a5	0.04486813
111	0xbd18ab1e	-0.037272565
112	0xbc0fafa5	-0.008769904
113	0xbddd6acc	-0.108113855
114	0x3dad2cbf	0.084558
115	0x3df4b55a	0.119486526
116	0x3d9b0bb2	0.0757059
117	0x3d670c60	0.056408286
118	0xbc7bd018	-0.015369438
119	0x3bd67adc	0.0065454077
120	0x3ddaa10b	0.10675248
121	0x3d393864	0.045219794
122	0xbdd9ddf2	-0.10638036
123	0xbdb5a6a4	-0.08869675
124	0xbdd0c5fe	-0.10194014
125	0x3d9cd433	0.07657661
126	0xbd2ab8c8	-0.041680127
127	0x3dcada44	0.09904912
128	0xbd06c30f	-0.032900866
129	0xbdffb0b9	-0.12484879
130	0x3daf476f	0.08558547
131	0xbdb2f03f	-0.087372296
132	0x3d96dc4a	0.073662356
133	0x3da16167	0.07879906
134	0xbd805857	-0.062668495
135	0xbdd1150f	-0.10209095
136	0x3d17f5b1	0.037099544
137	0x3e05f898	0.13083112
138	0x3d98188c	0.07426557
139	0xbb6d2da1	-0.0036190527
140	0x3d7bb1d4	0.061448887
141	0xbd7e5266	-0.0620903
142	0x3dc51578	0.096232355
143	0x3da882ab	0.08228048
144	0xbde84fb9	-0.11343331
145	0xbd466f19	-0.048445795
146	0x3ddebb60	0.10875583
147	0x3d5d1770	0.05397743
148	0x3d9e6497	0.0773403
149	0xbdb365a9	-0.087596245
150	0x3d81b137	0.06332629
151	0xbe09a7f5	-0.13442977
152	0x3d8e09f6	0.06935494
153	0xbd31a3ab	-0.043368977
154	0x3dc599ed	0.096485
155	0xbddebab4	-0.108754545
156	0x3e08df9a	0.13366547
157	0x3d55965c	0.052145347
158	0x3d1f5cef	0.038906988
159	0x3db760f4	0.08954039
160	0x3decad26	0.11556463
161	0xbd13ed32	-0.03611488
162	0x3dda56d7	0.10661095
163	0xbd1b7799	-0.037955854
164	0x3ddcd066	0.10781936
165	0x3db819cf	0.089892976
166	0x3ca8ac60	0.020590007
167	0xbd9ec36f	-0.0775212
168	0xbd610368	-0.05493489
169	0xbdf2b05b	-0.118500434
170	0xbdb1de74	-0.08685008
171	0xbd88dd46	-0.066828296
172	0x3d11dcb9	0.03561089
173	0xbda61153	-0.08108773
174	0xbde983c1	-0.11402083
175	0xbc5e50a8	-0.013569035
176	0xbd5e7eae	-0.05432003
177	0xbdf3a690	-0.11897004
178	0x3d7ef459	0.062244747
179	0x3dae9ef0	0.08526409
180	0x3d08a4b5	0.033360202
181	0x3d8cf73a	0.06883092
182	0x3dc3e59e	0.095652804
183	0xbc20c1e2	-0.00981185
184	0xbde59655	-0.11210314
185	0xbe042e9f	-0.1290841
186	0xbcff62ae	-0.031174984
187	0x3ddf1464	0.10892561
188	0xbd9f33b3	-0.07773533
189	0x3dc9662a	0.098339394
190	0x3dad6dae	0.08468185
191	0xbda85139	-0.08218617
192	0x3e010b0e	0.12601873
193	0xbc230f56	-0.009952387
194	0x3dfea9ec	0.12434754
195	0x3ddd90e6	0.10818653
196	0x3b16b493	0.0022995814
197	0xbdbe9b0f	-0.09306919
198	0xbd57dc44	-0.052700296
199	0x3d89e7b7	0.06733649
200	0x3db1ee71	0.08688057
201	0x3d87956e	0.06620298
202	0xbd27bcaf	-0.040951427
203	0xbd9b119a	-0.075717166
204	0x3d0a3192	0.03373868
205	0xbda774db	-0.08176585
206	0xbdb4953b	-0.08817526
207	0x3d37ab5f	0.044841167
208	0xbcd37062	-0.025810424
209	0x3ceb8c18	0.028753325
210	0xbd4c1468	-0.04982415
211	0xbc9aa624	-0.01887805
212	0x3d1d7ea7	0.038450863
213	0x3e00aa63	0.12564997
214	0xbd82266a	-0.06354983
215	0xbdaecde8	-0.08535367
216	0xbd3c2098	-0.04592952
217	0x3d304756	0.04303678
218	0x3d66bfc6	0.056335233
219	0xbdbbdf66	-0.09173469
220	0xbddb1461	-0.10697246
221	0x3d533fdf	0.051574584
222	0xbde9ba1f	-0.11412453
223	0x3e013d32	0.12621
224	0x3c0e5db0	0.008689329
225	0xbd2e7117	-0.04258832
226	0x3d99d8bf	0.07512044
227	0x3d7a8aa2	0.061167367
228	0xbc566740	-0.01308614
229	0xbcc6e670	-0.024279803
230	0xbd1eeb95	-0.038798887
231	0x3c5b6501	0.01339078
232	0xbd1dc225	-0.03851523
233	0xbdffdc75	-0.12493221
234	0xbdef193d	-0.11674736
235	0x3da2fa4e	0.07957898
236	0x3d994315	0.07483498
237	0xba289af1	-0.00064317795
238	0xbd131f4c	-0.03591852
239	0xbddb1681	-0.10697652
240	0xbcfbb36e	-0.030725207
241	0xbd331356	-0.043719612
242	0xbd971ac3	-0.07378151
243	0x3ceb74de	0.02874225
244	0xbdee6766	-0.116408154
245	0xbd9a4107	-0.07531934
246	0x3da78373	0.08179369
247	0xbc0d2834	-0.008615542
248	0xbde9f630	-0.1142391
249	0x3d258b83	0.040416252
250	0x3dcd41cc	0.100223154
251	0xbcf0a83e	-0.0293771
252	0xbd262437	-0.04056188
253	0x3d1acd4d	0.037793446
254	0xbd8048c7	-0.06263881
255	0xbd74f191	-0.05980069

lstm.weight_ih_l1 f4 [256, 64]
0	0xbd1b66e3	-0.037939917
1	0x3dab00a8	0.083497345
2	0x3cd0beeb	0.025481662
3	0x3db29646	0.08720069
4	0x3dd5c2b2	0.10437526
5	0xbd767019	-0.0601655
6	0xbcb8c1b4	-0.022553302
7	0x3ddc98dd	0.10771344
8	0xbdacabb4	-0.08431187
9	0xbd542b8c	-0.051799342
10	0x3dcec921	0.10096956
11	0x3d22676c	0.039649412
12	0x3d9c4336	0.07630007
13	0x3ddf4590	0.1090194
14	0xbdf1c71f	-0.118055575
15	0xbde8c369	-0.113653965
16	0xbdb612ee	-0.08890329
17	0xbdfee70b	-0.12446412
18	0xbdae59d4	-0.08513227
19	0x3db46be9	0.08809645
20	0xbdf4d7fa	-0.11955257
21	0xbc073d7b	-0.008254404
22	0xbcbd6d50	-0.023123413
23	0x3d42119c	0.047380075
24	0xbdbe6ae7	-0.09297734
25	0xbd1245e6	-0.03571119
26	0xbdb4911a	-0.088167384
27	0xbcb94a7b	-0.022618523
28	0x3db7afe1	0.08969093
29	0xbcdca2f3	-0.026933169
30	0xbca9841d	-0.02069288
31	0xbdae7cea	-0.08519919
32	0xbd9b1266	-0.075718686
33	0x3c245e4e	0.01003225
34	0xbd1e1cf1	-0.03860182
35	0xbd4a6498	-0.04941234
36	0xbda0ef6d	-0.07858167
37	0xbd4717b1	-0.04860658
38	0xbd68b9d7	-0.056817856
39	0x3d641620	0.055685163
40	0xbd1b9b33	-0.037989806
41	0xbcc598d1	-0.02412072
42	0x3df10b44	0.11769727
43	0x3c940acf	0.01807156
44	0x3d5ee7fe	0.054420464
45	0x3c50fb50	0.01275523
46	0x3dbc9a11	0.09209073
47	0xbd946329	-0.07245476
48	0xbd6cd47e	-0.057819836
49	0x3d398290	0.04529053
50	0xbcfd35a7	-0.030909372
51	0x3d902eb8	0.07040161
52	0x3d916574	0.07099429
53	0x3d76f8b2	0.060295768
54	0xbd8bd108	-0.06826979
55	0x3d80b0fb	0.06283756
56	0xbaf0a1a8	-0.0018358724
57	0x3d911aee	0.070852146
58	0x3d61648a	0.055027522
59	0xbbe8876e	-0.0070962226
60	0xbdc560d0	-0.09637606
61	0x3db68f15	0.089140095
62	0xbd73a908	-0.059487373
63	0xbc1b78be	-0.009489236
64	0x3da760c6	0.08172755
65	0xbd8fa064	-0.07013014
66	0x3d210102	0.0393076
67	0xbcd30b09	-0.025762098
68	0x3ce2ff63	0.027709669
69	0xbdced6fe	-0.100996
70	0xbc96082d	-0.018314445
71	0x3cfb9931	0.030712696
72	0xbd6f5040	-0.05842614
73	0x3d124c63	0.03571738
74	0xbdc1d63d	-0.09464691
75	0xbe00e2b2	-0.12586477
76	0x3d80a3c8	0.06281239
77	0xbbb82a4c	-0.0056202766
78	0xbe00dbb1	-0.12583806
79	0xbd928a2c	-0.071552604
80	0x3d9f1af0	0.0776881
81	0xbd49e6f5	-0.049292523
82	0xbd2e90fd	-0.04261874
83	0x3d64fcf3	0.055905294
84	0x38c92715	9.5917065e-05
85	0xbdaaabfe	-0.08333586
86	0x3ca33260	0.019921482
87	0x3d5e02b4	0.054201797
88	0x3df1a41f	0.11798882
89	0xbdd5cc16	-0.10439317
90	0xbd69ecce	-0.0571106
91	0xbcfb5e27	-0.030684544
92	0xbc76ad12	-0.015055912
93	0x3bff4f9f	0.007791474
94	0xbd5ca4a2	-0.053867944
95	0xbd9a893f	-0.07545709
96	0xbd236d8a	-0.039899386
97	0x3dcc3f6c	0.09973034
98	0x3df653d6	0.12027709
99	0x3dac508f	0.08413803
100	0xbd113451	-0.035450283
101	0x3d15ebc9	0.036601815
102	0x3d889563	0.06669118
103	0xbdfb8397	-0.12280958
104	0xbdcc15b2	-0.099650756
105	0x3c7ae954	0.015314419
106	0x3d767014	0.06016548
107	0x3d871093	0.06594958
108	0x3d4970b7	0.04917976
109	0x3d09a9a2	0.03360904
110	0xbde5dac2	-0.11223365
111	0x3cab76bf	0.020930646
112	0xbdea8ff9	-0.11453242
113	0x3d97b1bd	0.07406948
114	0xbd1952b9	-0.037432406
115	0x3dbfbe0b	0.0936242
116	0x3dfdd07f	0.12393283
117	0x3cdc509d	0.026893908
118	0x3d715018	0.058914274
119	0xbdc52def	-0.09627902
120	0x3ddfbbd1	0.10924495
121	0xbd9d294d	-0.07673893
122	0x3d8adf60	0.06780887
123	0x3d388009	0.04504398
124	0xbdae8750	-0.085219026
125	0x3b8d865f	0.004318997
126	0x3db18cd1	0.08669437
127	0x3da7c67e	0.08192156
128	0x3ddd78ac	0.10814032
129	0xbdc0ccfe	-0.09414099
130	0xbd56a5af	-0.052404102
131	0x3ddb9b24	0.1072295
132	0xbcc41f85	-0.023940811
133	0xbc6215c1	-0.013799132
134	0xbd56293c	-0.052285418
135	0x3ca30ab9	0.019902574
136	0xbc093073	-0.008373368
137	0x3d9ddce3	0.077081464
138	0xbdf794c1	-0.120889194
139	0x3d8f7422	0.070045725
140	0x3ccd17ce	0.025035765
141	0x3cf93cb5	0.030424455
142	0x3a3c1da4	0.00071760477
143	0x3e07024c	0.1318447
144	0xbd4b1317	-0.049578752
145	0xbd87d0ab	-0.06631597
146	0x3d9d7ce5	0.07689837
147	0xbc670866	-0.014101123
148	0x3d083390	0.0332523
149	0xbd21416e	-0.03936904
150	0x3af589ea	0.0018733118
151	0x3d5c3d09	0.053769145
152	0x3d32b29f	0.043627378
153	0xbd9f953f	-0.07792138
154	0x3da02116	0.07818811
155	0xbd47b4e0	-0.04875648
156	0xbc51cb89	-0.012804874
157	0x3daba071	0.08380211
158	0xbdce7ba8	-0.10082179
159	0x3d1cc9d9	0.038278434
160	0xbdcda7c6	-0.10041766
161	0x3c43445a	0.011918152
162	0xbd8212f5	-0.06351272
163	0x3deb8f3c	0.11501929
164	0xbdcb5906	-0.09929089
165	0x3dd88911	0.10573018
166	0xbddbb0ec	-0.107271045
167	0x3cc9b012	0.02462009
168	0x3d5c5778	0.053794354
169	0x3c99747c	0.018732302
170	0x3db95927	0.090502076
171	0xbd872d71	-0.06600464
172	0x3c801eae	0.01563963
173	0xbd50c484	-0.050968662
174	0x3d9a2504	0.075265914
175	0x3c124c3b	0.008929308
176	0xbc909b06	-0.017652046
177	0xbb198ee1	-0.002343111
178	0xb9373415	-0.00017471642
179	0x3b692f1d	0.003558106
180	0x3d747226	0.059679173
181	0x3d1d0189	0.038331542
182	0xbca71a3f	-0.020398257
183	0xbdda2051	-0.10650695
184	0x3d0bee43	0.03416277
185	0x3dc8156c	0.09769711
186	0xbd03130d	-0.03200059
187	0x3dcc64f5	0.099801935
188	0x3cd1bb74	0.02560208
189	0x3de152de	0.11002134
190	0x3dc49b8d	0.095999815
191	0x3db13b2d	0.08653865
192	0xbdc4502e	-0.095856056
193	0x3d5475b3	0.05187006
194	0x3d3d77e6	0.046256922
195	0xbcb557ea	-0.022136647
196	0xbd829dd4	-0.063777596
197	0xbd84cb7b	-0.06484123
198	0xbdca41c9	-0.09875829
199	0xbda1c5d5	-0.078990616
200	0xbd51cef0	-0.05122274
201	0x3df2558a	0.118327215
202	0x3bbb769b	0.005720926
203	0xbe0917ab	-0.13387935
204	0x3ded3c2c	0.115837425
205	0x3d55fbea	0.052242197
206	0x3dce0f72	0.1006154
207	0x3ddeaab0	0.108724
208	0xbd4a1d00	-0.049344063
209	0xbdb1a95a	-0.08674879
210	0xbcba2236	-0.022721391
211	0xbdf67f4a	-0.12035997
212	0xbdac3322	-0.0840819
213	0x3d690171	0.05688614
214	0xbdafe2b0	-0.08588159
215	0x3d76b894	0.06023462
216	0xbdc9ea7a	-0.09859176
217	0x3d09521c	0.03352557
218	0x3d9c847e	0.076424584
219	0x3de055cc	0.109538645
220	0xbdb0d465	-0.08634261
221	0xbd7c3407	-0.061573055
222	0x3cfc2f61	0.03078431
223	0x3ccaa32f	0.024736015
224	0x3d323868	0.043510824
225	0xbddb5c77	-0.10710996
226	0x3de00653	0.10938706
227	0x3d40d95d	0.047082294
228	0x3d6cd477	0.05781981
229	0xbdcc82ba	-0.099858716
230	0x3d94fa5d	0.072743155
231	0x3d5a526d	0.053301264
232	0x3d851b50	0.0649935
233	0x3d3698c3	0.04457928
234	0xbd598819	-0.05310831
235	0xbd8b14d0	-0.06791079
236	0x3db56b56	0.08858363
237	0x3d4c77a1	0.049918775
238	0x3ce148ca	0.027500529
239	0xbd73fc97	-0.05956706
240	0x3d09c7e2	0.03363789
241	0x3d68fdc7	0.056882646
242	0xbce1b4be	-0.027552005
243	0x3d492979	0.049111817
244	0xbdae1832	-0.08500709
245	0xbb99e1c9	-0.004696105
246	0xbd936884	-0.07197669
247	0xbc57f693	-0.0131813465
248	0xbdc7863d	-0.09742401
249	0x3dc92218	0.09820956
250	0xbbab86ba	-0.0052345665
251	0x3c338333	0.010956573
252	0xba21ef4e	-0.0006177322
253	0x3ced6d80	0.028982878
254	0xbd9cf6ad	-0.07664237
255	0xbe03c0bf	-0.12866496

lstm.weight_hh_l1 f4 [256, 64]
0	0xbda23fe1	-0.0792234
1	0x3d08dfcc	0.033416554
2	0xbdded7a8	-0.10880977
3	0x3da92efb	0.08260914
4	0xbcf84d5c	-0.030310325
5	0x3c9e25cd	0.019305134
6	0x3d384cd8	0.04499516
7	0x3db55d48	0.088556826
8	0x3d290eed	0.041274
9	0x3da43730	0.08018339
10	0xbd1ff41a	-0.039051153
11	0xbd2c6533	-0.0420887
12	0x3c8efca7	0.017454458
13	0xbd8224c6	-0.0635467
14	0x3d898896	0.06715505
15	0xbd4851e9	-0.04890624
16	0xbce88dfe	-0.02838802
17	0xbd8a9465	-0.06766585
18	0xbc960eed	-0.018317664
19	0x3da15e05	0.07879261
20	0xbdad020f	-0.08447658
21	0xbdcd13db	-0.10013553
22	0x3d83d425	0.06436948
23	0xbd0d8dc0	-0.03455901
24	0x3ca5a7da	0.02022164
25	0x3dedb528	0.116068184
26	0xbc4f7de9	-0.012664297
27	0xbdd2f9df	-0.103015654
28	0xbd8f2ae1	-0.069906004
29	0xbd5e69e6	-0.05430021
30	0x3d1ccb14	0.038279608
31	0x3c3960d4	0.0113145895
32	0xbd005888	-0.03133443
33	0x3d3d44ff	0.046208378
34	0x3ba9f683	0.005186857
35	0xbdb77f01	-0.08959771
36	0x3d93722d	0.07199512
37	0xbdb1d475	-0.08683101
38	0xbd23fc5c	-0.04003559
39	0xbdf78451	-0.12085784
40	0x3d69464b	0.056951802
41	0xbc91b29f	-0.017785368
42	0xbce5f089	-0.028068798
43	0x3dbe63a2	0.09296347
44	0xbdc85b7a	-0.09783073
45	0x3db0cdd2	0.08633007
46	0x3cc88579	0.024477707
47	0x3dd8f6c8	0.10593945
48	0x3dc8527d	0.097813584
49	0x3d11a080	0.035553455
50	0x3d7013f8	0.058612794
51	0x3ce521d5	0.027970234
52	0xbcdd7d7f	-0.02703738
53	0xbcedbd8c	-0.029021047
54	0xbd5ede19	-0.054411028
55	0xbde46d16	-0.11153619
56	0x3d9e8bbf	0.07741498
57	0x3dcf33d9	0.10117311
58	0xbd166d8c	-0.036725566
59	0xbdb9fadf	-0.09081053
60	0xbd95bf03	-0.07311823
61	0xbda28f75	-0.079375185
62	0x3a309fdc	0.0006737688
63	0x3de1d51f	0.11026978
64	0x3d8817bf	0.06645154
65	0xbc74949a	-0.0149280075
66	0xbd812b94	-0.0630714
67	0x3d814c4c	0.063133806
68	0xbdd40d17	-0.10354059
69	0xbddf24ea	-0.10895713
70	0xbbf8af1c	-0.007589234
71	0xbd1911bf	-0.03737044
72	0xbd9c14fa	-0.076211885
73	0xbbeaf71e	-0.007170572
74	0xbd69afdc	-0.05705248
75	0xbde35bf6	-0.111015245
76	0xbdaa0b40	-0.08302927
77	0x3d8307b1	0.063979514
78	0xbdeb52a2	-0.1149037
79	0x3d5b0831	0.05347461
80	0xbc4c5995	-0.01247253
81	0x3dc29fe2	0.095031515
82	0xbc925252	-0.017861519
83	0x3dd6fdbe	0.10497616
84	0xbdc106a3	-0.09425094
85	0x3de9a496	0.114083454
86	0xbb8fe1fd	-0.0043909536
87	0x3cd04b9e	0.025426682
88	0xbc970b88	-0.018438116
89	0x3d92a01b	0.07159444
90	0x3d2ddce4	0.042446986
91	0xbcd37649	-0.025813239
92	0x3d1dd876	0.03853651
93	0xbc6f13f6	-0.014592161
94	0xbd071389	-0.032977615
95	0xbcc0d90f	-0.023541002
96	0x3d3aa755	0.045569737
97	0xbda62e5e	-0.081143126
98	0x3dc4dfce	0.09613
99	0x3d45ae26	0.048261784
100	0x3d298ce8	0.041394144
101	0x3dc74182	0.097292915
102	0xbe038457	-0.12843452
103	0xbddbcba5	-0.107322015
104	0xbc8c4449	-0.017122405
105	0x3c6eee82	0.014583232
106	0xbd93321e	-0.071872935
107	0x3d0bd2a9	0.034136448
108	0x3dcd7979	0.10032935
109	0x3da14542	0.07874538
110	0xbdbacede	-0.09121488
111	0x3ce706e6	0.028201532
112	0xbcff4689	-0.031161563
113	0x3dd21a49	0.1025892
114	0x3b695c5f	0.0035608036
115	0x3de32e60	0.1109283
116	0x3d328896	0.04358729
117	0x3c56f7dc	0.013120618
118	0xbdbb856b	-0.09156307
119	0xbc32cc68	-0.010912992
120	0xbdc0643e	-0.0939412
121	0xbd97ea8c	-0.07417783
122	0x3d15aeb8	0.036543578
123	0xbdaa53f0	-0.08316791
124	0x3df00cd4	0.11721197
125	0x3cddb004	0.02706147
126	0x3ca53ddd	0.0201711
127	0x3de87901	0.11351205
128	0xbc268f69	-0.010166028
129	0x3d9d74ff	0.07688331
130	0x3d8657a8	0.06559688
131	0xbd67e35b	-0.056613307
132	0x3dbbdda0	0.09173131
133	0xbccc41e3	-0.024933761
134	0xbd9304fb	-0.07178684
135	0x3da01b5d	0.07817719
136	0x3debc9f4	0.11513129
137	0x3d655fcf	0.055999573
138	0x3c1d4fe6	0.009601569
139	0x3c842917	0.016132874
140	0x3dfd7c68	0.12377244
141	0x3e074a91	0.13212039
142	0x3d3646f3	0.044501256
143	0x3d5d5c5e	0.054043166
144	0xbd9b0ba9	-0.075705834
145	0xbd9bac49	-0.0760122
146	0xbdf92ae7	-0.12166386
147	0x3d9da0cf	0.076966874
148	0x3da6b498	0.08139914
149	0x3dae7e9d	0.08520243
150	0x3cf7655e	0.030199703
151	0xbc32487e	-0.010881541
152	0xbd4275c9	-0.04747561
153	0x3d4c552d	0.049885917
154	0x3dff909b	0.12478753
155	0x3d8a514b	0.06753787
156	0xbe06d885	-0.13168533
157	0x3d7537fb	0.05986784
158	0x3cee1866	0.029064368
159	0x3de38277	0.111088686
160	0x3db8deca	0.09026869
161	0x3d9063bc	0.07050273
162	0xbd836354	-0.0641543
163	0x3db1057f	0.086436264
164	0x3c2c8fe0	0.010532349
165	0x3cf7b810	0.030239135
166	0xbe095d9a	-0.13414612
167	0x3d55e6d2	0.05222208
168	0xbdd0a123	-0.101869844
169	0x3ddbabcc	0.10726127
170	0x3d42801a	0.04748545
171	0xbda64178	-0.08117956
172	0x3ca91007	0.020637525
173	0x3dac625a	0.084171966
174	0x3dd5e9b0	0.10444963
175	0xbd2af626	-0.04173865
176	0xbcb0fd94	-0.02160529
177	0xbd264785	-0.04059555
178	0xbc62a99a	-0.0138343815
179	0xbce1195b	-0.02747791
180	0xbd679083	-0.0565343
181	0x3dd6e921	0.104936846
182	0x3e036786	0.1283246
183	0x3d13c8f2	0.03608031
184	0xbb8ce386	-0.004299584
185	0xbd1465aa	-0.036229767
186	0x3cc52592	0.024065766
187	0xbd182036	-0.037140094
188	0xbcf6af6c	-0.030112945
189	0x3d7ddd01	0.061978344
190	0x3de799a5	0.11308602
191	0x3bdf2861	0.0068102335
192	0xbd9c7261	-0.076390035
193	0x3d83b3b9	0.06430764
194	0xbdcaa271	-0.098942645
195	0xbd448464	-0.04797782
196	0xbd81a9a5	-0.06331185
197	0x3a14cfdd	0.0005676726
198	0xbd4876dc	-0.048941478
199	0xbdb2c1ec	-0.08728394
200	0x3dd9bb3c	0.10631415
201	0x3d711d8d	0.058866072
202	0x3ad42579	0.0016185484
203	0xbc8d3eb1	-0.017241808
204	0x3dcf9b8b	0.10137089
205	0xbda7e403	-0.08197787
206	0xbd2c5809	-0.042076144
207	0xbc863f70	-0.016387671
208	0xbbcd5f0d	-0.0062674345
209	0xbdada748	-0.08479172
210	0x3ca99c34	0.020704366
211	0x3dba041e	0.090828165
212	0x3dedd2ed	0.116124965
213	0x3dd72c06	0.10506444
214	0x3d28c222	0.041200764
215	0x3d77ea43	0.060526144
216	0x3d92d4ab	0.071694694
217	0x3d186782	0.037208088
218	0xbdab1dfe	-0.0835533
219	0xbd42ab72	-0.047526784
220	0x3deb7008	0.11495978
221	0x3dd423b8	0.10358375
222	0xbd604ea5	-0.0547625
223	0x3dc7c9cb	0.09755286
224	0x3cc9f89b	0.024654677
225	0x3dac584e	0.0841528
226	0xbe01a89a	-0.12661973
227	0x3bd607a8	0.0065316744
228	0xbd218873	-0.03943677
229	0x3dc26b1d	0.094930865
230	0xbcd174d9	-0.025568413
231	0x3d7bfcb3	0.06152029
232	0xbda98999	-0.08278198
233	0x3ded552d	0.115885116
234	0xbdc4bd0a	-0.09606369
235	0xbc4fa104	-0.012672666
236	0x3ca80712	0.020511184
237	0x3d51eed4	0.051253155
238	0xbda8bfe6	-0.08239727
239	0xbdb912dc	-0.090368
240	0x3e04b699	0.1296028
241	0xbd3f30fa	-0.046677567
242	0x3d0b3b0c	0.03399186
243	0x3dee4966	0.116350934
244	0x3b826e66	0.0039804457
245	0xbdc3f0c1	-0.095674045
246	0xbd9cfcae	-0.07665382
247	0xbe00be87	-0.1257268
248	0xbddacc07	-0.106834464
249	0xbc0237a1	-0.007947833
250	0xbcd8a82c	-0.026447378
251	0xbcdaa478	-0.026689753
252	0xbcc0c513	-0.023531472
253	0x3c3b9d58	0.011451088
254	0x3c37ade8	0.011210896
255	0x3d904062	0.0704353

lstm.bias_ih_l1 f4 [256]
0	0xbd80b053	-0.06283631
1	0x3da3c33b	0.07996222
2	0xba14eafb	-0.0005680767
3	0x3d6580ee	0.05603116
4	0xbbdc07a1	-0.0067147766
5	0xbbec7091	-0.0072155674
6	0x3d051bc0	0.032497168
7	0xbd110d11	-0.03541285
8	0x3dc27093	0.09494128
9	0x3d9d6d85	0.07686905
10	0xbd5e2f04	-0.054244056
11	0xbce91ecd	-0.02845707
12	0x3dcf9c96	0.10137288
13	0x3dce9700	0.10087395
14	0x3da729f3	0.08162298
15	0xbd2b1e92	-0.0417772
16	0x3dbfdd39	0.09368367
17	0x3cc42417	0.02394299
18	0xbb8cf12e	-0.004301212
19	0x3dc30185	0.09521774
20	0x3d8864d8	0.066598594
21	0x3db78804	0.0896149
22	0xbd9711ed	-0.07376466
23	0xbd637209	-0.055528674
24	0x3dc770b0	0.0973829
25	0x3dd8da15	0.10588471
26	0x3bc8f549	0.006132756
27	0x3d8c916d	0.06863675
28	0xbdfed335	-0.12442628
29	0x3b0b1835	0.0021224145
30	0xbc091cdf	-0.0083687
31	0xbce07e19	-0.027403878
32	0xbe04224d	-0.1290371
33	0x3cac2989	0.0210159
34	0x3df1f0b0	0.118134856
35	0x3de0cc09	0.109764166
36	0xbb8c71df	-0.0042860354
37	0xbd2c4ef1	-0.042067472
38	0xbd71e60a	-0.059057273
39	0xbdb70132	-0.08935775
40	0x3d314e36	0.04328748
41	0xbc8447e4	-0.016147561
42	0x3ddc7eda	0.107663825
43	0xbdb51b26	-0.08843069
44	0x3d82e5dd	0.06391499
45	0xbdd4e032	-0.10394324
46	0xbd3ba535	-0.04581185
47	0xbcc8b2fe	-0.024499413
48	0xbd6b9c11	-0.057521883
49	0xbcae8b92	-0.021306787
50	0xbda8a9fd	-0.08235548
51	0x3d4cb16c	0.04997389
52	0xbddb2f98	-0.10702437
53	0x3d9d7224	0.07687786
54	0x3d4d23ba	0.0500829
55	0xbe067dce	-0.13133928
56	0xbdce920c	-0.1008645
57	0x3df9f539	0.12204976
58	0xbdd9e0fc	-0.106386155
59	0x3d1ac420	0.037784696
60	0xbdaf7f84	-0.085692436
61	0x3c993577	0.018702252
62	0x3ceeb761	0.029140176
63	0x3ba802f9	0.0051273075
64	0xbde0c899	-0.10975761
65	0xbd4a9d9a	-0.049466707
66	0xbd4bffd1	-0.049804512
67	0xbdac0675	-0.08399669
68	0x3c969601	0.018382074
69	0xbd873d2d	-0.06603465
70	0xbd6510d4	-0.05592425
71	0x3d305e6d	0.0430588
72	0xbcb25ce5	-0.021772811
73	0x3daad0ae	0.08340584
74	0x3d8cde58	0.06878346
75	0x3dc872c2	0.09787513
76	0xbd1b16a7	-0.0378634
77	0x3cab20b7	0.020889623
78	0xbcc36d2a	-0.023855764
79	0x3de92a09	0.11384971
80	0xbbb4d4e2	-0.0055185417
81	0x3be09c38	0.00685456
82	0x3d6a08f3	0.05713744
83	0x3d6724e0	0.05643165
84	0xbde7bd1f	-0.11315369
85	0xbc9d64ed	-0.019213164
86	0xbd995eae	-0.07488762
87	0x3dee59f1	0.11638249
88	0x3d91490b	0.0709401
89	0x3d9bf9b0	0.076159835
90	0x3cc39bbc	0.02387797
91	0xbde13e60	-0.10998225
92	0xbe03967c	-0.12850374
93	0x3b3f9a02	0.0029236083
94	0x3d4afeba	0.049559332
95	0x3de8ab84	0.11360839
96	0xbcc80414	-0.024416007
97	0x3e080bda	0.13285771
98	0xbd394929	-0.045235787
99	0xba01fa3c	-0.00049582473
100	0xbde2397f	-0.11046123
101	0xbad60b59	-0.0016330286
102	0xbdfe95eb	-0.12430938
103	0x3ccf086c	0.02527257
104	0xbd0b54a3	-0.034016263
105	0xbd8452c7	-0.06461101
106	0xbda49207	-0.08035665
107	0x3dc51b98	0.09624404
108	0x3dbe084d	0.09278927
109	0xbd739cdc	-0.059475765
110	0xbd7a0689	-0.06104139
111	0x3d9113a4	0.07083824
112	0xbdb3c49a	-0.08777733
113	0xbb8cf012	-0.0043010795
114	0x3bf3abfc	0.0074362736
115	0x3de7c2eb	0.113164745
116	0x3d16bcaf	0.036801036
117	0x3d24a7ab	0.040198963
118	0xb8ac4e5a	-8.216193e-05
119	0x3dbfab00	0.093587875
120	0x3d57d31d	0.052691568
121	0xbddc4079	-0.10754485
122	0x3de956db	0.113935195
123	0x3dc97152	0.09836067
124	0x3d384dd9	0.044996116
125	0x3cf8c3a5	0.030366728
126	0xbd3413eb	-0.043964308
127	0xbcb33cbf	-0.021879552
128	0x3bebb8e9	0.007193674
129	0xbc209cf3	-0.009803045
130	0x3df81a43	0.12114384
131	0xbde8e4f2	-0.11371793
132	0xbc863581	-0.016382935
133	0xbd907e11	-0.07055295
134	0xbda3689a	-0.079789355
135	0xbdb052d1	-0.08609546
136	0xbdda5057	-0.10659855
137	0xbdab12b0	-0.08353174
138	0x3d870ca8	0.06594211
139	0xbd2e0564	-0.04248561
140	0x3ae247cb	0.0017263828
141	0x3dd868a2	0.10566832
142	0x3d0e4ed4	0.034743145
143	0xbd728dc3	-0.059217226
144	0xbd9366d6	-0.07197349
145	0xb945e3e3	-0.00018872278
146	0xbd10cd12	-0.03535182
147	0x3de03b6e	0.10948835
148	0x3d66be5b	0.05633388
149	0xbddc2261	-0.10748745
150	0xbd02c0ea	-0.03192226
151	0xbddd3743	-0.10801556
152	0x3d5cb884	0.053886905
153	0xbd256c9b	-0.040386777
154	0x3ddc79cc	0.107654184
155	0x3cdbf149	0.026848452
156	0xbde5f3ee	-0.112281665
157	0xbcbd4eb6	-0.023108821
158	0x3bd0746b	0.0063615344
159	0xbcfaaff1	-0.030601474
160	0xbcddce0c	-0.02707579
161	0x3d182675	0.03714605
162	0xbc9e7eac	-0.019347511
163	0x3dd161c1	0.10223723
164	0xbc069908	-0.008215196
165	0x3d81736f	0.06320845
166	0xbd991d9f	-0.07476353
167	0xbda605b7	-0.08106559
168	0x3d6b899d	0.057504285
169	0xbd5e1c89	-0.054226432
170	0xbdcff751	-0.10154594
171	0x3d09e5e3	0.033666503
172	0xbd7b4e16	-0.061353765
173	0x3d1617e5	0.03664388
174	0xbe04d7ad	-0.12972899
175	0x3d64b9e8	0.055841357
176	0x3b2d0ef6	0.0026406622
177	0x3d5017bb	0.05080388
178	0xbd8031ca	-0.062594965
179	0x3d9e0ca7	0.07717257
180	0xbc65fd88	-0.014037497
181	0x3dd6e4d0	0.10492861
182	0xbcec03be	-0.028810378
183	0xbd88141f	-0.06644463
184	0x3d88e320	0.06683946
185	0x3db8882a	0.09010346
186	0x3dcd5c5c	0.10027382
187	0xbdcfd650	-0.10148299
188	0xbcad1952	-0.021130238
189	0xbd967201	-0.07345963
190	0x3d953db0	0.072871566
191	0x3db33db1	0.08752001
192	0x3dc2b7a2	0.095076814
193	0x3cf2b645	0.029627929
194	0xbd5ceb57	-0.053935375
195	0x3d502f0c	0.050826117
196	0xbdbb1763	-0.0913532
197	0x3d10dd01	0.035367016
198	0xbb9675ef	-0.0045916955
199	0x3de0ec77	0.10982602
200	0xbd291d56	-0.041287743
201	0x3dbd427d	0.09241197
202	0xbd9c4e67	-0.076321416
203	0x3c6f08a3	0.0145894615
204	0x3d099c68	0.033596426
205	0xbc78ac99	-0.015177869
206	0xbc40c987	-0.011766798
207	0xbcb5f8f9	-0.022213446
208	0x3c405637	0.011739305
209	0x3d87796d	0.06614957
210	0x3cb0eee8	0.021598294
211	0xbc8588f1	-0.01630065
212	0xbca289a4	-0.019841023
213	0xbb1afc88	-0.0023649056
214	0x3ccf0bf5	0.025274256
215	0x3ddd62c9	0.108098574
216	0x3dc79ba6	0.097464845
217	0x3d656901	0.056008343
218	0xbd78e05a	-0.060760833
219	0xbd5adb1b	-0.05343161
220	0xbd18524f	-0.03718787
221	0x3d674911	0.056466166
222	0xbd166103	-0.03671361
223	0xbd5e953b	-0.054341536
224	0x3d715539	0.058919165
225	0x3deaec20	0.114708185
226	0x3cb6d1ef	0.022316901
227	0xbd9ffcc2	-0.078118816
228	0xbdb89f92	-0.090148106
229	0x3d724705	0.05914976
230	0xbd020b82	-0.031749256
231	0xbdd1ca53	-0.102436684
232	0xbd642907	-0.05570319
233	0x3d454d70	0.048169553
234	0x3d03a2a2	0.03213752
235	0x3d8ee348	0.06976944
236	0xbdba1bf0	-0.0908736
237	0x3dcd2bec	0.10018143
238	0xbc2a3140	-0.010387719
239	0xbde94d4b	-0.113916956
240	0xbd897bf2	-0.06713094
241	0x3d421c19	0.047390077
242	0x3d19937a	0.03749416
243	0x3da86d7a	0.08224006
244	0x3cf5e60f	0.030016927
245	0xbdf1f5de	-0.118144736
246	0x3dcd5e7d	0.10027788
247	0x3cb94208	0.022614494
248	0x3bbbe9c5	0.0057346546
249	0x3c487544	0.01223499
250	0xbbbc81d4	-0.0057527814
251	0x3ced793c	0.028988473
252	0xbde88afa	-0.11354633
253	0xbd9fc2c4	-0.078008205
254	0x3cfc5df8	0.030806527
255	0x3d44212f	0.04788321
