models/SOL_USDT_15m_model.pth (torch, 215477 bytes, 9 tensors)

lstm.weight_ih_l0 f4 [256, 10]
00000000: 6687 85bd 5c00 40bd 3b4b b83d 9e00 403d
00000010: 6677 dd3d 1f64 c63c 8969 743d 2ff0 2d3d
00000020: ac56 0dbd a781 8a3c b86a cb3d eaa7 ab3c
00000030: 70c6 6cbd 539a c33d c26a b3bd a056 13bd
00000040: e2d6 e33d ff85 fe3c e482 e6bc cded c53d
00000050: 626a c23c 9962 003e 4fd3 a23d e434 c2bd
00000060: b972 cb3d 0b70 563d 5c2e c8bd 6c7d b5bc
00000070: 4257 8539 eb4d dfbd 2461 0c3d eb1d e6bd
00000080: 33a9 8e3d d3cd b6bd 9f25 db3d 4b73 a03c
00000090: 04a5 8fbd d7a3 d83d 577d b73d 2759 9fbd
000000a0: 4b92 eb3d e859 60bd a3d6 f53d ccd5 0c3b
000000b0: c217 ae3c aa22 d63d 3f57 113d b58e 8b3c
000000c0: 2716 a93d a721 363d 6d1b 27bc 8121 a33d
000000d0: 8c34 8abc bb80 87ba ddff 76bd 7698 6c3d
000000e0: fe2e bfbd 170e 3cbd 7037 033e cc43 ab3d
000000f0: d1b7 d8bc 90dc c7bc 3e5c d4bc faef c7bb
00000100: 98d5 bfbc a7c0 f1bd d189 99bc 417f 6a3d
00000110: 5ee0 b0bc 81c1 9c3b 4f28 933c 588a d93b
00000120: bcd6 1ebd 1d32 eabc 8509 b23d c22b d13d
00000130: aae4 cebd 9554 fabc 3810 963c 0ced ee3c
00000140: 481a 293d 3d99 35bd 681c 0b3e 7966 92bd
00000150: 5879 3939 09f8 c5bd 6be7 a9bc 52d7 1ebc
00000160: 1177 d93d 7877 ff3d 497a a2bd 35d6 e43c
00000170: e1fb 313c 2748 85bd c03c 8e3d b243 743d
00000180: 7ac5 dcbd 162d ac3a 63ac 95bd da1c bcba
00000190: acf7 5e3c 69c6 203c ad0a d83d beb5 273c
000001a0: 82f9 f53d b50a f83d fd16 ec3d dc5a 88bd
000001b0: be6a e63c 5890 ccbc c984 063e 0f98 8c3d
000001c0: 1254 4a3d 348f 7bbd e011 a2bd c59a ecbd
000001d0: 616b afbd 3e4c cc3d 8e3f 7dbc 5661 65bd
000001e0: 67e1 cf3c 3a0b b7bd 9950 81bd 6736 e8bc
000001f0: 4997 243c 86bc 0a3e 5588 ec3d c35b b43d
00000200: 963f 033e 585a b93d bd0a 963d bcf0 193d
00000210: 84eb 99bc 2070 1d3c 4782 b7bd d2ae d73d
00000220: 5e7c c9bc 4564 8c3d 8e9f 66bd cddd 573d
00000230: 52dc 853d 5e95 5abd 888d 63bd e625 6fbc
00000240: 4848 db3c c352 b43d fa91 aabd 86de 91bb
00000250: 18cb c7bd 3c6e dc3c 7ce8 6b3d 404e 913c
00000260: eaba c6bd 42b2 fb3d c126 663d 74de 8ebd
00000270: e106 ec3d 6f7d 9ebd 191c 58bd d6a0 283d
00000280: abf7 bd3c 47ed f6bc 72a8 5dbc fa6d e73d
00000290: ee0d 343c 6738 a03c 57eb c33d ca84 f43d
000002a0: 1142 d5bd 3871 d4bd d34e 79bd 7ce6 453d
000002b0: 6c53 28bd ea69 0b3e ef85 c93d ee96 9fbd
000002c0: bd9c 043e fb0d cf3d 8599 95bb 354b ac3d
000002d0: 47c0 f23d 5a7c 013e fed0 023d 6c76 303d
000002e0: c574 6dbc 17b7 0a3e 2aff 573d f308 2b3d
000002f0: 39ac c03d 0660 d2bc ea6a a63b 9e69 0c3e
00000300: a5cc d73d a9ff 9a3d c0df ebba 5913 233d
00000310: 1d22 f03d dab0 a9bd cc19 1ebd 13e7 8dbc
00000320: 82b1 43bd ee7f 5abb 8847 873d 07d0 bebd
00000330: d023 cb3c 7030 59bd c189 1abd c027 c53d
00000340: a668 833d 4240 d5bc a06a 033d 0838 4c3b
00000350: 2560 103c 05f7 5abc 212b dfbd 4887 a1bd
00000360: 04ec fdbb 1761 9c3b cb9f 47bc c22e d2bd
00000370: b690 85bc 3bf8 7f3d 561a fa3d c0e1 62bd
00000380: 2489 bd3d f116 91bd c4df 95bd d3a0 3f3d
00000390: d059 b6bc 6648 aabd ad7d d73d 925b c8bb
000003a0: 79b1 c4bc ce31 e03d bedf e03d 6975 e83d
000003b0: 4b33 8a3d 2fe4 da3d 5c72 25bd f4a3 ef3d
000003c0: 260e edbd 9a71 9d3d cb52 e83d 8921 c23d
000003d0: 8075 44bd 044f 153c 712f ca3d e47c c0bd
000003e0: a442 7cbb 1287 b23d 3588 7c3d 3351 be3c
000003f0: 8851 f2bd 7ec6 62bc 9be2 a4bd f026 b6bd
-0.06519966 -0.046875343 0.08998724 0.04687559 0.10813789 0.024217663 0.05967096 0.042465385
-0.034506485 0.016907526 0.09932464 0.020954091 -0.057806432 0.095509194 -0.08760597 -0.035971284
0.1112497 0.031069754 -0.028138585 0.096644975 0.023732368 0.12537612 0.0795046 -0.09482744
0.09933991 0.052352946 -0.09774467 -0.022154532 0.0002543275 -0.109035335 0.034272328 -0.11236175
0.06965866 -0.089259766 0.10700535 0.019586226 -0.07013896 0.10578125 0.089594536 -0.07780676
0.115025125 -0.05477324 0.12003829 0.0021489738 0.021251563 0.104558304 0.035483595 0.017035821
0.08256178 0.044465687 -0.01019941 0.07965375 -0.01687076 -0.0010338047 -0.060302604 0.057762586
-0.09335135 -0.045911875 0.12814116 0.083625406 -0.026454838 -0.024397165 -0.02592289 -0.0061016055
-0.02341728 -0.11804324 -0.018742474 0.057250265 -0.021591362 0.0047838097 0.017963557 0.0066388063
-0.038779005 -0.028588349 0.08693222 0.10213424 -0.10102208 -0.03055791 0.01831828 0.029165767
0.04128483 -0.044335593 0.13585055 -0.07148451 0.00017688179 -0.096664496 -0.020740231 -0.009694891
0.10618413 0.12473959 -0.0793348 0.027934173 0.010863275 -0.065079026 0.06945181 0.05963487
-0.10779853 0.0013135995 -0.07308271 -0.001435186 0.013608854 0.00981293 0.10548911 0.010236202
0.120104805 0.12111417 0.11527822 -0.06657955 0.02812707 -0.024971172 0.13136591 0.068649404
0.049396582 -0.061415866 -0.07913566 -0.115529574 -0.08565403 0.099754795 -0.015457047 -0.05600103
0.025376035 -0.08937688 -0.06314201 -0.028346254 0.010045835 0.13548478 0.11549441 0.08806565
0.12817225 0.09050435 0.07326267 0.037583098 -0.01878906 0.009609252 -0.08960395 0.10531391
-0.024595436 0.068550624 -0.056304507 0.05270176 0.065361634 -0.053365104 -0.055554897 -0.014596438
0.026767865 0.08804848 -0.08328624 -0.0044515757 -0.09755534 0.026908033 0.05759476 0.017737508
-0.0970362 0.12289859 0.056189302 -0.06976023 0.115247495 -0.07738768 -0.05276117 0.04116901
0.023189386 -0.03014244 -0.01352893 0.11300273 0.010989649 0.019558145 0.09566372 0.1193939
-0.10412992 -0.10373157 -0.06086619 0.04831551 -0.041095182 0.13614622 0.09839999 -0.077924594
0.12950416 0.101100884 -0.00456542 0.08412782 0.1185308 0.12645093 0.03193759 0.043081686
-0.014493172 0.13546406 0.052733578 0.04175658 0.09407849 -0.025680553 0.005078663 0.13712165
0.1053708 0.075682946 -0.001799576 0.039813373 0.117252566 -0.08285685 -0.03859882 -0.017322099
-0.047776707 -0.0033340412 0.066054404 -0.09317022 0.02479735 -0.05302471 -0.03772903 0.09626722
0.064164445 -0.026031617 0.032084107 0.0031161327 0.008811985 -0.013364558 -0.10896898 -0.07887131
-0.0077490825 0.004772316 -0.012184094 -0.102628246 -0.016304355 0.06249259 0.122120544 -0.055391073
0.09254673 -0.07084454 -0.073180705 0.046784233 -0.022259623 -0.0831459 0.10522018 -0.0061144317
-0.024010407 0.109469995 0.109801754 0.11350519 0.067480646 0.10688054 -0.040392265 0.117011935
-0.11574964 0.076876834 0.113439165 0.094790526 -0.04796362 0.009113077 0.0987233 -0.09398821
-0.003849187 0.08717169 0.061653335 0.023232078 -0.11831957 -0.01384127 -0.08051034 -0.088941455

lstm.weight_hh_l0 f4 [256, 64]
00000000: 3b3c debd 76d0 e5bd c1e1 bf3d a982 3ebd
00000010: 3d93 5c3d cf7d a63d 2748 133d 7c02 ee3d
00000020: 9e7c 153d 1173 7abd c641 3cbd 172b 1c3d
00000030: c9d3 bfbd e4cb a8bd b5b9 8abd a93d 86bd
00000040: 2a44 783d 9d19 debc b69b e23d d35a afbc
00000050: 02f7 223d ddae 8e3d ac94 1b3c 12b0 df39
00000060: 9ce6 4c3c 701e cc3d 7bb9 e9bd b1dd e43d
00000070: 4f30 47bd 2b5e 47bd f388 04bd b857 b8bd
00000080: 6278 1d3b 7654 37bd 22ff b1bc 6831 a239
00000090: 4025 a53d 5502 d7bd f2d4 3abd 2074 173d
000000a0: bcc5 923d dbef 3cbd d14b 2b3d 6a25 76ba
000000b0: ea9a 98bd 1785 4d3d 4578 313d 5ef7 e33c
000000c0: fe09 96bc 3aca d8bd 9aae eabd ec68 05bc
000000d0: 6355 90bd 6692 a73d 5ec7 b53d c3b7 ccbd
000000e0: 36ec 93bd 8693 d93c f240 9fbd d594 5dbd
000000f0: 7e67 93bd dc08 0bbd 3220 d03c eab6 13bd
00000100: 3897 43bd 55e8 a8bd 3a28 2cbd 6ad3 bdbc
00000110: 0237 b0bd b30b 513c c787 8ebc 794d 36bc
00000120: 36cf 603d 3479 983d a136 59bc fc6e d73d
00000130: 923c c6bd 492e cf3d ba36 39bd f10a 90bd
00000140: a71e 023d 98e9 a13d 8e54 e7bd 86c9 cfbc
00000150: ab7f d03d 8905 00be 39e8 31bc cf79 9fbd
00000160: 4b4e b63d 53fc 85bd 484c 7d3d cbaf a3bc
00000170: f8d0 5ebd 2ff6 81bd 0620 8cbd eae3 d2bd
00000180: 0d5c 643d 5a9e f93c f340 c1bd d1ae cd3c
00000190: 5a62 093d 529c 883d dfb8 9abd 3a38 333d
000001a0: 98e4 fcbc 39e8 01be e65e 10bd ea48 953c
000001b0: a69f e03a 38cb d73d 13b6 48bc 8003 73bd
000001c0: b405 973d 1517 d33b da38 a4bc 1cea 3cbd
000001d0: 5bbd 993d f33b acbd f0bb d43c 4fb4 cc3d
000001e0: 7dcd da3d e41c 5a3d 0661 cfbd 3a14 a53d
000001f0: ceed b8bd 68ff 04be 2477 683d ea38 99ba
00000200: b824 0ebd 5add d7bb 8c5c 153d 7d4b fabd
00000210: 6268 b13d 9d43 013d 609d 5f3c 7933 973d
00000220: 3653 9d3a 3775 073e d926 aebd e78a adbc
00000230: e623 b7bd e4f0 a8bc b132 363d a282 b9bd
00000240: a41d fdbd 944a bbbd e76e c3bd 6f87 e0bd
00000250: 186a cabd 848f b73d 10cb b13d 3c70 cc39
00000260: 4665 97bd 231e 02be f040 9abd 59cb d13d
00000270: d00b de3c 1a98 b23d 1d61 adbb b471 e53d
00000280: d3fa d2bd 29cc b63d ba4d d93b f975 f33d
00000290: 981f a73d fb1e b4bd 5fff 53bd 1093 8ebd
000002a0: 40c6 e7bc 6ede f4bd 72a8 dbbc 8a04 ca3d
000002b0: 91a1 cbbd 7e05 05bd 6f54 eabc 9e5d ba3d
000002c0: dcce 903d 8ea2 9cbd 2915 9cbc e7ad aa3c
000002d0: 5348 b4bd c26e bb3d ca15 6ebc f029 903d
000002e0: 86ed cbbd b267 293d c436 bc3d 4dea 753d
000002f0: ae96 a53d 015f fdbd b586 993c 26a4 a63d
00000300: 7c6f 21bd 1aa7 263d abc5 86bc ad46 593d
00000310: 5019 89bd 1046 913c a4c0 14bd 4564 133b
00000320: c7de 413d 906f d43d e162 383d b2f1 d0bc
00000330: d37c 2e3c 8a0d b3bc 38ef dcbd dffe 853d
00000340: 218b c23d d9ee 593d 0e7e 843d 6f20 b4bd
00000350: b90c 32bb ee8d fb3b fcc4 223d eba2 77bd
00000360: 8b33 0d3d fc36 fb3b d0de f2bd 58f7 9a3d
00000370: a7a1 89bd fa32 ac3d f29d e53d b8cf 86bd
00000380: 04ad 5ebd 2b3b dfbd 20fd ca3d 02e4 89bb
00000390: 02cf 613d 24ec 8fbd 779b c73b a0e4 b03d
000003a0: a739 353c f899 abbd cc55 69bd 5689 08bd
000003b0: 7b0f 9e3b 5f61 eb3d 8aec b1bd 9af2 dfbd
000003c0: 12ce 023b b6aa 00be 1103 b53d 75bc acbc
000003d0: 6d34 d6bd 6921 0dbd 8a94 af3d a00f 79bd
000003e0: 8ad8 e8bd c719 ddbd 81f7 e63d 746a e2bd
000003f0: 27ab 2c3d 29c2 99bc 92ed 76bc 6626 c13d
-0.10851332 -0.112214014 0.09369231 -0.046511326 0.053851355 0.08129465 0.03595748 0.116215676
0.036495797 -0.061144892 -0.045961164 0.03812703 -0.09366567 -0.08242014 -0.06773702 -0.065547295
0.06061188 -0.027111823 0.11064856 -0.021405613 0.039786346 0.06966946 0.009495895 0.00042665057
0.012506153 0.09966743 -0.11412331 0.11175097 -0.048630055 -0.04867379 -0.032357167 -0.09001106
0.0024028053 -0.044758283 -0.021728102 0.00030935858 0.080637455 -0.10498492 -0.045613237 0.03697598
0.07166621 -0.04612718 0.04182035 -0.00093897304 -0.074514225 0.050175752 0.04332759 0.027827915
-0.018315312 -0.10585447 -0.11459084 -0.008142691 -0.07047536 0.0818222 0.08875917 -0.09995987
-0.07222788 0.026559602 -0.07776059 -0.054097015 -0.07197474 -0.033943996 0.025405977 -0.036063112
-0.047751635 -0.08247439 -0.04203055 -0.0231721 -0.08604242 0.012759137 -0.017398728 -0.011126869
0.05488511 0.07444993 -0.013257653 0.105192155 -0.096795216 0.1011625 -0.045218207 -0.07033337
0.031767514 0.079058826 -0.112954244 -0.025364649 0.10180601 -0.12502111 -0.010858589 -0.07786905
0.08901652 -0.06542268 0.061840326 -0.019981286 -0.054398507 -0.06345784 -0.068420455 -0.102973774
0.05575185 0.030471016 -0.09436216 0.025107773 0.03354106 0.06670441 -0.075547926 0.043754794
-0.03087072 -0.12686242 -0.035246752 0.018223245 0.0017137423 0.10536808 -0.012250441 -0.05932951
0.07374135 0.0064419606 -0.02004664 -0.0461217 0.0750682 -0.08409872 0.025968522 0.09995329
0.10683725 0.05325021 -0.101259276 0.080604985 -0.09029733 -0.12988055 0.056754246 -0.0011689935
-0.034702986 -0.0065876665 0.036465213 -0.122214295 0.086624876 0.03155862 0.013648361 0.073828645
0.0012002948 0.13228308 -0.08503503 -0.021184398 -0.08942394 -0.020622678 0.044481937 -0.09058119
-0.12359169 -0.09145084 -0.09542637 -0.10963332 -0.09883517 0.0896292 0.08681309 0.00038993533
-0.07392363 -0.12706809 -0.07531917 0.102438636 0.027105242 0.08720417 -0.005291118 0.11203328
-0.10301747 0.08925659 0.00663158 0.11887736 0.08160323 -0.087949716 -0.051757213 -0.06961644
-0.028292775 -0.119564876 -0.02681372 0.09864147 -0.09942926 -0.03247594 -0.028604714 0.09099887
0.07070705 -0.07648192 -0.019053059 0.020834876 -0.08802857 0.09151985 -0.014531562 0.07039249
-0.099574134 0.041358657 0.09190133 0.0600379 0.080853805 -0.12371636 0.018740991 0.081367776
-0.03941296 0.040686704 -0.016451677 0.053045917 -0.06694281 0.017733604 -0.03631653 0.0022490185
0.047331598 0.10372841 0.045016173 -0.025505874 0.010649878 -0.021857042 -0.10787815 0.065427534
0.09499193 0.0532063 0.064693555 -0.08795249 -0.0027168228 0.0076768314 0.03973864 -0.060458105
0.034472983 0.0076664668 -0.11858904 0.07566708 -0.06720286 0.084081605 0.11211766 -0.06582588
-0.05436422 -0.10899957 0.09911561 -0.004208089 0.05512906 -0.07027462 0.006091531 0.08637357
0.011061109 -0.083789766 -0.056966588 -0.0333341 0.0048236228 0.114931814 -0.08687694 -0.109349445
0.0019959253 -0.12565121 0.088384755 -0.021085957 -0.10459218 -0.03445569 0.085732535 -0.060805917
-0.113694265 -0.10795932 0.112776764 -0.110554606 0.04215541 -0.01876934 -0.01507129 0.09431152

lstm.bias_ih_l0 f4 [256]
00000000: 4bdc ab3d f77b 6fbd 09e8 8b3c bec6 d7bd
00000010: ebf9 6dbc 46d4 943b 6969 dfbd 001b d03d
00000020: b393 c7bd b05a 683d 64fb a83d 4781 bf3d
00000030: d825 80bd c13c e7bd 0961 803d d159 943d
00000040: b651 773d b0ec 86bd e143 c2bd 91d5 fd3d
00000050: e042 93bd a63d 043e 0179 5fbd 0d2d e03d
00000060: dcc1 04bc 2cad 2e3d 225f af3c be14 d1bd
00000070: b75d e93d 9411 08be 3015 903d 18e4 c53b
00000080: 3bc0 4a3c 438d ac3c 4ed5 ef3c dd74 8b3d
00000090: 0d22 bbbd d399 3b3d cd52 f83d 33b2 d33d
000000a0: 1dcf dd3d 9186 3f3d b6be 803d a14f 873d
000000b0: f856 c33d 4934 a8bc 6a30 083a bb76 28bc
000000c0: cc7f 96bc ba97 4a3d 4c41 80bd f507 08bd
000000d0: fee0 11bd 2a45 b43d a7cc 8dbd d04f a83d
000000e0: 0606 e43d 08f6 cebc 060a 8dbd b7cf efbc
000000f0: 436c 433d c7e0 e7bd dc11 da3a 54af 273d
00000100: c982 443d 3c31 b73d da93 993d 16ff f03b
00000110: bab9 02bd 8e9e 87bd 8eb2 36bd 52cc 0dbd
00000120: 6668 8cbd becb 3cbd fca6 3abd ca21 c9bd
00000130: 5dca 4abd ff8e cc3c f4c8 6c3d 5ebf f6bc
00000140: e1ef 56bd 92a9 403d d679 1bbd adc1 053e
00000150: 6813 8ebd b833 673d 3aa2 ebbd 5d98 9b3d
00000160: 9de4 40bc b070 be3d f90d 553d 0793 c7bd
00000170: 653c 94bc 9afa 56bd 0652 373d c76a 92bd
00000180: d018 a03d b1c4 043e a29c f63d 242b dbbd
00000190: dfa7 0ebd 5c0b 67bd 6154 e53a 21ee 4a3d
000001a0: 8007 733c 0d70 babd 93a7 9bbd f057 9cbd
000001b0: 97d6 78bd 3dc3 e23d 42e6 a6bd afe9 363d
000001c0: 030d c03d 7e71 25bd 047e 85bb 5b39 78bd
000001d0: ff2d 723d 0fdc 5abd 05ae 413d 6a1e d53d
000001e0: 90da fd3c 39b0 a13d 6fce 073e 750f 03bd
000001f0: 0836 fe3d 9c5a 26bb 4a7f 89bd b5b8 053e
00000200: 1de5 a5bd 146a 0a3e 4739 c9bd 5ffb bd3d
00000210: 6ce3 a8bd 6879 763d c533 6b3d 2b1a b5bd
00000220: 50f4 f23b 106a 22bd c755 7dbd 9eb0 6bbc
00000230: bfd1 ca3d b696 563a 60d9 9c3b d145 30bd
00000240: 7de6 45bd 7505 17ba db3d 9bbd a80e b73d
00000250: 5483 5bbb dd22 a8bd 14da 003e b155 b13d
00000260: 994d ccbd 03b2 7cbc 1f01 1abd bef4 a53d
00000270: 6729 85bd 9559 abbd 9728 513b 550c abbd
00000280: 0b60 58bd 6008 e43d 369b a83d d5cf aabd
00000290: 1f8b 7abd a794 d9bd d069 4a3b 1450 a7bd
000002a0: d4fb 18bd 7ebf e23c 4061 8abd fc8d 4ebd
000002b0: 4cb7 893d 9c49 2bbd 907d 063e e42a dcba
000002c0: 0692 e53b 257a c1bd 7337 dabd 53c2 dc3d
000002d0: ae9f 6e3c 53d3 f8bd 3643 083e 5192 2abd
000002e0: b512 9b3c 27fa 943d b443 3d3d 2da5 0a3d
000002f0: fd81 a63d 936b de3b 99a6 d13d ad68 7a3d
00000300: e7c4 51bc eeaa b9bd 33bd 0c3e a16a 923d
00000310: cf21 8d3d 11a3 34bd e3f9 1f3c 266f e6bd
00000320: e0f0 2bbd 507f d83d 8a66 a93d 371f 86bd
00000330: c204 003e 2ca0 593d 5f55 6bbd 8098 f53d
00000340: e0ad 2dbd fcd3 2d3b 790c 53bd 7648 2c3d
00000350: 09d9 cc3d b0e8 fe3c 14c6 d7bd 0fc5 b8bd
00000360: 0aac f9bd dc02 1c3d 01aa 913d 1a66 1cbd
00000370: 6eab 0abd 363a fabd 3467 273b e732 ccbd
00000380: 7ab2 a33d 275f 063e 6f3b 583d 6242 13bc
00000390: fc62 efbc 417b 1c3d a8ad cc3d a7b2 6bbd
000003a0: 100d c73d 95ca 353b 99ca f33b 2e34 f2bd
000003b0: 9f73 c73d 8fd6 5f3d 2226 30bd 1fc3 85bd
000003c0: 2b86 b23d 66a0 9ebd bc29 9f3c 345f a93c
000003d0: 71f2 f1bc 8d70 79bd 8043 623d 12a2 afbd
000003e0: 0836 b73b d193 2d3d 8e0a 75bd 17cc 743d
000003f0: 93c2 843d 3391 9f3c c968 c3bd bd4f 05bd
0.08391627 -0.05846783 0.017078416 -0.10535954 -0.014524917 0.0045419065 -0.10908777 0.101614
-0.09744968 0.05672711 0.08251074 0.093508296 -0.06257218 -0.11290885 0.06268508 0.072436936
0.06038066 -0.06588113 -0.09485603 0.1239425 -0.0719049 0.12914142 -0.054558758 0.10946093
-0.00810286 0.04264562 0.021407668 -0.102090344 0.11394828 -0.13287956 0.07035291 0.006039154
0.012374933 0.021063453 0.029276516 0.06809399 -0.09137354 0.045800995 0.12125168 0.10336723
0.10830519 0.046759192 0.06286375 0.06606985 0.09538072 -0.020532744 0.00051952025 -0.010282214
-0.018371485 0.049461104 -0.062624544 -0.033210713 -0.03561496 0.088022545 -0.069238 0.08218348
0.111339614 -0.025263801 -0.068866774 -0.02927385 0.04771067 -0.1132217 0.0016637403 0.04093869
0.04797629 0.089449376 0.074989036 0.0073546274 -0.031915404 -0.06622039 -0.044603877 -0.034618683
-0.0685585 -0.04609274 -0.045569405 -0.09820898 -0.049509395 0.02497053 0.05780883 -0.030120548
-0.05247486 0.047036715 -0.03795799 0.13062163 -0.06937295 0.056445807 -0.11505552 0.0759742
-0.011773256 0.09298837 0.05201528 -0.0974484 -0.018095205 -0.052485086 0.044755958 -0.071492724
0.078172326 0.12965657 0.12041594 -0.10701588 -0.034828063 -0.056407318 0.001749646 0.049543504
0.014833331 -0.09103403 -0.076003216 -0.0763396 -0.060751524 0.11072395 -0.08149387 0.04465645
0.09377482 -0.040391438 -0.00407386 -0.060601573 0.059125897 -0.05343252 0.0472851 0.10406192
0.030988008 0.0789494 0.13262342 -0.031997163 0.124126494 -0.0025383597 -0.067137316 0.13058741
-0.081003405 0.13517028 -0.09825378 0.09276461 -0.08246502 0.060174376 0.05742242 -0.08842882
0.007414378 -0.03965193 -0.06184938 -0.014385371 0.09903287 0.000818591 0.0047866553 -0.043035332
-0.048315514 -0.0005761006 -0.07580157 0.08938342 -0.0033495026 -0.08209775 0.1258319 0.086589225
-0.09975738 -0.015423301 -0.037598725 0.081033215 -0.065020375 -0.08366696 0.0031915063 -0.083519615
-0.05282597 0.1113441 0.08232729 -0.08340422 -0.061167832 -0.10624056 0.0030885823 -0.081695706
-0.037349537 0.027679201 -0.0675683 -0.050428376 0.06724414 -0.041818246 0.13133836 -0.001679745
0.0070059327 -0.09447125 -0.10655107 0.10779252 0.014564438 -0.12149682 0.13306889 -0.041643444
0.018929819 0.07274275 0.046207145 0.03384893 0.08130262 0.006787726 0.10236854 0.061134983
-0.012803293 -0.090658054 0.13744049 0.07149244 0.06891214 -0.044100825 0.0097641675 -0.11251669
-0.041977763 0.10571158 0.08271511 -0.065489225 0.12501815 0.053131267 -0.057454463 0.11991978
-0.04240215 0.0026524058 -0.051525567 0.04206129 0.10002334 0.031116813 -0.10535827 -0.09021961
-0.12191017 0.038088664 0.07112504 -0.03818331 -0.033854894 -0.12218134 0.0025543692 -0.09970646
0.07993026 0.13122235 0.052791055 -0.008987995 -0.029222004 0.03820348 0.0999406 -0.057543423
0.09719288 0.0027739157 0.007439923 -0.11826359 0.0973885 0.05464798 -0.043005116 -0.06531357
0.08716997 -0.07745437 0.01942908 0.02067528 -0.02953455 -0.060898352 0.055240154 -0.08575834
0.005591158 0.042377297 -0.05982452 0.059764948 0.064824246 0.019478416 -0.095414706 -0.032546747

lstm.bias_hh_l0 f4 [256]
00000000: bfd7 023e ceec 193d 14f2 363d 83d0 eebc
00000010: adc2 0c3d 51d8 7d3d 4123 fdba 9164 01bc
00000020: 40f1 e4bc 4f28 f33d fc59 243d b525 2abd
00000030: 5aa0 84bc 7913 82bd cad6 013e e9fb db3d
00000040: 5c74 873d 88f5 ffbb 9905 703d 5e9f 063c
00000050: 3bea 01bd b6d2 673d 0f7d 903d cee2 073d
00000060: ef3d e83d 9ff6 f2bd 569f 613c ec5e ebbd
00000070: 21aa e73d e5d6 a63d f40c 483c 8e02 abbd
00000080: 2f2d 82bd 6900 f2bc 2d5c b13d f3f7 babd
00000090: 6dde 00bd 19da bdbc 3d13 bd3c 6e66 123c
000000a0: 33d3 e4bd fff0 d23d d1d0 41bd 5d7a a4bd
000000b0: b8ce 7abd 0fba 863d 4641 da3d e9a4 93bd
000000c0: 245d eebc 384e 95bd ffd3 a9bd 2a2f 003e
000000d0: 64ea 8bbd b945 74bd f38a d13d 71db b93c
000000e0: 6012 9c3c 2613 673d 4318 713d 954c 5d3d
000000f0: 41f1 9fbd 25f9 28bd 376c b63b 0082 d9bd
00000100: add8 d5bd 729b 9f3d 6236 bcbd 1413 ccbd
00000110: 2c5a a93c 1691 f03d 4bd6 6ebb ba65 8c3d
00000120: eeea ac3d c218 5dbd bb5b a4bc 9a7a d9bd
00000130: a3ee debd c125 923b a517 cb3d 373a cc3d
00000140: 8f19 86bc b567 dd3d 5b1f d33d 476b 073e
00000150: a5b5 85bc c63d 613c 565d db3d 0fdf 673d
00000160: 3808 4ebd e482 843d 0531 483d 2f59 c6bd
00000170: e8fd 26bd 329f 50bd 8d89 8bbc 0d1e b7bd
00000180: 7c9e 33bd b484 7ebd 3b31 92bc 6807 743d
00000190: 0a7e a8bc 7946 d33d d10d 073e a5cf 7f3d
000001a0: c0c0 473d c176 c0bd ed7d 8b3d b0e4 e7bd
000001b0: dcd4 8bbd 0af2 72bd b8ed b7bd d1bd c23d
000001c0: 6764 cf3d a711 ae3d c78e b53d c6b2 98bd
000001d0: 4ff4 633d 5e59 823d 437a 333c 174f 14bd
000001e0: b586 613d 264c 9cbb ecce 903d 04a9 553c
000001f0: 54d5 12bb 29f0 98bd a413 d1bd a691 4e3c
00000200: 890f d63d d759 513d fb65 0e3d d519 a63d
00000210: 98bc cbbd d079 49bd 7c9a b43a 4e16 01be
00000220: 9a0c e73d 6438 853d d98f 233d 5451 6c3d
00000230: 7886 6d3d 0724 ec3d 4b70 033e 43c8 323d
00000240: f053 c03d 5080 66bd dca5 64bd e53f bbbc
00000250: 2f12 b33c 2de9 0bbe 97bf 4abd b57a ba3d
00000260: 1178 d13d ad77 803d 9f91 42bd 56e3 a03d
00000270: 14e7 09be 47dd 5f3d 9b9b a43d 544c 023e
00000280: 0268 a6bd 5429 703d f438 763c 7b23 ff3d
00000290: 5acf ccbd 2b40 f5bd 3ebe 8cbd 2f29 82bc
000002a0: d4a8 a63c 5918 be3d 0cfd b6bc 0e9a e9bd
000002b0: 69e0 86bd 18fd 353d 6592 8dbd d652 063e
000002c0: 3318 8abd dbb2 da3d 2700 613c e0be 76bd
000002d0: 02fe 88bd 7da9 9a3c c77f 0ebd cac5 d5bd
000002e0: 8661 6dbc 3fb5 cfbd 49fd 733c 304d d13d
000002f0: 375a d63d 2966 a4bd e400 873c 54ea 1e39
00000300: cddd cdbd c4b6 943d ded3 953d 8546 e6bd
00000310: 6a51 3abd 6195 c63d a974 95bd 2c1f e33d
00000320: 008f 81bd 5a2b d2bd b28f cabc 610b e73d
00000330: e634 8a3d c896 1abd 2608 083d 0248 b8bd
00000340: 3be6 d4bd 8a3a 673d 5e36 71bd 2e11 883d
00000350: ca30 073e a194 aa3c 8005 6bbd 36b9 efba
00000360: 0c9d dc3d ddcd 00be b908 c8bd a2c2 443d
00000370: 757c d6bd 12ac a83c 0504 8abd f82b 8f3d
00000380: 6a83 92bd 24b9 e33d cf4a d9bd f40b 2f3d
00000390: 016c 123d 3fc5 cf3d f8c1 8fbd 291e 96bd
000003a0: 3a0b 20bc d6f1 6d3b 0f12 9b3d d957 08be
000003b0: 6fde 44bd f1b3 d93d a5bd db3d ade5 d63d
000003c0: 22da 0abd 597b 4dbd 440f 8d3c 82a6 073d
000003d0: 5b84 75bd cb8b 093e 04da 10bd cf0b ffbc
000003e0: d89c ebbd 86a9 a33d d557 e43d 5366 c73d
000003f0: 84ff b839 5ea6 d5bc 535d ad3d 9f93 6f3d
0.12777613 0.03757935 0.044664457 -0.02915216 0.034365345 0.061973874 -0.0019312875 -0.007897512
-0.027947068 0.11872923 0.04012488 -0.041539866 -0.016189743 -0.0635137 0.12679592 0.107414074
0.06613991 -0.007811252 0.05859909 0.008216707 -0.03171752 0.056597434 0.07055103 0.033175282
0.11339938 -0.118634455 0.013770899 -0.11492714 0.113117464 0.08146457 0.0122101195 -0.08350097
-0.06356274 -0.029541211 0.08660159 -0.09129324 -0.03146212 -0.023175286 0.023080463 0.008935554
-0.111730956 0.102998726 -0.047318283 -0.080311514 -0.0612323 0.065784566 0.10656981 -0.072091885
-0.029097147 -0.0729031 -0.08292388 0.12517992 -0.06831816 -0.059636805 0.102315806 0.022687646
0.01905173 0.056414746 0.05886103 0.054028112 -0.078096874 -0.041253228 0.0055670994 -0.10620499
-0.10441718 0.07793321 -0.0919006 -0.09964576 0.02067288 0.11746423 -0.0036443647 0.0685534
0.08443247 -0.05397869 -0.020063272 -0.106190875 -0.1088536 0.004460067 0.09916619 0.09972041
-0.01636961 0.10810796 0.10308715 0.13224517 -0.016321966 0.013747638 0.10711162 0.05660921
-0.050300807 0.06470278 0.048874874 -0.09684979 -0.040769488 -0.05093307 -0.017033363 -0.089412786
-0.043852314 -0.062138274 -0.01784574 0.059577376 -0.020567913 0.10316176 0.13188864 0.062453885
0.048767805 -0.093976505 0.06811128 -0.113229156 -0.06827709 -0.059312858 -0.08980888 0.09508861
0.10126572 0.08499461 0.08865123 -0.07455973 0.055652913 0.06364702 0.010954442 -0.03620824
0.055060107 -0.00476982 0.07070717 0.013040785 -0.0022404986 -0.07467682 -0.10208824 0.0126079675
0.10452182 0.05111107 0.034765225 0.08110396 -0.09948081 -0.049188435 0.001377895 -0.12606165
0.112817004 0.06504896 0.039932106 0.057694748 0.057989568 0.11530309 0.12835805 0.043648016
0.0939101 -0.056274712 -0.05582224 -0.022857616 0.021859257 -0.13663168 -0.04949912 0.09105436
0.10227979 0.06272826 -0.047502156 0.07855861 -0.13467056 0.054654386 0.08037492 0.1272443
-0.08125307 0.058633164 0.015028227 0.12457939 -0.10000487 -0.1197513 -0.06872223 -0.015888778
0.020344175 0.09281988 -0.022337459 -0.11406337 -0.065857716 0.044430822 -0.06912688 0.13117537
-0.06742897 0.10678645 0.0137329465 -0.060240626 -0.06689073 0.018879646 -0.034789827 -0.10438116
-0.014488583 -0.10141992 0.014891931 0.102198005 0.10466426 -0.08027298 0.016479917 0.00015155348
-0.10052071 0.07261422 0.07315801 -0.11243919 -0.0454878 0.096964605 -0.07297642 0.1108993
-0.06326103 -0.10262175 -0.024726722 0.11281467 0.06748371 -0.037741452 0.033210896 -0.089981094
-0.103954755 0.05645231 -0.05888974 0.06643902 0.13202205 0.020822825 -0.057378292 -0.001828945
0.10772142 -0.1257853 -0.09767289 0.04803718 -0.10472957 0.020589862 -0.06739048 0.06990808
-0.071539715 0.11119297 -0.10609972 0.04273601 0.03574753 0.101450436 -0.070194185 -0.07329971
-0.009768302 0.0036307476 0.07571804 -0.13314761 -0.04806369 0.10630024 0.10729531 0.10493026
-0.033899434 -0.05016646 0.017219193 0.03311778 -0.059940677 0.13432233 -0.035364166 -0.03113356
-0.11504525 0.079913184 0.11149565 0.09736314 0.0003528559 -0.026080307 0.08465066 0.05849039

lstm.weight_ih_l1 f4 [256, 64]
00000000: bdfa 0c3d 2ac3 63bd 5a59 66bd e2b9 5f3d
00000010: baeb ffbd cd44 8cbd 8c64 ca3d 4d64 debd
00000020: e11b b9bd c6f2 9f3d 3e02 b93d 7994 56bd
00000030: b9e7 873d 775b e93c 27ab 5f3d fa9a c2bd
00000040: 19b2 29bb 4755 0e3d b9ef 1f3d 3ea3 753d
00000050: 7abd 5dbd 91d9 dd3c 7a0c 093e 6c71 33bd
00000060: 0878 fdbc 4b6d 27bd ddc0 e8bc e5a4 ba3d
00000070: 48cf d83b 37cd b63d 639c e23d c083 2cbd
00000080: 0fea 993d 6333 0b3e d1df 4dbd f73a a0bd
00000090: 6040 13bd 14ed 45bb 9fb1 4ebb 6e34 05bc
000000a0: 73db 933d 8b5c 95bd 3f44 a0bd 241d 00be
000000b0: d58e 303d 12f5 68bd f7cd 8bbd 8184 acbd
000000c0: e322 2b3d 86ee 44bd 2023 13bc 90ce febd
000000d0: ba6f 25bc 5ebd dd3d 8a99 14bc 0542 a2bc
000000e0: 1c58 f0ba 38a6 b3bc c49d 843d 5844 823c
000000f0: 9b62 b33d 8d36 883d 9554 b8bd 1904 d8bd
00000100: d463 963d 3e9c 60bd 2f6b 64bd 1d5c f1bd
00000110: 783a a73d b7c3 fd3c b12b 163d 9ce9 34bd
00000120: 883c 573d cefa 17bd 0727 f1bd bc75 883d
00000130: fdfd 8ebd b6a1 94bb 62cc 083e a06c 95bd
00000140: 45bc 5f3d 9c72 e83c 0637 3d3d 5ced 003d
00000150: 7f7a 0bbd 274e ca3d 797c da3c 1a4a 003e
00000160: 4314 71bd 48cd 98bd e0b8 c83d 9688 e93c
00000170: 5490 803d 604f 52bd 23dc 0b3e 2fcd b93d
00000180: 240a b0bd 08a3 373d 9026 463d f33b b2bd
00000190: 044f a93d b449 f8bd 2d94 d0bd cc5d ab3d
000001a0: 1688 023e ce6d 07be 0039 c23d 4b67 a83d
000001b0: e52f 10bd e525 10bd a5b8 933d e2e5 a63d
000001c0: 7e87 6d3d 9154 b03c a345 b8bd dfb5 dcbd
000001d0: 16f2 d7bc f0e2 2dbc f9eb dbbd 8d64 02be
000001e0: 39a6 dc3d 7b82 b73d 11b3 f13d 9b34 d5bd
000001f0: 1183 763c 982d bcbd 4688 cabc a2e1 8e3c
00000200: d0f4 c83d 4ca7 04be be95 2fbd 1c41 433d
00000210: b46a e4bd 66c6 8c3b 913e 293d 39a1 433b
00000220: dbed 573c 010f 903d 8999 29bd 7494 1abd
00000230: 2503 3d3c 9942 183d aa5f 343d 2094 a4bd
00000240: 5377 c93d 4275 02be 4567 a2bc 0e84 bdbd
00000250: 69e9 26bd 76b4 9a3d d05c c93d 1a12 bfbd
00000260: a01e 8c3c 9187 f93d 2ebd 47bc 370d ea3d
00000270: 8602 8cbd e272 f6bb 5644 093d 9187 08be
00000280: 892f 9d3d 11b0 25bd 36f0 adbc 7e2a 0b3d
00000290: 0ad8 4cbd d334 d83d bd6c d4bd 1bb7 273d
000002a0: db57 683d ef15 873d d6ee 03be c302 debd
000002b0: c80a 533d e8c3 cabc 1ac8 c3bd f1f6 853d
000002c0: c9ae 4abd d4b9 9e3d 704d c2bd 585c c83d
000002d0: 197e 0cbe 7f37 3d3d 8454 65bd cd29 b8bd
000002e0: af04 fcbd b387 363d eb6e 04be f082 c43b
000002f0: da48 84bc bfe2 bbbd 9a7c afbd 46d9 03bd
00000300: 5a1e 97bd dc21 5abd 1d89 6e3c 1127 6bbd
00000310: b965 1cbd babc 5a3d d069 ef3d 244f ca3d
00000320: 71a0 e13c 09d4 633d 3556 9a3d aecf 583c
00000330: 1d21 3cbd db5c babd 98fc 2abd cc13 9d3d
00000340: 18ab 48bd a26b d7bd 82b5 4c3d 2188 763c
00000350: 8678 d93d 1706 873c f589 b23d 8e4e 37bc
00000360: 5a55 00be 8666 bbbd 1780 90bb a226 d6bd
00000370: 13a3 aa3c 86d5 d63c 436c dbbb 4e27 5d3d
00000380: 0a80 06bd 4f09 d6bd 8e53 00be 8ef3 e8bc
00000390: c37e d2bd 17a5 eabc c53e ebbd d7e6 e8bd
000003a0: bf78 e43d 1802 b33c 2055 d6bd ec8b f93c
000003b0: ff21 c9ba 2f3b aa3d 7ee4 813d dec2 21bd
000003c0: b3f5 a93d 35a4 423c 240b afbd 7c29 7a3d
000003d0: 6137 a53d 636e 723d 1f3c 92bd f716 b63d
000003e0: bcf1 aabd aa6c 02be 5fd4 55bd c73b c1bd
000003f0: 8b7c 8fbd 3369 d8bd f3c0 aabd 32fc c93d
0.03441881 -0.055606045 -0.056237556 0.05462063 -0.12496133 -0.0684906 0.09882459 -0.108589746
-0.090385206 0.07809977 0.09033631 -0.05238769 0.066359945 0.028485997 0.054606583 -0.09502216
-0.0025893508 0.034749296 0.039046977 0.059970133 -0.054135777 0.027081283 0.13383666 -0.04380934
-0.030941024 -0.040875714 -0.028412277 0.091134824 0.0066165067 0.089258604 0.11064985 -0.042117834
0.07515346 0.13593821 -0.050262276 -0.07823747 -0.035950065 -0.0030201124 -0.0031538976 -0.008130176
0.07219591 -0.07293042 -0.07825517 -0.12511116 0.043104965 -0.056874342 -0.06826394 -0.084237106
0.041781317 -0.048079036 -0.008980542 -0.124417424 -0.0100974385 0.108271345 -0.00906981 -0.019806871
-0.0018336806 -0.021929845 0.06475404 0.01590173 0.08759042 0.0665103 -0.09000508 -0.105476566
0.073432595 -0.054836504 -0.05576628 -0.11785147 0.08165449 0.030977113 0.03666276 -0.0441681
0.05254796 -0.03710442 -0.11775022 0.06663081 -0.06982038 -0.004535879 0.13359216 -0.07296109
0.054622907 0.028374963 0.046195053 0.031476364 -0.03405237 0.098781876 0.026670681 0.12528268
-0.058857214 -0.07461029 0.09800887 0.028507512 0.062775284 -0.05134523 0.13658194 0.09072339
-0.08595684 0.044833213 0.04837662 -0.08702841 0.08267024 -0.12123433 -0.10184512 0.083675
0.12747225 -0.13225481 0.09483528 0.082228266 -0.035201926 -0.03519239 0.072129525 0.081493154
0.057990544 0.0215247 -0.08997657 -0.10776877 -0.026360553 -0.010613188 -0.107383676 -0.1273367
0.10773892 0.08960434 0.11801732 -0.10410424 0.015045897 -0.09188384 -0.024723183 0.017441574
0.09812319 -0.12954444 -0.042867415 0.047669515 -0.111531645 0.004296112 0.041319434 0.0029850735
0.013179268 0.07034112 -0.04140619 -0.037739232 0.011536394 0.037172887 0.044036545 -0.08036065
0.098372124 -0.12740043 -0.019824633 -0.09253703 -0.04074994 0.075539514 0.09832156 -0.093296245
0.017104447 0.1218406 -0.0121911 0.11428302 -0.06836419 -0.0075210193 0.033512436 -0.13332964
0.07675082 -0.040451113 -0.021232706 0.03397607 -0.05001072 0.105569504 -0.10372303 0.040946107
0.05672441 0.065959804 -0.12884077 -0.108403705 0.051523954 -0.024751619 -0.09559651 0.06541241
-0.049483094 0.07750288 -0.09487426 0.09783238 -0.13719977 0.046195503 -0.055988804 -0.08992348
-0.12305581 0.044563007 -0.12932937 0.0059970543 -0.01614802 -0.09174108 -0.08568688 -0.03218963
-0.07378836 -0.053254947 0.014559058 -0.057410304 -0.038182948 0.05340264 0.11690104 0.09878376
0.027542325 0.055622134 0.07535974 0.013233108 -0.045930017 -0.09099742 -0.0417448 0.076697916
-0.048991293 -0.10518576 0.049977787 0.015047104 0.10618691 0.016482396 0.087177195 -0.0111881625
-0.12532559 -0.09150414 -0.0044098007 -0.104565874 0.020829713 0.026224863 -0.0066962554 0.053992562
-0.03283695 -0.10450994 -0.12531874 -0.028436448 -0.10278084 -0.028643174 -0.11486582 -0.11372154
0.11155843 0.021851584 -0.10465455 0.030462228 -0.0015345215 0.083120696 0.063424096 -0.03949248
0.082988165 0.01187997 -0.08547047 0.06107472 0.08067203 0.059187304 -0.071403734 0.08891099
-0.083468884 -0.12736765 -0.052204486 -0.0943523 -0.070061766 -0.1056694 -0.083375834 0.098625556

lstm.weight_hh_l1 f4 [256, 64]
00000000: b5b6 5c3d bf35 3c3d 130f a63d a01b 6ebd
00000010: 76f1 103d 7fb4 aebd 3958 bd3d c46d fdbd
00000020: 296a d63c d758 c1bd 612b 003e 11d6 943d
00000030: d6a4 ecbd e2e2 bdbd 29e8 6fbd 1987 0d3d
00000040: 0673 dc3d 764f a8bd 3bcc a7bd 7286 cdba
00000050: 6251 aa3d 678c 94bc 293e ecbd c8d6 a2bc
00000060: ed1c 2cbd bc49 633d c99a ccbb 4753 cebd
00000070: 7408 d13d 318d 3bbd 8ea4 fe3d a567 3abd
00000080: 0c48 dc3d 1177 103c db41 2dbd ec92 ba3b
00000090: aa78 85bd 3352 753d 9e2d 10bd b56f 193d
000000a0: 2159 e3bd 3690 a43d 35cb 633d 3e0f 93bb
000000b0: e60e b23d f651 dbbc f2a7 873d 2c07 5c3c
000000c0: ea19 d23d 13a9 53bd 9a1e 53bd be0e eebb
000000d0: 04e3 1b3d 82c2 9abd 72ff 2fbd 658d 133c
000000e0: 42c7 e43c 166d bbbc bc23 383d 6d85 82bc
000000f0: 9fb0 9e3d 22ad d5bd c6de 06be 6504 af3c
00000100: 5bdb f83d 6e7c 26bc 7e02 a03d b89c 95bc
00000110: 6d82 dcbd a203 e83d b383 a9bd b662 403d
00000120: 3ba3 333d 9bdd 9abd d51f 0a3e 2116 c7bd
00000130: 1dcd 623d b22a c43d 8c33 3a3d 50c9 e83d
00000140: 1ddc 90bd af01 9bbd d1d6 bfbd 7109 803d
00000150: 0a0d 51bd 5667 f4bd ecc2 513d df6f e93d
00000160: 4152 fc3a d6ac 45bd 7d8c a13b 8cb0 d23c
00000170: 76a3 9e3c 5b60 efbd d89d 9a3b 1a8c e93d
00000180: 5966 7cbb 8a36 7a3c fc9f dd3d 908c ef3d
00000190: 33a9 e6bd 4071 493d 31dc d8bc 00eb 143d
000001a0: 6a51 64bd 4296 453d c3cc d53d 4cf7 64bd
000001b0: fa1f fb3d ad09 d03d 602f b1bd 3dda 7bbd
000001c0: d839 f1bd d3ee 893d 4ce9 a73c 6b1b 993d
000001d0: 39b0 943d 191f 683d e09f f1bd 8943 d43d
000001e0: a5b3 c13d d6cf f6bd 7aaa dc3c c456 c23d
000001f0: 71b3 08be 7c2b 74bd 30f9 92bd 91a9 4a3c
00000200: 0dc0 143d 104e 7abd 4dc0 fc3d 8003 b6bd
00000210: 7921 c63c 91be 47bd 9de4 093d a027 4cbd
00000220: 2b97 943d 2844 9d3d 0bac f0bd 9938 f2bd
00000230: 38a3 e53d d08a efbd 04f6 b43d 2713 5abd
00000240: 1542 5f3c 3390 91bd d1c1 c93d bc7e dd3d
00000250: af4f 2cbd 459f 943d c9ad d43d 0625 cb3c
00000260: d5f1 043e 2c9e cc3a 7040 2f3d 98eb 123c
00000270: ea1c 4f3d fb02 423d 1f26 24bd 6c1c 7abc
00000280: e823 cabd 7f7f 9d3d 932b df3c 003b 8b3d
00000290: 89c3 533c c334 3d3d ef04 e33b f469 423d
000002a0: 0be6 8c3d e63d 90bd 42b9 ff3b 9eca aabd
000002b0: f6af f0bc 020d 993d 67e7 9bbc e3d2 89bc
000002c0: 3554 173d 22de 893d cda3 a83d 1ac7 d3bd
000002d0: 9512 37bb 860c 77bd e8a4 cabd e0a5 2e3d
000002e0: 5ced 1c3c 2c68 b0bb d4a5 f03d efad 893d
000002f0: 2c1c bbbd f581 603d c9ba 90bd 4abd afbd
00000300: 0bd3 223c 90ea 1dbd c80f 183d fca6 88bd
00000310: d186 9d39 da49 e83d 4e3f 933d 71b3 5bbc
00000320: 0f89 803d b900 0dbc 3e93 103d 6c8e b33d
00000330: 8712 b5bd 6396 9e3d 3a01 b2bd 4dd3 f1bc
00000340: 968f a93d b157 80bd d3cd d23d ec53 b73d
00000350: 580d 64bd 83a5 863d 5026 633c 3d5d 8cbd
00000360: 3253 a83d a384 643d 1603 f53d b0ef 8d3d
00000370: 3580 9cbd 9a12 6abd 690f ecbd 4465 fb3d
00000380: 6007 0bbd d925 e9bb 8b66 9abd ea83 063e
00000390: 255e e8bd 5eaa 08bd 9ba3 f23d c89e cc3d
000003a0: 0185 023e 8ae8 a13d f374 8ebd 883b dfbd
000003b0: bb9e 79bd 2ef2 cf3d 95bb e73d 2568 67bd
000003c0: 1b63 cc3c 024a 86bc 73c0 453c 957d 3b3d
000003d0: e2a6 6a3d 672d 74bd 4eee a43d 7bff 443c
000003e0: d332 9abc e4b5 93bd 454f a2bb a78f c4bd
000003f0: edd1 71bd 6abc d03d 9bec 8f3d 180e a53d
0.05388518 0.045949694 0.08108344 -0.058131814 0.035386525 -0.08530521 0.09245343 -0.12374452
0.026173668 -0.09440773 0.12516548 0.072673924 -0.115548775 -0.0927179 -0.058571015 0.034552667
0.107641265 -0.08218281 -0.08193251 -0.0015680327 0.08316304 -0.018133355 -0.115352936 -0.019877806
-0.042019773 0.05549024 -0.0062440378 -0.10074478 0.102066904 -0.045788947 0.1243373 -0.045509
0.10755929 0.00881745 -0.042299133 0.005693784 -0.065171555 0.059892844 -0.035199754 0.037460048
-0.11100984 0.080353186 0.055613715 -0.004487901 0.08694248 -0.02677248 0.0662383 0.013429444
0.10258849 -0.051674914 -0.051542856 -0.007264941 0.038058296 -0.07556631 -0.04296822 0.009005879
0.027927045 -0.022879165 0.044955954 -0.015932763 0.077485316 -0.10433413 -0.13170919 0.0213644
0.12151214 -0.010161502 0.07812975 -0.018263206 -0.10767064 0.11328818 -0.08277073 0.046969138
0.04385684 -0.07561799 0.13488705 -0.09721018 0.055371393 0.09578456 0.045459315 0.11366522
-0.07073233 -0.075686805 -0.09367145 0.06251801 -0.051037826 -0.11933772 0.051211283 0.11398291
0.0019250588 -0.048260532 0.0049300776 0.02571895 0.019365054 -0.116883 0.0047185235 0.114036754
-0.0038513152 0.015271792 0.1082153 0.11696732 -0.11262741 0.04918027 -0.026472183 0.036356926
-0.055741705 0.048239 0.10439446 -0.055899903 0.122619584 0.101580955 -0.08651614 -0.061487425
-0.11778611 0.06735005 0.020496987 0.07475933 0.07260174 0.056670282 -0.11798072 0.10364444
0.094580926 -0.1205136 0.026936758 0.094892055 -0.13349701 -0.059611782 -0.07176435 0.012369529
0.036315966 -0.061109602 0.12341366 -0.08887386 0.024185883 -0.048765723 0.03366529 -0.049842477
0.072553955 0.076790154 -0.117515646 -0.118272014 0.11212772 -0.11696398 0.08835986 -0.05324092
0.013626595 -0.07107582 0.09851421 0.10815188 -0.04206818 0.07256941 0.103847094 0.024797928
0.12982877 0.0015611104 0.04278606 0.008967303 0.050564684 0.047366124 -0.040075418 -0.015265565
-0.0987013 0.076903336 0.027242457 0.06798363 0.012925037 0.046192896 0.0069280784 0.047464326
0.06879815 -0.07043056 0.007804067 -0.083394274 -0.02938078 0.07473184 -0.01903124 -0.016824191
0.03694554 0.067318216 0.082343675 -0.1034071 -0.002793466 -0.060314678 -0.098947346 0.04263866
0.009578075 -0.005383512 0.11750379 0.06722628 -0.09136233 0.054811437 -0.070668764 -0.08581026
0.009938012 -0.038553774 0.037124425 -0.06672475 0.0003004582 0.11342211 0.07189809 -0.013409481
0.06276142 -0.008606129 0.03529667 0.08767399 -0.088414244 0.07743528 -0.0869164 -0.029519701
0.0827934 -0.06266726 0.10293164 0.08951554 -0.055676788 0.065745376 0.013864115 -0.06853721
0.08218993 0.055790555 0.11963479 0.069304824 -0.07641641 -0.057146646 -0.11526377 0.12275174
-0.03394258 -0.0071151075 -0.0753909 0.13136259 -0.11346082 -0.0333656 0.118476115 0.099912226
0.1274605 0.079056814 -0.069559 -0.109000266 -0.060942393 0.10153614 0.11315075 -0.056495804
0.0249496 -0.016392712 0.012069809 0.04577406 0.057288058 -0.05961361 0.080532655 0.012023802
-0.018823063 -0.07212427 -0.0049532973 -0.09597712 -0.05903809 0.10192187 0.07027551 0.08059329

lstm.bias_ih_l1 f4 [256]
00000000: b73c 0b3d b202 9bbc c9e1 cbbd 42af 5b3d
00000010: 7855 82bc e6bf 953d 4ca1 f73c a4a7 9b3d
00000020: 47aa a5bd eada 18bd 00f7 85bd 8623 81bd
00000030: 3acb 80bd 43a5 943d e829 dfbd 64c4 91bc
00000040: 1633 843d f63b fabd 0494 d7bd 7dc3 d73d
00000050: 70fa 8bbd 3d8a 063e 995d a93d f39c 953d
00000060: 158a ee3d b53e 19bd f648 86bd 1493 253d
00000070: ded9 11bb e453 c93b 6331 ad3a cd5d 87bd
00000080: 607f 7a3d b383 a73d 14e7 293d d869 403d
00000090: bb1a 933c 6718 e1bd 0990 0abd 94b9 67bd
000000a0: 43a7 a53c 2378 aabd f386 e43d 2a55 9a3d
000000b0: da6b afbd 65fe cdbd 5fdc 6fbb 2d34 93bd
000000c0: 60b7 25bd dd30 773d 2ea9 873d e04e a7bd
000000d0: 844f 05bd 84c6 cd3d 6c2d b63c e8b0 003e
000000e0: 0e80 5ebd aff8 5dbc 30e3 d6bd 3c16 2b3d
000000f0: d3f1 dbbd 47de e43d 62af c0bc be9c 23bb
00000100: ae15 a03c f47b 063e be0a e0bd 5601 bbbd
00000110: 3b62 213d 9c86 8cba 14c1 b1bd d429 b7bd
00000120: 502d dd3d cbcc b93c 5cae d2bd b8b5 883d
00000130: 42ed 18bd 928c f6bd d11d d23b d77f 803b
00000140: eaed 86bd 7115 983d 6cee 873c df2f d23d
00000150: 5118 aebd 4464 873d dd83 4e3d 9bdc 87bc
00000160: 8c37 ccbd 289a 61bd e3e5 e33d 535a 5dbd
00000170: c17d 7abd 61ff 85bd 7691 68bd c385 0cbd
00000180: b74a f8bc 6834 0bbc c865 ad3d 44dc adbd
00000190: facb 853d b3db f13d cfc2 783d 97d0 b7bd
000001a0: d052 6b3d 3999 0a3d 455f f2bd 06ca 26bc
000001b0: d867 99bb 9a71 49bd 59b0 10bd aee0 e13d
000001c0: d087 df3d 2023 9abd 627d 963d 2449 09bd
000001d0: 5dd0 e6bd 3484 f03d 48c4 69bd 1b52 24bc
000001e0: dad4 49bd 21ea f83d 7ab1 dcbd af53 20bd
000001f0: f817 5dbd 70b2 b6bd 396d c4bb f4e0 00bd
00000200: cac1 ed3d 52d8 8dbd c14b ff3c 327b a73d
00000210: 34b4 af3d 3e8f 0d3c 6bca f53d 1231 e7bd
00000220: cc35 aabc 3975 c23d 5f5f b23d 8556 eabb
00000230: eb51 45bd 3eec a3bd 88d5 7bbd a0f4 5b3d
00000240: 1215 d33d 917a d83d 48fa 763d 738f 85bd
00000250: 6bd3 e83c 69d4 3bbd 7b81 83bd ee6b c6bc
00000260: de23 f93c 36b8 f63d 5cce c0bd 4d64 853d
00000270: 4a1b a1bd 3ba5 4ebd a198 b33d 6c48 a2bd
00000280: 0beb e83d a720 92bd 8d44 62bc 6f67 b03c
00000290: c31e 323b 8b40 5f3d df42 98bd fe0d a53c
000002a0: 51ee 72bd 3135 6b3d 6787 e6bd 17ba e1bd
000002b0: edf3 36bc 7405 f0bd 067c 513a f37c 69bd
000002c0: 9950 113d 23be ecbc 60d4 9abd fb1c a53d
000002d0: 5cfc c9bd 5950 84bd cd23 e3bd 8d8b 88bd
000002e0: adf3 2e3d 3536 ecbd 2a15 22bc 1bae 063e
000002f0: e74e 33bc d115 c73d 9ece b4bd a0aa d1bd
00000300: 824f ae3d 4677 09bd a8fe dbbd 92f0 6fbd
00000310: a8f8 3f3d 0900 933d 1aa4 25bd 4a10 313d
00000320: 31a2 0e3d a1ee fe3d 5826 063e 3ba1 8a3d
00000330: f709 9abd b0b5 4fbc ee8f 64ba bced 07be
00000340: 454e 5c3d d2f9 e9bd 3f4b d3bc a8b4 033d
00000350: 571f 00bb ef8d 303d c252 393d 3091 22bd
00000360: dc55 c83d c4a2 f13d 31a6 c2bd 634a d6bd
00000370: f376 62bd 6423 f23d 3fd8 e43d 0ec7 f23d
00000380: fdfa a03d f4d5 f33c 75f2 853d 882d 0b3d
00000390: 42de 0cbc dc2b 363d a959 dbbc 365a f9bc
000003a0: 1f9c c23c 8d27 c43c eb50 7d3a 95d9 b5bd
000003b0: 35db 05be d8b6 1e3d 8dd9 dbbc 3ac7 953b
000003c0: e914 d53c b349 79bd acae dfbc 7708 30bd
000003d0: 3a3e 0f3c c90c 30bd 5209 cebd 7a38 903d
000003e0: 0ec2 043e 83a7 db3b 7447 8f3d 9d60 723d
000003f0: 7718 943d 6f73 e2bd 0915 f3bd 7809 85bd
0.03399345 -0.018922184 -0.099551745 0.053633936 -0.015909895 0.07311992 0.03022828 0.07600334
-0.080891185 -0.037318148 -0.06541252 -0.06305604 -0.062887624 0.07258084 -0.10896665 -0.017793842
0.06455056 -0.12218468 -0.105262786 0.10535333 -0.068348765 0.13138671 0.082698055 0.07305326
0.11647431 -0.037413318 -0.06556885 0.040423468 -0.0022255103 0.0061440337 0.0013213571 -0.06609688
0.06115663 0.081794165 0.04148014 0.04697594 0.017957082 -0.109909825 -0.03382877 -0.056573465
0.020221358 -0.083236955 0.11158552 0.07535775 -0.08565493 -0.100582875 -0.0036599857 -0.07187686
-0.040458083 0.060349334 0.06624065 -0.08169341 -0.032546535 0.100476295 0.022238456 0.12567484
-0.05432134 -0.01354806 -0.10492551 0.04176925 -0.10739484 0.111752085 -0.023521129 -0.0024965252
0.019541588 0.13133222 -0.10939549 -0.09131114 0.03940032 -0.0010721269 -0.08679405 -0.08943525
0.10799658 0.02268066 -0.10287163 0.06675285 -0.03733564 -0.120385304 0.006412246 0.0039214897
-0.06588347 0.074259646 0.01659318 0.10263037 -0.08500732 0.06610921 0.050418723 -0.016584685
-0.09971532 -0.055078655 0.11127832 -0.054041218 -0.061155085 -0.0654285 -0.056779347 -0.034307253
-0.030309064 -0.008496381 0.08466679 -0.08489278 0.06533046 0.118094824 0.06073266 -0.08975332
0.057452023 0.03383753 -0.118345775 -0.010180002 -0.0046815686 -0.049180605 -0.03532443 0.110291824
0.10914576 -0.07526231 0.073481336 -0.033517018 -0.11270211 0.11743966 -0.057071954 -0.010029341
-0.049275257 0.121540315 -0.107760385 -0.039142307 -0.053977937 -0.08920753 -0.0059944657 -0.031464532
0.11609228 -0.069260255 0.031164052 0.081777945 0.08579293 0.008640109 0.12001499 -0.11288656
-0.020777605 0.09495015 0.08709597 -0.007151427 -0.048173826 -0.08004044 -0.061482936 0.05370009
0.10306753 0.10570253 0.06029728 -0.065215014 0.028421124 -0.045856867 -0.06421181 -0.024221387
0.03041261 0.12046854 -0.0941436 0.065132715 -0.07866533 -0.050450545 0.08769346 -0.079239696
0.11372956 -0.07135134 -0.013810289 0.021533696 0.002717898 0.054504912 -0.0743463 0.020148274
-0.059309307 0.057423774 -0.11256295 -0.11021822 -0.011166555 -0.1171979 0.0007991198 -0.057003926
0.035477255 -0.028899258 -0.075600386 0.08062168 -0.09862587 -0.064606376 -0.11090813 -0.06667242
0.042712856 -0.11533777 -0.009892741 0.13152353 -0.010944105 0.09720958 -0.088284716 -0.10237622
0.08511259 -0.033561014 -0.10741931 -0.058579035 0.046867996 0.07177741 -0.040439703 0.043228425
0.034822647 0.124478586 0.13100564 0.067690335 -0.07521432 -0.012677595 -0.0008718957 -0.13274282
0.05378558 -0.114246026 -0.025792716 0.03215471 -0.001954993 0.04310411 0.04524494 -0.039689243
0.097820014 0.11798623 -0.09504355 -0.10463407 -0.05528922 0.118231565 0.11174058 0.11854373
0.07860372 0.029765107 0.06540386 0.03397897 -0.008597912 0.04447542 -0.026776152 -0.030438524
0.023756085 0.02394464 0.0009663242 -0.08879391 -0.13071902 0.038748592 -0.026837135 0.004570869
0.026010947 -0.0608613 -0.02730497 -0.042976823 0.008742863 -0.042980943 -0.100603715 0.07042022
0.12964651 0.0067033186 0.069960505 0.05917417 0.07231229 -0.110571735 -0.118692465 -0.06495947
